code/seed42/cGAN_discriminator.pth (torch, 868214 bytes, 5 tensors)

model.0.weight f4 [640, 16]
00000000: 9aaa 28bd 0275 11bd 4b09 80bc 511e 3abc
00000010: 28b1 29bd f12f 4bbc 7520 c4bc 7b73 cabc
00000020: 00b7 bf3b dfd1 4ebd c938 50bd e7cf 2dbd
00000030: 0593 95bd 1542 15bd 7fd5 01bc ea16 2fbd
00000040: f60e 8bbc eef6 d83c ef2b 2e3d 1de7 7dbc
00000050: 898c 58bc 9d30 12bc 5202 43bd 351e 73bc
00000060: 744f 003c 6ab6 f6bc bc0a 003d 2038 86bc
00000070: 4c32 8c3b 5c65 e5bc 78f0 003d 3daa 053d
00000080: 337e 1cbd e032 3ebc 82f0 01bc d97c bebd
00000090: 619a 8abc 9049 adbc 75f1 2ebd 0676 4abb
000000a0: 0ad7 cdbc 9701 9dbc e1db ab3c c580 033c
000000b0: a099 f5ba 31fa 7fbd cdd7 81bc 43f7 4dbc
000000c0: 72fe ac38 34bb f0bc cf21 37bb 0073 083b
000000d0: a38a 143c 99b9 a33b c4a3 2abc d0dc bebb
000000e0: 62ef 0a3d 64ca 59bd e3bc 80bc f37a 72bc
000000f0: 8ab8 353c f132 a1bc 8abd 703c 0e99 e5bc
00000100: 4310 70bc 55a9 9d3c 4250 b13c 14e0 3a3c
00000110: dbde 5abc f975 933b 93d0 8f3b ee20 67bc
00000120: 6a4b d8ba 5430 9f3c 26ee cabb bcfa 52bc
00000130: d608 2e3a 7a1c a0bc 325a 373c bc53 f63c
00000140: 662a 1840 1bd6 90bf 2ce3 ef3f 899c 173f
00000150: 3897 45bf d7db 18be 5dd9 debe 91c1 513e
00000160: 53c6 03bf 08dc 7abf 9109 c4bf 4abf 4cbe
00000170: 5748 ba3f e631 19bf e51f 8ebf 525b c8bf
00000180: 7785 e6bc a22c 10bd 2f06 78bc 1eab 68bd
00000190: 6388 94bc 8a3b 1abd 991e cabc 31b1 d7bc
000001a0: b941 5d3c f26a b039 dbc6 6abd 8749 98bc
000001b0: 9fe5 cfbc 0ccc 3cbc 3800 30bd 15fd 80bd
000001c0: 22ca 16bc 18b9 d3bd 7033 81bd 4618 91bd
000001d0: 463c 01bd 50b2 3fbd a93a b7bd 93dd d3bd
000001e0: 7714 14bb a088 583d 69cb 88be 28a4 60be
000001f0: 86f2 e33b 00d4 92bc b650 1dbd 74f1 8ebd
00000200: 3daf 5d3c 7568 01bc 7c3b 23bc 453a 09bc
00000210: 5e02 193d 26db a0bc 61b3 363c aeec d93b
00000220: f567 e8bc a0ba b6bb d63b 963c 216d f0bc
00000230: 02b5 8b3c 451a 31bb 6c0f 8c3c 0088 a6ba
00000240: 38db c23c c5ae 0bbd 0a21 14bd 83df 36bd
00000250: 2086 1dbd 5912 9bbd 8909 13bd c3ed 9bbb
00000260: fdaf 16bd bc2d a8bd db81 70bd 659f debb
00000270: 8680 fcbc 80d1 4fbd 6175 e9bc edbb 82bd
00000280: 390c 1e3c 24b0 1ebc 370d cf3c 641f 3dbc
00000290: cbf5 b0ba 58d5 293d 3ce4 2939 f7e7 c8bc
000002a0: dbe2 c13b 265c 96bc 67c6 26bc e2f6 9e3c
000002b0: e58e b63b 0dff 833c 5ccf b1bc bdc1 873c
000002c0: 8fb3 adbe a5a6 86be bfbe 0d3f 8e49 91be
000002d0: c096 b2be c512 8abe 454e d9be 847b dabe
000002e0: 3f3d 37be 2b1d 9a3b 84be 813e 2222 223e
000002f0: 588a c13e d478 87be 8156 5cbe 55e7 06be
00000300: 16e1 bd3c c282 8ebd cf05 213d 8dd4 bf3b
00000310: a57d efbc 155f 3dbc 93c4 85bd 8021 51bd
00000320: 5c84 50be f1df 8dbc 1a26 383e 6a09 123e
00000330: 409b 19be 796d 70be 4885 853b 42b3 4ebe
00000340: ee09 22bd 5db5 8abd be2e edbb e09f 43bd
00000350: 8f13 d1bd aff8 8fbc 5eb2 83bd f716 38bc
00000360: fc5d 57bd d908 09bd 74e3 e83b c925 3abb
00000370: cc37 32bd 1dd5 70bc b87b 45bd e823 18bd
00000380: 1d40 23bd 9b8b 1cbd 7fc9 aabb 8776 b3bc
00000390: add5 a5bd 70d2 b9bc 49e6 673c d9fc 26bc
000003a0: 148f 3fbd 9a9f 3ebd 4286 8d3c 6628 ff3a
000003b0: 7c30 64bd ad9f 09bd 14a9 15bd 61da 70bd
000003c0: 0de9 b8be 8540 b0bd 883e 513f 73dd 52bd
000003d0: 30b1 873d bdc1 aabd 67b9 f5be 7411 a8be
000003e0: e51d 14bf 984e 61be 6a7e bbbe a2dc 69be
000003f0: 57ba 0dbf 3637 bfbe 596b c6bd b6bb 7ebe
-0.041178323 -0.035511978 -0.015629431 -0.011359767 -0.041428715 -0.012401567 -0.023941258 -0.024713269
0.0058506727 -0.050493117 -0.050835405 -0.0424346 -0.073034324 -0.036439974 -0.007924437 -0.042746462
-0.016974907 0.026484933 0.042522367 -0.015496996 -0.0132171 -0.008922723 -0.047609635 -0.014838745
0.007831443 -0.030116279 0.031260237 -0.016384184 0.004278457 -0.028002433 0.03147933 0.032633055
-0.03820629 -0.011608809 -0.007930877 -0.093011566 -0.016919317 -0.021153241 -0.04271074 -0.0030893101
-0.025126953 -0.019165797 0.02097887 0.0080263065 -0.00187378 -0.06249446 -0.015849972 -0.012571159
8.248993e-05 -0.02938614 -0.0027943735 0.0020820498 0.009066257 0.00499649 -0.010415021 -0.0058246627
0.0339197 -0.05317153 -0.015715068 -0.014799821 0.011091361 -0.019677611 0.014693627 -0.028027084
-0.014652315 0.019245783 0.021644715 0.011405963 -0.013358797 0.0045001474 0.0043888777 -0.014106972
-0.0016501967 0.019432224 -0.0061929403 -0.012877163 0.000663889 -0.019544829 0.011190938 0.030069225
2.3775878 -1.131534 1.8741202 0.5922323 -0.77183867 -0.14927612 -0.4352521 0.20483996
-0.51474494 -0.9799199 -1.531542 -0.19994846 1.4553326 -0.59841764 -1.1103483 -1.5652869
-0.028139813 -0.035198815 -0.015138193 -0.056803815 -0.01813144 -0.037654437 -0.024672793 -0.026329609
0.013504439 0.00033649016 -0.05731855 -0.018589748 -0.025378047 -0.011523258 -0.04296896 -0.062982716
-0.009203466 -0.10338038 -0.06308639 -0.07084708 -0.03155162 -0.04680091 -0.089467354 -0.10344996
-0.0022595206 0.05286467 -0.2671769 -0.2193762 0.0069564013 -0.017923355 -0.03840705 -0.06979647
0.01353055 -0.00789844 -0.009962913 -0.008375709 0.037355773 -0.019635748 0.011151166 0.006650529
-0.028369883 -0.0055764467 0.018339079 -0.029348912 0.017054085 -0.0027023715 0.017097197 -0.0012705326
0.023786172 -0.03410222 -0.03616432 -0.04464675 -0.03845799 -0.07571859 -0.035897765 -0.004758568
-0.03678893 -0.08211848 -0.05871759 -0.0067939037 -0.030823004 -0.050736904 -0.028498353 -0.063835
0.009646469 -0.00968555 0.025274856 -0.011543129 -0.0013500986 0.041463226 0.0001620212 -0.024524672
0.005916936 -0.018354487 -0.010179139 0.019404832 0.0055712336 0.016112829 -0.021705322 0.016571874
-0.33926055 -0.26299015 0.5536918 -0.2837643 -0.34880638 -0.26967445 -0.42442527 -0.4267236
-0.17894457 0.004703184 0.25340664 0.15833333 0.3780086 -0.26459372 -0.21517374 -0.13174184
0.023178618 -0.06958534 0.03931218 0.0058541954 -0.029234717 -0.011558314 -0.06531634 -0.05105734
-0.20362991 -0.017318698 0.17983285 0.14261404 -0.1500063 -0.2347926 0.0040747263 -0.20185569
-0.03956025 -0.067728736 -0.007238238 -0.04775989 -0.10208809 -0.017574636 -0.06430505 -0.011235944
-0.052579865 -0.033455703 0.0071071927 -0.002840387 -0.043510243 -0.014699248 -0.04821369 -0.037143618
-0.039856065 -0.038219076 -0.0052120085 -0.021907104 -0.08097396 -0.022683352 0.014154025 -0.0101921195
-0.04676731 -0.046538927 0.017275933 0.0019466996 -0.0557103 -0.033599544 -0.0365382 -0.058802012
-0.36115304 -0.08606056 0.8173604 -0.05148072 0.06625593 -0.08337734 -0.47993013 -0.32825816
-0.57858115 -0.22002637 -0.36619884 -0.22838071 -0.5536246 -0.3734681 -0.09688444 -0.24876294

model.0.bias f4 [640]
00000000: b1a2 bc3c 46e1 69be 9f5c 3f3d 4ec7 36be
00000010: b49a aabd 7050 aebf 7005 32bd 89ed 10bd
00000020: b002 1ebe 7c05 c9bd 1ad8 5cbe 8b73 e7bd
00000030: 8dca 6dbc 0165 cc3d 50e6 9e3d 7edc 29be
00000040: 81d8 0b3e 5484 ebbd 2c96 1d3d 19e9 2cbe
00000050: 26b8 73be b679 9cbe 16cb 27be 0488 a53d
00000060: 58df 8d3a 00e8 9a3d b93b 143e a48e dbbd
00000070: dc02 98bd 8546 11bd 0823 c8bd 54b0 1ebe
00000080: 44aa 3abe e2fc 79bc a4e2 74be ae74 44be
00000090: c6a1 43be f501 073e ad0e 13bd b287 33be
000000a0: 34e6 23be f242 1bbe e491 61be 4a15 863d
000000b0: 437b b13d 74fe 0940 eaf7 c63d a6ed 05bf
000000c0: 7276 35be a212 4b3d 15b2 69bc cfef 51bc
000000d0: 8e36 b03f ac14 0abc 40f5 833d 1ca7 46be
000000e0: a8ef 0bbe 87cb 0ebd 8ae9 0ebe 16d4 50be
000000f0: b8bb d4bd ee1d 8ebd 42bb 16be 5825 e2bd
00000100: fe19 a6bd 0686 41be e3ef 793d 6e9b aa3d
00000110: caac 1cbd b9c1 aebd ba47 3e3d 662e b9bc
00000120: c26d 403c d34d c9bf 5867 f0bd 12b0 733d
00000130: 705e 2b3e a2ed c63d f0c0 6bbd 722b 40be
00000140: a47c 40be eba7 96be 730c 9bbe 603c dabd
00000150: d050 9dbd d854 b6bc 3066 92bd f84a 863d
00000160: 897f adbc 046b 84bd a04c 7dbe 1f4c 66be
00000170: f8f0 e4bd cff1 153d 22c7 5dbe fdaa 813d
00000180: c87c c7bd dc44 973a e9e1 a53d e824 643c
00000190: d43e 11be 2872 f13d 9517 09be 0e16 d3bd
000001a0: bab3 9f3d aabc 58be 3ac8 a73d f542 ccbd
000001b0: 0cfb ddbd 071c 3a3b 22aa 03bd e4c6 76be
000001c0: 4cac bbbd 56e6 43be 3c9a 683c 2c5f c5bc
000001d0: 875f bebb 5c18 14be 1d24 e93d 7894 ffbd
000001e0: 9ced 04be d421 0abe 6665 e63d d317 98bd
000001f0: 8c4e c5be 9741 b7bd 60db e6bd a069 e7bd
00000200: e2d5 e83d f910 39bd 5e3e aa3b 9063 a8bc
00000210: 7251 073d f448 03bd 844b bbbd 1045 35be
00000220: c85c 1abe 1492 82be 5926 93be 2c58 903c
00000230: 1f85 243d f088 b2bd be77 22be 6da0 afbf
00000240: 8f39 15bd e45d 26be 666b 50be 8ce7 d8bd
00000250: f6cf 44be f691 b8bd 0a52 9d3b 35a3 96bd
00000260: ba98 6dbe 00fb 06be 375b 1a3e 707e 0e3e
00000270: dad3 debd eaac 0bbe 3e11 10be cedf 1fbe
00000280: be34 2cbe 9681 51bd 37cf 87be bb2e b9bc
00000290: ceb6 7bbe fa4d 2abe 5c03 28be 7cb9 33be
000002a0: 4b7b a73d 3cf3 b3bd 2c14 23be 78ac 5fbe
000002b0: 60dd 3bbd 9575 44bd 4ffd 8cbe 6342 0dbe
000002c0: 01a8 90bd 239c 51bd f8a1 32be f264 8dbe
000002d0: 2c1c 33be 0815 993d 6c61 12be 21de b2bd
000002e0: 83e7 f3bd e94b 6b3d 0404 babe f23b 2d3d
000002f0: 9787 573f cd5e 91bd 7887 81bd a76a 34be
00000300: 37fd c83d 2701 153d a81c 2fbe f542 fc3c
00000310: 28dd 8abd 1291 5cbe bd50 1ebe 4663 5dbe
00000320: 25a1 64bd b334 20bc 7a54 a73b 6ef7 9cbd
00000330: 8510 4cbe 68a5 a2bd 12d6 1dbe 9943 0e3f
00000340: ec79 44be bc3d 50be 64e9 e53d da3a 1dbe
00000350: fdae bc3d 34f1 1dbe 44d1 50be f4b7 463d
00000360: c591 dcbd 7612 46be 48b6 4bbe c92f 223e
00000370: 362c 60be 533a 2e3c f2fb b13d 5c9c 83bd
00000380: b86f 42be 13db 84bd 29a2 9b3d 9444 843d
00000390: 2a59 35be f82f 86bd 0df3 54be 9c05 893d
000003a0: e666 00be 2cdc 47be f4a1 68be 3b8a ebba
000003b0: f095 a1bd 1040 d8bd 136e bcbd 2c18 bfbc
000003c0: 5a54 03be 6297 5cbe 1828 3dbd c737 353e
000003d0: 5d7d 62bd 1f8e 00be 94a5 59be 2dd1 fd3d
000003e0: d239 d73c 4252 eabd 12be 163e e73a c2bd
000003f0: 480d 563c ba64 2a3d 984c 36be 1862 ee3c
0.023026796 -0.22839841 0.04671919 -0.17849466 -0.083302885 -1.3618298 -0.043462217 -0.03538278
-0.15430713 -0.09815499 -0.21566811 -0.11301335 -0.014513624 0.099802025 0.077587724 -0.16588017
0.13656808 -0.11499849 0.038473293 -0.16885795 -0.23800716 -0.30561608 -0.16386065 0.080825835
0.0010824008 0.07563782 0.14475907 -0.10720566 -0.074224204 -0.035467643 -0.09772307 -0.15496951
-0.18229014 -0.015258046 -0.23914582 -0.19185135 -0.1910468 0.1318434 -0.035902668 -0.17532232
-0.16005784 -0.15162256 -0.22028309 0.06547029 0.086660884 2.1561556 0.097152546 -0.5231575
-0.17720965 0.049578317 -0.0142636495 -0.0128135225 1.3766649 -0.00842778 0.06443262 -0.19399685
-0.1366564 -0.034862068 -0.13956276 -0.20393404 -0.10387367 -0.069393024 -0.1471987 -0.11042279
-0.08110426 -0.18898782 0.06101979 0.08330427 -0.038250722 -0.085330434 0.046455123 -0.022605132
0.011744918 -1.5726875 -0.11738461 0.059494086 0.16735244 0.097132936 -0.057557046 -0.18766573
-0.18797547 -0.29424986 -0.30282936 -0.10656047 -0.076814294 -0.022257254 -0.07148397 0.06557268
-0.021178978 -0.06465724 -0.24736261 -0.22489975 -0.11178774 0.03660756 -0.21657994 0.063314416
-0.09740597 0.0011540907 0.080997296 0.013924815 -0.14184123 0.11789352 -0.13387902 -0.10306941
0.07797952 -0.2116572 0.08192487 -0.099737085 -0.10838899 0.0028398053 -0.032144673 -0.24099308
-0.091637224 -0.19130835 0.014196929 -0.024093233 -0.0058097276 -0.14462417 0.11383841 -0.1247949
-0.12981266 -0.13489467 0.11249809 -0.07426419 -0.3853649 -0.08948057 -0.11272311 -0.11299443
0.1136892 -0.045182202 0.005195423 -0.020555288 0.033036657 -0.032051995 -0.09145263 -0.17702127
-0.15074456 -0.25502074 -0.28740194 0.017620169 0.040166017 -0.08717525 -0.1586599 -1.3720833
-0.036431845 -0.16246754 -0.20353469 -0.10591039 -0.19219956 -0.09012215 0.0048010396 -0.07355348
-0.23202792 -0.13181686 0.15073858 0.1391542 -0.10880251 -0.1364018 -0.14069077 -0.15612718
-0.16816995 -0.051148973 -0.2652528 -0.02260529 -0.24581453 -0.16631308 -0.16407531 -0.17551225
0.08177813 -0.08786628 -0.15925664 -0.21843135 -0.045865417 -0.047963697 -0.2753701 -0.13794856
-0.07063294 -0.051174294 -0.17444599 -0.27616078 -0.17491215 0.074747145 -0.14294976 -0.08733774
-0.11909392 0.05744544 -0.3633119 0.042293496 0.8419127 -0.0709816 -0.06324667 -0.1761881
0.09813922 0.036378052 -0.17100775 0.030793646 -0.067804635 -0.21539715 -0.15460487 -0.21619901
-0.055817742 -0.0097781895 0.005106506 -0.07664381 -0.19928177 -0.07941705 -0.15413693 0.55571896
-0.19187135 -0.2033605 0.11226156 -0.15354481 0.09213064 -0.15424043 -0.20392329 0.048515275
-0.10769991 -0.1934298 -0.19893754 0.15838541 -0.21891865 0.010634023 0.08690633 -0.064263076
-0.1898793 -0.064870976 0.07599289 0.06458393 -0.17709795 -0.06552118 -0.20795842 0.06690523
-0.12539253 -0.19517583 -0.2271803 -0.0017970273 -0.078899264 -0.10559094 -0.092006825 -0.023326956
-0.12825146 -0.21542123 -0.046180815 0.17697059 -0.055295337 -0.12554215 -0.2125457 0.12393413
0.026272688 -0.11441471 0.14720944 -0.09483891 0.01306469 0.041599967 -0.17802656 0.02909951

model.3.weight f4 [320, 640]
00000000: 69f0 3f3b c18b 273d 221e 91bd 4fad 7abc
00000010: d3fd 5bbc e474 58be 6145 373c bff9 0f3b
00000020: d372 b9b9 5cf3 6cbb d706 5d3b 23ab db3e
00000030: b0e6 0bbd f78f 01bc 4810 69bc 0556 1dbf
00000040: 238d 65bd 0625 d3bb d861 aabe 4d0e a1bd
00000050: 4f7e f23c 87bb 5f3e 0f95 87bb 82e3 aabe
00000060: 2ac4 62bd 7305 d1bf e454 1bbd 304e 4fbb
00000070: c774 e5bc fe1e 483f c9f7 cc3c 8b0c 61bb
00000080: 3e65 f33a a838 803c 06e1 a7bc f7bc 6bbc
00000090: 8ef6 d9bc c748 e4bc 637f 85ba 9447 cc3c
000000a0: 27e0 c3bb 7366 ebbc 2b4f 3bbc 54b8 e9bc
000000b0: 2b31 5abc ff0a f7c0 0f4b c8be 8fe5 e23e
000000c0: 422e 9dbf 2b38 143e 95d9 633e 4a61 cd3c
000000d0: f6ce f5c0 d7da 6f3e cf39 46bf fe82 ad3b
000000e0: 79f0 933e 2054 b4b9 ea45 b5ba fd0b dbbc
000000f0: b507 77bc c91e 37bf 8660 83bc 9faa 823c
00000100: e902 26bc d27a ddbc 4cd0 eebc 5742 82bd
00000110: 451a 4fbe bba7 80bc e44c 59bc c2fd 02bd
00000120: b0c2 e2bc 5fd5 dcbd b02b ae3b bd1c 91bb
00000130: 3234 afbc 7a06 b5be 5ec1 ca3c 2742 363d
00000140: decb d2bc b784 933f 892f b5be d291 34bb
00000150: 80b2 213c 6adc a9bc f5a6 6fbd 7945 b9bc
00000160: 6f96 5cbe f4fb 47bc b281 f3bc 8786 a63e
00000170: 78c6 84bc d902 213f 8e47 993c 2eba f6bd
00000180: f41d 4d3c 694d 46bd f98e bdbd 8dd6 e0bc
00000190: 52cf 61bb 8d59 b73e 6fe2 c8bf 7a64 b23e
000001a0: 5c41 07be 86c3 1bbd 6a92 233e 0fc5 abbf
000001b0: c7a7 8ebb b7ca b03b 6646 b7bb 6965 b1be
000001c0: e60e 0f3d 450d b2bc a494 a5be f5a0 57be
000001d0: 9b3e f8bb c1d8 483c cf26 803f 7b3d 8dbf
000001e0: 3339 453e 9b3b 4e3c 8c4e 4dbe cb72 78be
000001f0: 00af 7d3f 672c 52bf 55f2 63bc 94e2 9ebd
00000200: fe8c 853c 71df 0abd 463b 5dbb f589 933c
00000210: 8949 09bd d61e 97bc 4c71 f6bb ccd7 6cb8
00000220: 8279 8d3c 47a7 af3e 427d 51be de65 d9be
00000230: 11f4 6ebd 99b5 003d 59c7 af3c 7e15 f53e
00000240: 4341 8f3b cb3a 9f3b cf70 443b b0be 85bc
00000250: 7485 143c 1734 81bd 921e b8bc 7fbb e13e
00000260: 72ca 64bc 1b5d 19bd 7ddb e03a 26ee 6ebe
00000270: 47cc afbe 1387 d7bb 1248 3a3c 5eef 48bc
00000280: f7d1 f3bc 76df de3d 4122 15be 091e 933c
00000290: c785 a73c d7ea 463c 0dcc 353a 5225 053c
000002a0: 2380 433d a6f0 3e3c 774e 033f 470e 423d
000002b0: eb98 68bd f08e 79bc 7fef e4be 7d5e 8f3e
000002c0: e44f 3f3c bea3 d1be 2ab5 453c 2685 3c3f
000002d0: f499 7f3c 6810 a2bc b850 1bbc b76f 77bc
000002e0: 7ba2 153e 40b0 c6be 0a80 94be fbdf 8d38
000002f0: 82a9 93bf 9542 16bc 19c6 b4b9 c6b4 043d
00000300: 1abe 993d c30a bbbc 771c 3d3b 1913 d53c
00000310: 0bdc 953c 1dad a5bc 14a9 023f b533 42bc
00000320: 86a8 46bd c5e6 9dbe f478 91bc 99e5 33bb
00000330: bb26 75bc f0dc 623c ef3c 1bbd b5ab 85bc
00000340: 5d46 efbc 531c 07bc e86b 353f a439 b53c
00000350: 4bae 0f3e 5a2c 0a3b 893b 503c 661f 17bd
00000360: 3cf4 883b 221c acbc 7de9 183c 9bb2 acbc
00000370: 81f4 bf3c 3d27 a1b9 947b 3ebd 8ecd 453d
00000380: b7b4 1ebc 828d 0abc 8e15 843c 9cdc a9bc
00000390: f00a 12bb b330 60bc c0ab 193f b65f 09bb
000003a0: c441 d13c c6cf 5e3c e6f9 d13b 45ec 4f3b
000003b0: b6db 173c a578 b6bc 95c2 37bc 6b29 eebc
000003c0: 5482 153d 927d fa3a 6fdd 37bc db59 743c
000003d0: 16c0 26bc c5f5 873b ca15 bb3b 3aa1 98be
000003e0: 0897 04be cb75 e43c 96fe 22bd ae4a 293d
000003f0: 2e51 eebc 1e14 d93b 4148 b7bc be77 78bd
0.0029287583 0.040904764 -0.070858255 -0.015300109 -0.013427216 -0.2113834 0.011185975 0.0021968929
-0.000353715 -0.0036155796 0.0033726 0.42904004 -0.034155548 -0.007907859 -0.014225073 -0.6145938
-0.0560428 -0.0064436225 -0.33277774 -0.07864056 0.029601244 0.2184888 -0.004137642 -0.333767
-0.055362858 -1.6329788 -0.037922755 -0.0031632297 -0.028009785 0.7817229 0.025020497 -0.0034339752
0.0018569601 0.015652016 -0.020493042 -0.014388314 -0.026606824 -0.027866734 -0.0010185059 0.024936475
-0.005977649 -0.028735375 -0.011432449 -0.028530277 -0.013317387 -7.7200923 -0.39119765 0.44315764
-1.2279742 0.14474551 0.2225097 0.025070805 -7.681514 0.23423325 -0.7743196 0.0052951565
0.28894404 -0.00034394953 -0.001383004 -0.026739115 -0.015077521 -0.7153135 -0.016037237 0.0159505
-0.01013253 -0.027036104 -0.029152058 -0.063603096 -0.20224865 -0.01570498 -0.013262961 -0.031980284
-0.027680725 -0.10782885 0.0053152665 -0.0044284747 -0.021387193 -0.35356504 0.024750408 0.04449668
-0.025731977 1.1524876 -0.3538783 -0.0027552736 0.009869218 -0.020734984 -0.058508832 -0.022616135
-0.21541761 -0.012206066 -0.02972493 0.3252451 -0.016207919 0.6289497 0.018710878 -0.1204723
0.012519348 -0.048413668 -0.092557855 -0.027446056 -0.0034455848 0.3581051 -1.5694102 0.34842283
-0.13208526 -0.038028263 0.15973821 -1.3419513 -0.0043534967 0.0053952592 -0.005593109 -0.34647682
0.034926318 -0.021734843 -0.32339966 -0.21057494 -0.0075758225 0.012258709 1.0011843 -1.1034387
0.19260101 0.012587453 -0.20049495 -0.2426254 0.99095154 -0.82099 -0.013912757 -0.0775806
0.016302582 -0.033904497 -0.0033757254 0.018010119 -0.033517394 -0.01844732 -0.0075208303 -5.646776e-05
0.017269854 0.3430731 -0.20457938 -0.4246053 -0.05833823 0.031423185 0.021457361 0.4786796
0.0043717935 0.0048593036 0.0029974466 -0.016326278 0.009065021 -0.063087635 -0.022475515 0.4408836
-0.013964282 -0.037442308 0.0017155256 -0.23333034 -0.3433554 -0.0065773814 0.011369722 -0.012264101
-0.029763205 0.108824655 -0.14563848 0.017958658 0.020449532 0.012140951 0.0006935008 0.008126574
0.047729623 0.011654055 0.512916 0.047376897 -0.05678646 -0.015231833 -0.4471397 0.28001776
0.011676762 -0.40945238 0.012067119 0.7364067 0.01560067 -0.019783214 -0.009479694 -0.0151023185
0.14612763 -0.38806343 -0.29003936 6.7651235e-05 -1.1536105 -0.009171148 -0.0003447987 0.03239896
0.07506962 -0.02283228 0.0028856078 0.026010083 0.018293401 -0.020224148 0.5103924 -0.011853148
-0.04850056 -0.30840126 -0.01775787 -0.0027450083 -0.014962847 0.013846621 -0.037899908 -0.016317228
-0.029208357 -0.008246499 0.70867777 0.022122212 0.14031331 0.0021083564 0.012709507 -0.03689518
0.0041795056 -0.021009509 0.009333012 -0.02108126 0.023432018 -0.00030737548 -0.046504572 0.048291735
-0.00968664 -0.00845659 0.01612356 -0.020735078 -0.0022284351 -0.013683486 0.60027695 -0.002096159
0.025544055 0.013599342 0.006407964 0.003172652 0.009268692 -0.022274325 -0.011215826 -0.029072484
0.036501244 0.0019110909 -0.0112222275 0.014914001 -0.010177633 0.004149171 0.0057093846 -0.29810506
-0.12948239 0.0278882 -0.039793573 0.041330986 -0.029091444 0.0066247126 -0.02237332 -0.06066107

model.3.bias f4 [320]
00000000: 3943 d8bd 8f4b 093e 8f23 01c0 66e4 82c0
00000010: 7a64 e9bf 8397 f9bf 9d3d 0dc0 7950 3ac0
00000020: 9b86 a0bf 827b 3dbe 3a7e 3cc0 7c67 dbbf
00000030: 718d 41bf d90a 36c0 0092 c9bd ee55 13bf
00000040: 8387 a3c0 80d7 88c0 c7f8 9dbf 69f6 fcbe
00000050: 15a8 f5be 4eeb aebc 8223 b0bd 1ec1 19bf
00000060: b818 ddbe 2faa 70bf 5db6 42c0 70b9 9ebd
00000070: f729 f8bd 313c 2ac0 e6df d7be 14e3 28c0
00000080: 16ea 8cbf c6de 033f cb97 d1bf 9437 d6bf
00000090: 32ed aabd 99ec 0bc0 05e7 d4be ff0b 533f
000000a0: 7b68 bdbf f184 76c0 3a17 0fc0 5333 b7bf
000000b0: 2196 dcbe a0bd 8cbf 28c8 23c0 16b4 34bf
000000c0: 645f 1bbe e309 e4bf 25b8 92bf 533b c1bf
000000d0: b63b 89bf 8388 85c0 d9ca b1be 702d 9bc0
000000e0: d477 febe fd79 49c0 2cba 5abe d435 38be
000000f0: a186 01c0 4391 84be 4d48 9cbe d96e 0cbf
00000100: b601 63bd c2f3 13bf de1d f9bf 71ae 83bf
00000110: fda4 a43f df2e 4bc0 c292 1dc0 267b 42be
00000120: 2afb 0cc0 dc0b 23bf 7f7b aebf 86b3 2dbe
00000130: 4bd1 5cbd d8ca 11c0 9387 80bd 5979 9a3e
00000140: dca1 47bf a65c 0c3f a487 adbe 6590 223f
00000150: 1039 e7bf 6623 a7bf 46de 16c0 0629 c4be
00000160: 2c22 77bd d6b7 e5be fcdf 4b3f ad63 b3bf
00000170: 3a33 d4be 5bdd acbf 6d34 a2bd 285d 953f
00000180: 18c5 6d3f c4c9 cfbf fa5c 3fbf ec55 a8bf
00000190: 3047 8ebf 0795 55c0 dad6 57c0 1d73 edbd
000001a0: 7f65 87bf ffa8 54c0 22e5 78bf fe14 a3be
000001b0: e1a0 d9bf 62bd d0bf 2a17 cabd 66e6 9dbf
000001c0: 8cd9 4ebe 5cb8 d8be 647f 4ec0 6490 43bf
000001d0: bb91 16be 7e69 b13f 100d 89bf 7285 7cc0
000001e0: c400 2ebf d9d6 3ebf 001b 19be ab85 0ac0
000001f0: 4921 96bd 4721 dabe 5b64 c9bf babd 44bf
00000200: 7440 85bf 06bc 85c0 87cb 2a3e 5525 493d
00000210: af01 95be f988 c0be db40 a8be 08a5 c5bf
00000220: 4ff5 4abe be3f 0bbf a9da 19c0 e1c4 9fbf
00000230: 352b 1ebf eb22 88bf 6c21 79c0 bbe5 afbd
00000240: ee22 9cbe 91cf f0bd 9562 4cbf f0ff d9be
00000250: c529 33c0 50f2 653f c7e5 6bbe 7439 04c0
00000260: 085f 443f 20a1 a3bf ab55 6fbf 46b5 0dbf
00000270: f4c9 80be b3d4 fabf 7d27 28be f5b2 87bf
00000280: e15f babd b9c1 72c0 5e5a e7be 2e0b 46c0
00000290: 7dea 063f 33a1 dcbe 474a fcbf 912a 7ac0
000002a0: 1cfd 77c0 7194 74c0 eb33 02c0 1793 2ec0
000002b0: aaff 46bf 96bf 2e3f edf0 07bf ac96 64c0
000002c0: 2aa1 39bf c0f3 92bd 24c9 2cbe 3ec6 05c0
000002d0: 1c2b 0ebf 4220 e43e 1471 a7be bfcf f8bd
000002e0: fd6e 12c0 362e 48c0 375e 31c0 b291 0ec0
000002f0: 68f9 0dc0 6f0d e9bd 0162 08bf 181d edbd
00000300: 3f0f 4cbf 00ef 8ebf b219 11bf ef4e 94bf
00000310: eb05 7fc0 d449 23c0 e0c2 3f3f 9dca 103d
00000320: ff6f 9fbd ee3a d4bd 17d6 f8bf 2738 0cc0
00000330: 01fe 83be debc fabd 2c3a a0be 4237 1cc0
00000340: f9ea a7bf 61ba 19c0 6e7b 83bd 57d9 20bf
00000350: 2a93 52bf cf77 cfbd 22ee 8abf 9dd7 b3be
00000360: 1a40 04be 018e f8be bb63 3dbf 0618 c63e
00000370: 7abd 24bf 9910 80bd 3b61 37be e5b8 0abf
00000380: f86a 06c0 81da 8c3e 1b50 833e 7b8e 373f
00000390: 62c2 25c0 db91 a13e 7cb6 253f 69cd 33be
000003a0: 9926 81bd e921 73c0 26ba 7dc0 cfdd fbbf
000003b0: 2e43 93c0 ae23 2f3d c779 fdbf 7d10 11c0
000003c0: 0c09 81bf 7633 19c0 7f6b 3abe 475b 51c0
000003d0: a569 4dc0 f338 813f 46f0 0fc0 aa94 2f3f
000003e0: 8f8a 28bf 73bf 06c0 1628 58be 626e 9fbe
000003f0: 76c8 35bf 3edb f5be b3f8 a4be 376a 97c0
-0.10559697 0.1340773 -2.0177953 -4.0903807 -1.8233788 -1.9499363 -2.2068856 -2.9111617
-1.2541078 -0.18504146 -2.9452043 -1.7140956 -0.7560645 -2.844412 -0.098423004 -0.57552993
-5.110292 -4.276306 -1.2341546 -0.49406746 -0.479798 -0.021352436 -0.086005226 -0.600603
-0.4318292 -0.9400968 -3.0423806 -0.07750213 -0.12117379 -2.6599238 -0.42163008 -2.6388597
-1.1008937 0.515118 -1.6374449 -1.6735711 -0.08346023 -2.1863158 -0.41582504 0.8244018
-1.479751 -3.851864 -2.2357926 -1.4312538 -0.4308329 -1.0995369 -2.5590916 -0.7058729
-0.15173107 -1.7815517 -1.1462446 -1.5096229 -1.0721347 -4.172914 -0.34725073 -4.8492966
-0.49700797 -3.1480706 -0.21360081 -0.17989284 -2.023842 -0.25892076 -0.3052391 -0.5485664
-0.055421554 -0.5779382 -1.946224 -1.028761 1.286285 -3.1747358 -2.4620824 -0.1899229
-2.2028298 -0.6368997 -1.3631438 -0.16963014 -0.053910535 -2.2780056 -0.06275859 0.30170706
-0.7798135 0.5482887 -0.33892548 0.6350158 -1.8064289 -1.3057678 -2.3573165 -0.38312548
-0.060335323 -0.44866818 0.7963865 -1.4014794 -0.41445333 -1.3505052 -0.07920156 1.1669054
0.92878866 -1.6233449 -0.74751246 -1.3151221 -1.1115475 -3.337221 -3.3724885 -0.11594222
-1.0577849 -3.3228147 -0.9722463 -0.31851953 -1.7002221 -1.6307795 -0.098676994 -1.2335937
-0.20200175 -0.42328155 -3.2265253 -0.763922 -0.1470403 1.3860319 -1.0707111 -3.9456449
-0.6796992 -0.7454658 -0.14951706 -2.1644084 -0.073305674 -0.42603514 -1.5733751 -0.76852
-1.0410295 -4.179202 0.16679202 0.04910787 -0.29102847 -0.37604502 -0.3286198 -1.5440989
-0.1982014 -0.5439414 -2.403971 -1.2481958 -0.6178468 -1.0635656 -3.892665 -0.085887395
-0.304954 -0.1175834 -0.79837924 -0.42578077 -2.7994244 0.89822865 -0.23036872 -2.0660067
0.76707506 -1.2783546 -0.93490094 -0.55354726 -0.25154078 -1.9596161 -0.16421314 -1.0601488
-0.09100319 -3.793074 -0.45186132 -3.0944324 0.5270155 -0.43091735 -1.9710168 -3.908848
-3.8748236 -3.8215601 -2.0344188 -2.7277277 -0.7773386 0.68261087 -0.53102 -3.5716963
-0.7251154 -0.07175398 -0.16873604 -2.0902247 -0.5553453 0.4455586 -0.3270346 -0.121489994
-2.2880242 -3.1278205 -2.7713754 -2.2276425 -2.2183475 -0.113795154 -0.5327454 -0.11577815
-0.79710764 -1.1166687 -0.5667983 -1.1586589 -3.9847362 -2.551381 0.7490673 0.035349477
-0.077850334 -0.103628024 -1.9440335 -2.1909273 -0.25779727 -0.12243055 -0.31294382 -2.4408727
-1.3118583 -2.4020007 -0.06420027 -0.62831634 -0.82255805 -0.101302736 -1.0853922 -0.35125437
-0.12915078 -0.4854584 -0.739803 0.38690203 -0.6435162 -0.06253166 -0.17908184 -0.54188377
-2.1002789 0.27510455 0.25647053 0.7170178 -2.5899892 0.3155659 0.64731574 -0.17558827
-0.0630619 -3.7989447 -3.9644866 -1.9677066 -4.6019506 0.042758636 -1.9802788 -2.2666314
-1.0080886 -2.393766 -0.18205069 -3.2711961 -3.209573 1.0095505 -2.2490401 0.6858622
-0.65836424 -2.1054351 -0.21109042 -0.31138903 -0.71009004 -0.4801883 -0.32220992 -4.7317157

model.6.weight f4 [1, 320]
00000000: 409c 3d3e f870 223e 0653 6a3e 2e3d f03e
00000010: 2ea2 a2be c637 ee3e e576 b6be 9fdb f0bb
00000020: 4630 ec3e 36e7 503d 530b 9c3d 10f1 4cbe
00000030: 73da 3abf 4f38 4c3e 69c2 d73b e79b 193f
00000040: ce98 623f 16fa 87bf 2035 7cbd 1c63 4c3d
00000050: c037 62bd e842 1dbe 969d 5c3b 5548 1cbe
00000060: 6a12 00bc eb2e 1f3e c7c5 a9be 0baf 06bd
00000070: 62c0 083b 19e9 cf3d 60f8 2f3e f172 8a3e
00000080: 5e56 b93a fa78 6e3e 81a7 58be b0d4 4d3e
00000090: 4982 b1bc ee9d f93e 3afb 10be 9f9a 853e
000000a0: 6ee5 18bf 26a9 0e3f 6395 40bd 95e6 6cbe
000000b0: ad8d 05be c66c 89bd 162c 013f 7d90 593e
000000c0: 6390 62bd c2e0 043e eff3 2cbe a3ef c73e
000000d0: d914 8c3c bec3 3a3c 3f58 e03e c428 23bf
000000e0: 141b 0d3c 2796 07bf f088 9d3d a2a7 c13c
000000f0: c4f4 d93e ee74 ab3c fd60 8d3e cb90 b93d
00000100: 71e0 873c a034 043e e301 a93e ff38 8ebe
00000110: c074 ddbd 765e e03e d927 0f3f 7fb5 193e
00000120: a5c8 103f 1ed8 f0bc 1757 9ebe 7821 77bd
00000130: 4e2d f2bd 3a10 31bf 63bd aa3c 3b18 903e
00000140: aa0c e4bd 32db b63e c606 733c 7982 753e
00000150: 9819 f73e 50e8 8a3d 0c41 743e 2d4c 22be
00000160: 850e 733c 569d 9dbd 2d41 1ebe 5579 b83e
00000170: ed98 753c 0e27 dc3e 6cfb e53c 1a72 4ebe
00000180: a577 543e 62fb 45be e412 863c d265 733e
00000190: 71aa 513e 6edb ac3e 6860 f8be cda2 a63b
000001a0: 343d 0b3e b9a4 5fbf 2341 aebe d062 883e
000001b0: 511e 003b 6213 893e fd30 4dbc c39e babe
000001c0: 028d 213c badc ba3e 3b3c f93e 1835 a73e
000001d0: 2b00 253b a976 0ebe 41f6 953e 0776 3440
000001e0: d9f1 873e 43e3 863b 3afe dfba 9594 393f
000001f0: a931 653c f0b8 48bd 8017 903e 5cfe b93d
00000200: f78b 553e 7d33 42bf 974c 083e 2e6d 2a3e
00000210: 9b66 75be 503d 1c3b 8898 64bd 922b 8bbe
00000220: f6df 793e 8a58 14be 81c5 0f3f db92 5cbd
00000230: 5b1b 9a3d a91b 2b3e 4458 a1bd 49a5 8d3c
00000240: de62 963e 42ba e3bd 94c3 51bd 9e5c 5a3e
00000250: 6c92 45be dd8e 5c3e 5583 32be b3a2 7b3e
00000260: 7f58 a8be 77b1 903e 0d66 633e e9bb 4d3e
00000270: 965a 2f3e c38b 32bf 3cdb bebe 2b93 0b3e
00000280: c902 4a3c 544e 64bf 4b94 943b 939f 2dbf
00000290: 2461 073e 72b7 6cbe 8c09 643e 19f0 5a3e
000002a0: f65c 7cbf 9824 85bf 88e0 c73e e130 53bd
000002b0: 0523 22be 3274 ee3e 9d21 493e 4bf6 9bbf
000002c0: 6507 0cbe db63 48b8 bb2e 29be 0bf1 8b3e
000002d0: d071 4b3e 1928 d53d dc8d febd 6e6e 003e
000002e0: 2be4 03bd 4751 043f 80a3 883e ea62 4fbe
000002f0: d0fa a83e 0a60 bb3e 202b ab3d 91e2 c13d
00000300: d2cb 043d 395a 423d 493e 6cbd 350e a0bc
00000310: d8fc 263f da5c d83e 6cd4 5b3e 47b5 153e
00000320: 4a5c 8bbb 577c 9d3c 9d48 023f 718a 283e
00000330: 8f96 adbc c3e5 45be e41d 35be 4c84 1d3f
00000340: a27a 5a3e 5a8c e5be 9bc1 fa3c bd22 adbd
00000350: e3ee 51be 6a3b 5c3c 3ced 73bc 9378 44be
00000360: b3b7 6bbc 181e 54bd 57fe 813e a4e8 233e
00000370: 6b22 753e be03 f8bc 4f0e 26bc 6a0a b03e
00000380: 138d a7be 4dac 333e ed71 b03d d91a 00be
00000390: 43cd 953e 5a8b c43d e73f 83be 32d6 833e
000003a0: f534 133c 7a2e e1bd 64d7 70bf 040b 6c3e
000003b0: 3ce8 debf 1880 813d 740f 12be 383e 1fbe
000003c0: 4859 67be 88ca 383e 468b 793e 5fb2 84bc
000003d0: a1b0 a4bf 661f 573e 774b d63e fad6 f0be
000003e0: a645 bbbe ce9b bc3e 649f 49be 5de0 febd
000003f0: cfc0 8c3d 9d7f 47bd 3cc8 933e 5703 3740
0.18516636 0.15863407 0.22883233 0.46921676 -0.31764358 0.46526927 -0.35637584 -0.0073503996
0.4613058 0.05100175 0.076193474 -0.20013833 -0.7298958 0.19943355 0.006584455 0.60003513
0.8851441 -1.0623195 -0.0615741 0.049899206 -0.05522895 -0.15357554 0.0033663264 -0.15261967
-0.00781689 0.15545242 -0.33158705 -0.032881778 0.0020866622 0.10151882 0.17184591 0.27040818
0.0014140119 0.23288336 -0.21157648 0.20100665 -0.02166857 0.48753303 -0.14158335 0.2609453
-0.5972508 0.5572685 -0.047017466 -0.23134835 -0.13042326 -0.067102 0.50457895 0.21246524
-0.05531348 0.12976363 -0.16889928 0.39050016 0.017099785 0.011399208 0.43817326 -0.6373408
0.008612413 -0.5296349 0.076921344 0.023639504 0.42569554 0.02092978 0.2761306 0.0906082
0.016586514 0.129107 0.33009252 -0.2777786 -0.10813284 0.43822068 0.5592018 0.15010642
0.5655616 -0.029399928 -0.3092582 -0.060334653 -0.118250474 -0.69165385 0.02084226 0.28143486
-0.11135228 0.35714108 0.014833158 0.23975553 0.48261714 0.06782591 0.23852938 -0.15849371
0.014835005 -0.07696025 -0.1545455 0.3603007 0.014990074 0.42998546 0.028073989 -0.20160714
0.20748766 -0.19334176 0.01636643 0.2376931 0.20475174 0.33761162 -0.48511052 0.0050853253
0.13597566 -0.8736072 -0.3403407 0.26637888 0.001954932 0.267726 -0.012523887 -0.3644925
0.009860279 0.36496526 0.48678765 0.32657695 0.0025177102 -0.13912453 0.2928944 2.8197038
0.26551703 0.004116447 -0.0017089315 0.72492343 0.013988891 -0.049004495 0.2814293 0.09081718
0.20854174 -0.75859815 0.13310467 0.16643211 -0.23964922 0.0023840256 -0.055809528 -0.2718168
0.2440184 -0.144869 0.5616074 -0.05385099 0.07524749 0.1670977 -0.078781635 0.017290728
0.29372305 -0.1111951 -0.05121191 0.21324393 -0.19294137 0.21538873 -0.17432912 0.24573784
-0.32880017 0.28260395 0.22206898 0.20091213 0.171244 -0.6974451 -0.37276638 0.13630359
0.012329766 -0.8918202 0.0045342795 -0.67821616 0.1322065 -0.23116854 0.22269267 0.21380652
-0.9857935 -1.0401793 0.3903849 -0.051560286 -0.15833671 0.46573025 0.19641729 -1.2184538
-0.13674696 -4.7776713e-05 -0.16521733 0.2733234 0.19867635 0.10408039 -0.12429401 0.12542126
-0.03220002 0.5168652 0.2668724 -0.20252576 0.33003855 0.3659671 0.08357835 0.09467042
0.03242094 0.047449324 -0.057676587 -0.019538024 0.6522956 0.4225834 0.21467751 0.14619933
-0.004252945 0.019224329 0.5089205 0.16459061 -0.021189956 -0.19325928 -0.17687184 0.61529994
0.21335843 -0.44833642 0.030609896 -0.084538914 -0.20501284 0.0134419 -0.014888104 -0.1918662
-0.014387059 -0.051786512 0.25389358 0.16006714 0.2393891 -0.030275222 -0.010135247 0.34382945
-0.3272482 0.17546196 0.086154796 -0.12510242 0.29258165 0.09596892 -0.2563469 0.25749356
0.008984794 -0.10995193 -0.9407866 0.23051077 -1.7414622 0.0632326 -0.14263707 -0.15551078
-0.22592652 0.1804601 0.24369535 -0.016198335 -1.2866403 0.21008071 0.4185445 -0.47039014
-0.36576575 0.3683762 -0.19689709 -0.12445138 0.06872713 -0.048705686 0.28863704 2.8595788
