code/seed42/cGAN_generator.pth (torch, 929614 bytes, 6 tensors)

model.0.weight f4 [320, 53]
000000 c4 e7 34 bd a6 82 60 bd 9b a1 9f 3d e8 12 a8 bd
       -0.04416634 -0.054812096 0.07794496 -0.08206731
000010 01 8d b7 3c 42 1a e1 3d 46 09 67 3d c9 ba a4 3d
       0.022406103 0.109913364 0.05640533 0.08043439
000020 5b 65 f8 3c d7 22 a8 bd 56 06 ba bd e1 d5 72 bc
       0.030321768 -0.0820977 -0.0908324 -0.0148215005
000030 17 2f 9c 3b cc 29 0f bc a4 06 ab 3c dc a9 4d bd
       0.0047663557 -0.0087379925 0.02087719 -0.05021082
000040 b4 0d 0f bc 0f dd 97 bc 8e d7 51 bd 58 31 f9 bd
       -0.008731294 -0.018538026 -0.05123096 -0.12167615
000050 1a 90 0b 3d a0 11 4e bc c7 55 a2 3d 1b 04 02 3c
       0.034072973 -0.012577444 0.07926517 0.007935549
000060 eb 99 91 bc 85 06 d4 bd ed 42 11 bc 09 65 0b 3c
       -0.01777359 -0.10352806 -0.008866054 0.008507975
000070 4a 3b f7 bb bf e0 ca bd a4 e0 29 3d d7 bc 46 bd
       -0.0075449096 -0.09906148 0.041474 -0.048519935
000080 b0 6d d1 bc 8d 76 81 3a c6 1d 55 bd c8 b0 91 bc
       -0.025564998 0.000987725 -0.052030347 -0.017784491
000090 bd e4 a4 3d f5 28 ed bd 70 7f 6b bc db be cd bd
       0.08051441 -0.115800776 -0.014373645 -0.100461684
0000a0 46 27 b6 3c d3 c1 b0 3d 3e 3d 83 bd 26 5f 41 bd
       0.022235524 0.08630719 -0.064081654 -0.04720988
0000b0 3f 58 06 3c b8 62 69 bb 60 6a d6 3c 80 c2 7b 3a
       0.00819975 -0.003561182 0.02617377 0.0009603873
0000c0 6d 92 30 bb 52 75 73 3c e2 65 b9 bd e4 8d 45 bd
       -0.0026942745 0.014859514 -0.09052636 -0.04823102
0000d0 07 40 a5 3e 38 f8 e9 bb f1 4f e8 3c 56 36 9b bb
       0.3227541 -0.0071401857 0.028358432 -0.004736702
0000e0 7f fa a5 bc 2e cc c6 3c 48 d1 ca 3b b8 f7 0c 3e
       -0.020261047 0.024267282 0.006189499 0.13766372
0000f0 32 9c 75 bb d3 bb 9f 3d fa 9b d5 3c 00 9b 97 bd
       -0.0037477133 0.077994965 0.026075352 -0.07402611
000100 12 77 2c bd a2 fd b7 3d bf 57 22 bd f8 c9 13 3b
       -0.04210574 0.089839235 -0.039634462 0.0022550803
000110 07 de 3d 3d de 2e 22 3d 23 2b 06 3d 0d 08 2c bd
       0.04635432 0.039595477 0.032755982 -0.041999865
000120 12 0c 90 bd 0a 9e 4f 3d b5 2b 21 bd f0 2d 91 3d
       -0.07033552 0.050687827 -0.039348323 0.0708884
000130 c9 fa 41 bc 5b 53 9b 3d 16 a6 81 bd 88 3b 2b bc
       -0.011839577 0.07584258 -0.063305065 -0.010451205
000140 47 77 15 3d 2c c1 18 3d 89 83 a1 ba 79 a8 a6 bd
       0.036490705 0.037293598 -0.0012322526 -0.08137602
000150 b0 b1 17 3d ed c9 04 be f2 e0 60 bd 48 2b 80 bd
       0.03703469 -0.12967654 -0.054902025 -0.06258255
000160 82 2e 0f bd 4c b3 1b bd 84 a0 43 bd 85 4c 87 3c
       -0.034956463 -0.038012788 -0.0477605 0.01651598
000170 f6 34 0e bd 63 c8 9e bc b8 fc 1b 3d 72 bc 2f 3d
       -0.034718476 -0.019382661 0.03808281 0.042904325
000180 cc 1c f0 bd ab 2d f3 3d 34 ac 21 bd 8c ff 56 3d
       -0.117242426 0.11873945 -0.039470866 0.052489802
000190 1f 0f 6d bd ae 4d 52 bd e4 08 28 bd 90 fa ba bd
       -0.05787575 -0.051343612 -0.041024104 -0.09129822
0001a0 e7 d5 ec bd 93 d0 0e 3e 80 67 7b 3c 89 02 e6 bc
       -0.11564236 0.13946752 0.015344501 -0.02807738
0001b0 f0 3c 5d bd 6b 8c 15 bd d8 bb bb 3c a6 5d 63 bd
       -0.054013193 -0.036510866 0.02291672 -0.055509232
0001c0 07 69 81 3d 4b 6b bf 3b 13 eb a7 3c f8 c2 8c bd
       0.063188605 0.0058416477 0.020497834 -0.06873125
0001d0 6a c1 b9 3d 23 e9 4f 3d da 43 57 3c cc e7 2e 3d
       0.09070094 0.050759446 0.013138736 0.042701527
0001e0 d0 19 da bc 4f 91 93 3d ed 35 07 bd 31 dd d7 bc
       -0.026623636 0.0720545 -0.033010412 -0.02635059
0001f0 9a 3c 35 bd 07 7e 40 3d 59 cf 2c bd b2 0f 0a bd
       -0.044247247 0.04699519 -0.04218993 -0.033706374
000200 82 7b 09 bd d0 0f 1b be 1c 2b 23 bd 5a bf 65 bc
       -0.03356505 -0.1514275 -0.039836034 -0.014022673
000210 00 58 95 3d 61 5a f3 bb c0 e8 38 3d 1a 3d 48 3d
       0.07292175 -0.0074265455 0.045143843 0.048886396
000220 dc ca 84 3c 8b 6f c4 3c 05 bb 15 3d 5f 24 01 3d
       0.016210012 0.02397897 0.03655531 0.031528827
000230 28 66 8b 3d 48 04 cc bb 8b c4 ed 39 a2 59 bf 3d
       0.06806594 -0.0062260963 0.00045350599 0.09343268
000240 1b 8f b1 3b c0 f1 86 bd 9c 1d b8 3c 00 0d 2f 3d
       0.005418671 -0.06589079 0.022475056 0.042737007
000250 8e 7f 22 bd ec 03 a8 3c 3d c6 3a bd 42 3d b7 bd
       -0.039672427 0.020509683 -0.04559921 -0.08947231
000260 b5 0d 28 be e0 63 f5 3a 8e a4 07 3d 70 3a 2b 3c
       -0.16411479 0.0018721782 0.033115916 0.010450944
000270 3d 8d d8 3c e5 18 66 3d 5e a4 f2 bc f7 df 80 3c
       0.026434535 0.056176085 -0.029619392 0.015731795
000280 80 bd 9c bb 78 67 28 bc 3b ce b4 3c 13 3a ca 3c
       -0.0047833323 -0.010278575 0.022070995 0.024685895
000290 68 cd 8c bc d3 71 b4 bc a4 91 90 3c bb 73 b5 3b
       -0.01718779 -0.022026932 0.017647572 0.005537478
0002a0 a3 a6 e7 3b 16 09 e0 bb 6d 77 83 bc 0e 92 18 3d
       0.007069425 -0.0068370206 -0.016048158 0.037248664
0002b0 25 b8 89 3b 90 0a fd 3b 30 97 dd 3d 1d c9 d1 3c
       0.00420286 0.0077222064 0.10819852 0.025608594
0002c0 8a 23 e0 bb 23 6f 3f 3d 02 55 ec 3c 33 86 cf bb
       -0.006840174 0.046736848 0.028849129 -0.0063331365
0002d0 46 94 fd bc 9e af fa 3b 22 e6 85 bd fb 9d 5c 3d
       -0.030954491 0.0076503297 -0.06538035 0.0538616
0002e0 2d eb 9e ba 30 d4 f3 3b 2a 36 2c bc 7a 37 67 3c
       -0.0012124531 0.007441066 -0.010510961 0.014112348
0002f0 62 a1 52 3d 9b b5 64 bb 45 9f ba 3c 79 c8 f4 bb
       0.051423438 -0.0034898284 0.022781024 -0.0074701873
000300 a3 cf df 3b 8a 1e 5d bd d0 b3 2e 3b bc 3f dc bd
       0.006830172 -0.053984202 0.002665747 -0.10754344
000310 de 4f 0d 3d 83 fe cd 3b 0a 06 12 3d c6 67 12 3d
       0.034499995 0.0062864437 0.03565029 0.035743497
000320 2e e2 0f bd 28 20 89 3c 4d a7 4d bd da 30 4a bc
       -0.03512781 0.016738966 -0.05020838 -0.012340749
000330 01 8c 83 bd ab 38 5a bd 9a ad 3c 3c 11 a3 28 bc
       -0.06423188 -0.0532767 0.011515999 -0.010292784
000340 0d 21 81 bc 30 58 80 3b a5 28 ae 3d b1 ed 2a 3e
       -0.01576283 0.003916763 0.08503846 0.16692235
000350 53 45 e3 bc 77 05 dd 3a aa 60 8b 3c 0f 66 54 bd
       -0.027743017 0.001686259 0.017013866 -0.051855143
000360 27 73 b5 3c 85 19 a4 bc 0c a2 e1 bc f1 4b bc 3a
       0.022149635 -0.0200317 -0.02754309 0.0014365894
000370 a8 66 3c 3c 91 b6 ff bb 18 f5 73 bd 62 70 7a bd
       0.0114990845 -0.007803746 -0.05955991 -0.061142333
000380 80 15 4f 3c 61 16 35 3d 1f e6 c5 3c 23 f3 47 3d
       0.012639403 0.044210795 0.024157582 0.048815858
000390 46 8f 6c bd af 24 e7 3b 99 ca 5d 3c 74 6f 88 bc
       -0.057753824 0.0070539336 0.013537073 -0.016654707
0003a0 79 e8 ed bb c6 52 17 bd cb 83 22 3d 96 2a 95 bc
       -0.007260379 -0.036944173 0.03967647 -0.018208783
0003b0 8e 39 90 3c 2b 39 91 3c a5 b6 56 bd 2c bd 15 bd
       0.01760557 0.017727455 -0.052420277 -0.03655736
0003c0 53 8c 28 3a 81 99 04 bd c0 e2 5d 3c d9 7e 08 3d
       0.00064296013 -0.032372955 0.013542831 0.033324096
0003d0 dd 00 d7 3d 16 e4 f5 bc 9d da 23 bc 77 1c 53 bd
       0.104982115 -0.030015986 -0.010000852 -0.051540818
0003e0 5c c7 71 3c 88 3d fb ba 08 5e c7 3c 82 2e 56 3d
       0.014757004 -0.0019168118 0.02433683 0.052290447
0003f0 49 0b f4 bc a1 c8 15 bd d7 62 b8 3c 96 5f 2e 3d
       -0.029790537 -0.036568288 0.022508068 0.042571627

model.0.bias f4 [320]
000000 c1 13 dc 3d 3f 92 17 be a1 6f b3 3d 17 46 47 3e
       0.10745955 -0.14801882 0.08761526 0.19460331
000010 4a 26 0f 3e 8d 20 c2 3b 4b ff 6e be 9b db af 3d
       0.1397945 0.0059242905 -0.23339574 0.08586808
000020 dd 10 b5 bd 1b 8e 5e 3d 7c 4c 07 bd e6 c6 ce 3c
       -0.08841107 0.05433474 -0.033031926 0.025241327
000030 f7 e7 e6 bd e1 0c 08 3e 47 ec 87 bd db cd 1d be
       -0.112747125 0.13286163 -0.06636863 -0.15410559
000040 1e ce 9e 3d 2e 78 9b bc b7 f1 0d be fb 91 53 b9
       0.077541575 -0.018978205 -0.13861738 -0.0002017691
000050 80 5c 23 bd 20 db 22 bd 3e 5e bd bd 34 63 5c 3e
       -0.039883137 -0.039759755 -0.09246491 0.21522218
000060 4c 6f 5f 3c b1 92 8c be df fe 17 3d ee 55 be 3d
       0.013637375 -0.27455667 0.0371083 0.092937335
000070 a7 e0 35 be a2 31 06 3e 8a 83 b3 bd 3e 88 21 3e
       -0.1776148 0.13104871 -0.087653235 0.15774629
000080 14 3f 16 be 8a db 0e bc 7b 07 3a be 05 71 92 3d
       -0.146725 -0.008719334 -0.18166916 0.07150463
000090 0a 1f 07 be ff 2b 1d 3e 49 ad 8a 3e 31 b3 a1 bd
       -0.13195434 0.15348814 0.2708533 -0.07895506
0000a0 23 52 09 3e 4c 7c b9 bd dd 6c 48 3e b0 e6 74 3e
       0.13410239 -0.09056911 0.19572778 0.23916125
0000b0 1e 91 40 bd 23 98 af ba 9b c3 48 bd 7d 25 a8 3d
       -0.047013395 -0.0013396781 -0.04901467 0.08210275
0000c0 28 37 27 bd 6d 6f 15 be 37 6d 62 be 95 96 45 3e
       -0.040824085 -0.14593287 -0.22111975 0.19295724
0000d0 a2 f2 a1 3d 30 03 55 bc d1 55 ae bc e4 d2 5e bd
       0.07907607 -0.013001248 -0.021281155 -0.05440034
0000e0 6b d2 4a bd aa 15 bf bb c0 20 22 3e af b0 b3 3c
       -0.049517076 -0.00583144 0.15832806 0.021934835
0000f0 e6 b1 6a 3d 94 9c 2f be fa ae a5 3b ea d8 1f 3e
       0.057298563 -0.17149574 0.005056259 0.1561009
000100 b6 86 10 3d 4d 9b 9e 3b 0c 64 e3 3d a2 9e df 3d
       0.03528472 0.0048402906 0.11103067 0.10918929
000110 78 7c 64 be cd e4 3f bd 7e b4 b1 3d 3a 27 75 bd
       -0.22313106 -0.04684906 0.08677004 -0.059851862
000120 d3 7f de bd 1a 73 78 3d 1c bb 20 be 17 4a 2b 3d
       -0.10864224 0.060656644 -0.15696377 0.041818704
000130 07 35 a6 3d a5 52 f0 3d 0d c9 0f be 26 f9 10 be
       0.08115583 0.11734513 -0.14041539 -0.14157543
000140 b2 39 d1 3d dc b8 14 bd 49 8b 39 3e 7d bb 06 3d
       0.10216083 -0.03630911 0.1811954 0.032893647
000150 f6 6d 90 bb 39 65 1a be aa b9 03 be 4e 1d 85 3c
       -0.0044076396 -0.15077676 -0.12863794 0.016249325
000160 c2 c8 70 bd 15 8a a4 3d 70 70 1a 3d 87 97 41 3e
       -0.058785208 0.080341496 0.037704885 0.1890546
000170 b7 54 84 bc 47 1a 3f 3e e9 c3 e0 3c 55 dc 5d be
       -0.016153676 0.18662368 0.027437167 -0.21666081
000180 b6 37 e9 bc 30 8a a6 bd 34 0a 4b bc aa c0 0c be
       -0.028468948 -0.08131826 -0.012392569 -0.1374537
000190 71 39 8b bd 10 77 2b be 17 f2 02 be fc 94 f8 ba
       -0.067980655 -0.16744637 -0.12787662 -0.0018965299
0001a0 6d 64 3a 3e 04 4d 2b 3e 11 9e fe bd 16 bd 61 3e
       0.18202372 0.16728598 -0.124324925 0.22044787
0001b0 4a 61 0e bd d8 14 30 3e 79 4b 88 bd af 52 86 bd
       -0.03476075 0.17195451 -0.0665502 -0.065587394
0001c0 20 1f 71 3e 9a 24 20 3e f9 2c e7 bd de 2d 5f 3e
       0.2354703 0.15638962 -0.11287875 0.2179484
0001d0 4d 3d ee bd bd 2f 52 be fb 7f 41 3e b5 20 97 bd
       -0.11632786 -0.20526023 0.18896477 -0.07379285
0001e0 78 a5 91 bd 24 b0 0c bd 35 00 23 3e ac fe 3b 3e
       -0.07111639 -0.03434767 0.15918048 0.18358868
0001f0 44 b6 3e bd ec 98 57 3b 3a d7 70 be a2 31 5a be
       -0.04656054 0.0032897545 -0.23519602 -0.21307996
000200 01 d4 4e 3e 89 9a 4e be 0c c8 ed bb eb 58 11 be
       0.2019806 -0.20176138 -0.0072565135 -0.14194076
000210 ad cc 04 3d 8b 5f 35 bd c3 95 81 3d 6e 66 0f be
       0.032421757 -0.04428057 0.06327393 -0.14003918
000220 22 56 49 be 18 e7 b1 3b 63 97 5f 3e 60 bd 4c 3e
       -0.19661763 0.00542916 0.21835093 0.19994116
000230 ac 1e 85 bd 9d 4f 18 3e 93 54 2f 3e b1 81 33 3e
       -0.06499991 0.1487412 0.17122106 0.17529942
000240 5f a8 a5 be 4f a7 04 bd b6 b0 ae bd 10 65 30 be
       -0.3235502 -0.03238612 -0.08529799 -0.17226052
000250 a1 3c 02 3e 5f cb 28 3e 61 ba 28 3e 90 cb b2 3d
       0.1271844 0.1648383 0.16477348 0.08730233
000260 06 63 38 3e 5c 90 8f bd f0 a1 23 bd 73 2a b1 3d
       0.18006524 -0.07009956 -0.039949358 0.08650675
000270 0f e2 10 be df ef f0 3a be 25 c2 3d 9d 5b 3e be
       -0.14148735 0.0018382034 0.09479855 -0.18589635
000280 aa 34 25 3e c7 0c 07 3e a4 24 02 be c9 15 07 3e
       0.16133371 0.13188468 -0.1270929 0.13191904
000290 aa 58 b1 bc 52 29 11 be 1d 9e a8 bd 26 40 50 3e
       -0.021648724 -0.14175919 -0.08233283 0.2033697
0002a0 3d d8 6a 3e 07 c6 40 be 3c c5 ff bd 5c 8a b8 bd
       0.22934051 -0.18825541 -0.12488791 -0.09010765
0002b0 c2 99 42 3e 97 03 21 3e ec e7 5f 3e 43 d2 05 3e
       0.19003966 0.15724026 0.21865815 0.1306849
0002c0 e7 e5 36 3d 14 cb 6e 3e 73 af 11 3e 15 e2 08 3e
       0.044652846 0.23319656 0.14227085 0.13367493
0002d0 97 8a 25 3e 73 9f 56 3c c4 11 13 be 4e 66 a3 bc
       0.16166149 0.013099539 -0.14362246 -0.019946244
0002e0 61 65 db bc 05 ae 0f 3d 08 ec 88 3e 76 24 43 3e
       -0.02678174 0.035078067 0.26742578 0.19056877
0002f0 f8 8d 3a be 86 75 84 bc e5 40 ab be 08 14 12 be
       -0.1821822 -0.01616932 -0.33447948 -0.14265454
000300 f2 f3 54 3e 77 1f 3a 3e 05 cf e7 3d 9d c8 88 3d
       0.20796183 0.18176065 0.11318783 0.06678889
000310 11 26 da 3c 82 41 9f bd e5 59 2b 3e 4c 8a 56 3e
       0.02662948 -0.077761665 0.16733511 0.20951194
000320 a7 78 86 bd 64 db 2b be 13 24 cb bd 88 71 8b be
       -0.06565981 -0.1678291 -0.0991899 -0.27235055
000330 83 19 a0 3d c4 3d 7a bd 9d 62 0e 3e 4f d2 46 3e
       0.07817366 -0.06109406 0.13904805 0.19416164
000340 de a2 07 be 7d e1 63 3d c0 e5 e7 bc a1 2a 06 3e
       -0.13245723 0.055634964 -0.028307796 0.13102199
000350 cf 51 e0 3c f8 98 5f 3d 0c b0 f1 3d db dc 22 be
       0.02738276 0.05458924 0.118011564 -0.15904562
000360 c2 24 4d be a2 91 17 be 95 c5 3d 3c 06 19 56 bd
       -0.20033553 -0.14801648 0.011582752 -0.052269958
000370 31 16 29 be fd 7e 64 3e 84 42 1b 3d b2 c9 aa bd
       -0.16512372 0.22314067 0.03790523 -0.083392516
000380 ff 2b 2b be 9d 9b ad bc a1 eb 59 3e 6b 09 1f bd
       -0.16716002 -0.021192366 0.21281292 -0.03882734
000390 02 7c d6 3d 6f 98 4d be 81 5c 2d 3e 41 0a 18 bd
       0.10472871 -0.2007768 0.16929819 -0.037119154
0003a0 9a dc d5 3d 32 e4 be 3d c1 b6 d8 bd c4 54 4f 3e
       0.10442467 0.093208686 -0.105817325 0.2024718
0003b0 bc 79 b1 be ee 15 04 3d c2 20 cc bb 1c c5 34 3e
       -0.34663188 0.032247476 -0.006229491 0.17653316
0003c0 44 27 58 3d f5 ae 04 be 59 c9 f2 3d 14 9f 9c 3d
       0.05277182 -0.12957366 0.1185481 0.07647529
0003d0 b7 14 fe 3d d3 6c 14 3e 52 5c a4 bc 81 9f 14 3e
       0.12406295 0.14494638 -0.020063553 0.14513971
0003e0 5e 1d 5c 3d b1 19 68 bd 92 8c 28 bd 0c 2d 8d be
       0.053738944 -0.056665126 -0.041149683 -0.2757343
0003f0 9d 35 13 3e ea 8d e1 bd 3c 6f ac 3d 56 01 ab bd
       0.1437592 -0.11013396 0.08419654 -0.08349864

model.3.weight f4 [640, 320]
000000 01 ce 07 be 5f 72 ac bd 0e 7c 96 bd e6 51 b6 bd
       -0.13262178 -0.08420252 -0.0734788 -0.0890234
000010 17 f9 45 3b 12 c0 8e 3d ea a2 bf 3b 05 06 b4 bc
       0.0030208284 0.06970228 0.0058482783 -0.021975527
000020 46 59 c4 bd af 38 0c be 77 9e 27 bd d2 4b 9c bc
       -0.0958734 -0.13693498 -0.04092261 -0.019079123
000030 34 63 25 bd 9f 88 0a be 21 60 60 3b c7 42 05 be
       -0.04037781 -0.1352868 0.0034236985 -0.13013755
000040 33 9f 5b 3c a5 f6 94 3d a7 fe b0 bd 0c c9 02 be
       0.013404655 0.07273606 -0.08642321 -0.12772006
000050 08 bf 16 be 56 9d b6 bd ac 41 7b 3d e1 d5 17 bd
       -0.1472131 -0.08916728 0.061341926 -0.037069205
000060 26 16 59 be c7 6c 8e 3c 8b 6f ac bd 0a 61 37 be
       -0.21199855 0.017385853 -0.08419713 -0.17908111
000070 b4 02 17 bd b8 1e 28 be 17 a4 26 be d3 a9 5d bd
       -0.036867812 -0.16417968 -0.16273533 -0.054117035
000080 2f 69 02 bd 3b 4f 3b bd bc a1 9a bd 91 e6 4f bb
       -0.031838592 -0.045729857 -0.0755038 -0.0031723122
000090 82 6d 1b 3e 43 c5 d7 bc 08 bc f5 bd a9 e0 b4 bc
       0.15178493 -0.026339179 -0.11998755 -0.022079783
0000a0 3b 9f cc bd 27 fc b6 bd 65 f6 58 be c6 bf 23 be
       -0.09991308 -0.08934813 -0.21187742 -0.15991125
0000b0 08 9a 29 bc 53 77 e8 bd a6 68 8e bd e9 f3 2b be
       -0.010351665 -0.11350884 -0.06953554 -0.16792263
0000c0 12 5d 1e be 3e 97 6d bd b7 7b dc bc 1d 76 05 bd
       -0.15465191 -0.058005564 -0.02691446 -0.032583345
0000d0 c0 c7 cf bd bc 71 88 3c ae 6e f6 bd bb 2a 16 3d
       -0.10145521 0.016655795 -0.12032829 0.036661845
0000e0 48 13 40 3d 5d 56 91 bd c0 fd d9 bd ee 99 b6 bd
       0.046893388 -0.070965506 -0.10644102 -0.089160785
0000f0 af 8b b2 bd d6 df 96 bd 53 11 cc bd 5e d4 e2 bd
       -0.08718049 -0.07366912 -0.09964242 -0.11075662
000100 58 bc d9 bd 7d 19 8d bd db 66 3c be 39 e8 4d bd
       -0.10631627 -0.06889627 -0.18398611 -0.050270293
000110 cb f7 fd bd 1b 2b 69 3d 63 a0 01 3d f1 f5 7e 3c
       -0.124007784 0.056925874 0.031647097 0.015561567
000120 d9 36 cb bd ee 0a ed bd 99 55 a7 bd 4a a4 05 be
       -0.09922571 -0.1157435 -0.08170623 -0.13050953
000130 98 b2 b2 bd c4 03 a4 bd f8 7a d3 bc 29 35 22 be
       -0.0872547 -0.08008531 -0.025815472 -0.15840591
000140 5d c0 b7 bd 73 67 fb bd 71 69 20 be 1f 81 4b bd
       -0.08972237 -0.12275591 -0.15665223 -0.049683686
000150 1f 92 97 bc 37 04 aa bd 31 f0 82 bd 92 9b 7c bd
       -0.018502293 -0.08301585 -0.06393469 -0.0616718
000160 d8 ae 9a bd cd 2e 81 3d 33 8a e8 bd c1 a0 e7 bd
       -0.0755288 0.06307755 -0.113544844 -0.11309958
000170 5e 23 e1 bd a9 d2 c9 bd 67 5f f7 bd ce ed 2a 3c
       -0.10993074 -0.09854633 -0.120787434 0.010432674
000180 32 f1 9d bc bf 67 b7 3d e6 53 8a bd 46 c9 a5 bc
       -0.01928005 0.08955335 -0.067542836 -0.020237576
000190 e0 de 90 3d f1 4b d6 bd 60 a1 10 be b5 ac 0c be
       0.0707376 -0.104637034 -0.1412406 -0.13737758
0001a0 30 c6 3e be c5 e6 5e be 3a f7 1d be d1 a9 d5 bd
       -0.1863029 -0.21767719 -0.1542634 -0.104327805
0001b0 d4 00 3e bd ec db 17 be 10 10 db 3d c9 04 72 bd
       -0.04638751 -0.14829987 0.10696423 -0.059086595
0001c0 ea 93 9c bd ef 08 27 be b1 c7 3f be bf cf 27 be
       -0.076454 -0.16312002 -0.1872852 -0.16387843
0001d0 27 39 dd 3d 9c b2 9a 3d 8f 68 6f 3c 7e a8 5a bd
       0.108019166 0.07553598 0.014612331 -0.053383343
0001e0 d7 3b 3c 3d ff bf 3c bc 1f 2a 13 be 74 b9 da bd
       0.045955505 -0.011520385 -0.14371537 -0.106799036
0001f0 00 c7 d9 bd 7c 4f b4 bd 51 a8 f1 bd c3 5f e3 3c
       -0.10633659 -0.08804223 -0.11799682 0.027755624
000200 2c d4 83 bd 1c a5 59 bd 5b d6 1c be 89 90 a4 bb
       -0.06436953 -0.053135976 -0.15316145 -0.0050221127
000210 f4 a6 03 be 3a 00 b5 bd 35 d3 11 be bf 23 d2 bd
       -0.12856656 -0.08837934 -0.14240725 -0.10260724
000220 a2 c9 82 bd cc 7e b8 bd 41 fe 9e bd 9a dc 13 bd
       -0.06386115 -0.090085596 -0.07763339 -0.036099054
000230 2d 03 af bd ad 4d 38 be d5 4f 3e be 75 cc a3 bd
       -0.085455276 -0.17998381 -0.18585141 -0.079979815
000240 e1 00 97 3b 42 30 df 3c 9e 99 54 be 8a a8 a5 bc
       0.004608259 0.02724469 -0.20761725 -0.020221967
000250 cf 4d 86 bd 30 2f 2c 3d 7a 30 97 bd af 5a d2 bd
       -0.065578096 0.04203719 -0.07382293 -0.10271203
000260 a7 6f 5e 3b d6 f5 75 3d 32 bb 27 bc f2 2d fc bc
       0.0033941062 0.0600489 -0.010237502 -0.030783627
000270 c8 5f 13 be 01 34 50 bd ab 2c 50 bd 51 91 1d 3e
       -0.14392006 -0.050830845 -0.05082385 0.15387465
000280 af 9c 61 3d 9e 00 59 bd 1b 1e d7 bb 6b 9e b4 bd
       0.055081066 -0.052979104 -0.006564868 -0.08819278
000290 5e 1f 42 be 5a c3 a8 bd 7e 54 b8 3c 53 43 a9 bd
       -0.18957278 -0.08240385 0.022501227 -0.08264794
0002a0 23 67 27 be 25 3a b7 bd 23 59 6f bd 1c c2 06 be
       -0.16347937 -0.08946637 -0.058434617 -0.13159984
0002b0 f2 67 91 bd 70 71 eb bd de 0e 3b bc 7e 61 b3 3c
       -0.07099904 -0.11496246 -0.011417119 0.021897074
0002c0 a5 ba 3b be f9 75 47 3d 1d b8 22 be d6 7f df bd
       -0.18332918 0.048696492 -0.15890546 -0.10913055
0002d0 a8 d4 25 bd 91 02 3e bd b3 9c 37 be 50 61 5e bd
       -0.040486008 -0.046389166 -0.1793087 -0.054292023
0002e0 95 67 5f bd cc fe ab bd 1e a5 e9 bd a8 2c bb bd
       -0.054542143 -0.08398208 -0.11408447 -0.09139377
0002f0 b9 ac 0e bd 70 c8 01 be 92 4e db bd e5 3e a2 3b
       -0.03483269 -0.12674117 -0.107083455 0.0049513453
000300 fc 3d d2 bd 61 12 a0 bd 8c 1d 07 be e7 5c aa bd
       -0.10265729 -0.078160055 -0.13194865 -0.08318501
000310 b4 9e 88 bd 42 16 0d 3d c3 9b e3 bd 12 ea ab bd
       -0.06670895 0.034445055 -0.111136936 -0.08394255
000320 f6 28 a3 3b 6d fc 21 bd bc ef ca 3d f4 94 c4 bd
       0.004979248 -0.039547373 0.09909007 -0.09598723
000330 eb 26 73 bd a8 e0 bc bd 05 42 1d be a2 15 dd bd
       -0.059363287 -0.09222537 -0.15357216 -0.10795142
000340 7d e2 0e 3e fb 0a d0 bc 59 46 e5 bd 29 e3 a7 bd
       0.13953586 -0.02539586 -0.111950584 -0.08197624
000350 16 66 51 be 72 53 5a 3c c2 8b de bd 0c 48 18 be
       -0.20449099 0.013325559 -0.108665004 -0.14871234
000360 4f 46 9b bd 11 e0 15 be 8a 9a c7 3c 28 47 63 bd
       -0.0758177 -0.14636256 0.024365682 -0.05548778
000370 63 46 b3 bd 35 a4 d9 bd 5e 3e 00 be a4 b6 f3 bb
       -0.087536596 -0.10627023 -0.12523791 -0.007437544
000380 9a 9d 52 bd f5 e8 be bd 03 81 01 be 6e f2 00 bd
       -0.05141983 -0.09321777 -0.1264687 -0.0314812
000390 dc df 2e be c9 69 85 bd f7 9c bb bd c4 43 54 3d
       -0.17077583 -0.065143175 -0.09160798 0.05182244
0003a0 a2 85 a6 bd c6 51 63 bd 7e 9f a3 3d fe 7e df bd
       -0.08130957 -0.055497907 0.07989405 -0.10912894
0003b0 81 c6 94 bd a6 d1 de bd 93 b8 3e bd 18 b6 24 be
       -0.07264424 -0.10879831 -0.046562742 -0.16085088
0003c0 71 e5 b7 bc a0 a5 b8 3c 0f 82 84 bd a0 a3 a9 bd
       -0.022448273 0.022539914 -0.06470119 -0.08283162
0003d0 60 68 31 be af 68 f1 bd 62 87 a3 bd a8 21 36 be
       -0.17324972 -0.11787545 -0.079848066 -0.17786276
0003e0 79 03 e7 bd 0d f5 29 bd a3 a0 09 3d a4 66 f0 bd
       -0.11279959 -0.041493464 0.03360046 -0.11738327
0003f0 1b f5 37 be ac 5a 9d 3d c0 07 72 bd d8 10 a5 bd
       -0.17964594 0.0768331 -0.059089422 -0.08059853

model.3.bias f4 [640]
000000 a7 f9 e8 3a ec 6d 21 3e 1c 07 58 bd d7 21 93 3e
       0.0017774598 0.15764588 -0.052741155 0.28736755
000010 96 aa 99 bd 4d f7 73 bd c2 63 ce 3d 9f 31 0b bc
       -0.0750324 -0.059562016 0.10077621 -0.008495717
000020 40 c3 64 3e 4c 94 c2 bb 88 d7 e3 3d c5 1c 1f bb
       0.22340107 -0.0059380885 0.11125094 -0.0024278623
000030 62 39 bb bd e7 13 62 bd cf c6 ac bd 5e 05 6c bd
       -0.09141804 -0.05519476 -0.08436357 -0.057622306
000040 7a ba cb bc d9 80 50 3e 31 63 8a bb 8f be 55 3b
       -0.024869192 0.20361651 -0.0042232503 0.0032614802
000050 3c 9f 18 3c 4c 56 bd bc e2 c1 25 3e 44 e0 77 3d
       0.009315308 -0.023112439 0.16187242 0.06051661
000060 e1 8e 63 3c 8e b0 17 bd b0 22 44 bc 8d 47 4c bd
       0.013889045 -0.03703361 -0.011971161 -0.049872924
000070 7d a1 2e 3e 9d 63 8a bd 6b be 22 bd 58 0d 19 3d
       0.1705379 -0.06757281 -0.039732378 0.03736624
000080 a9 52 2c 3e b3 c0 79 be 5a df 17 3e eb 29 e1 bc
       0.16828407 -0.24389915 0.14831296 -0.027485808
000090 25 b4 23 be 34 b4 66 3d 1e e2 77 be 58 bf 11 3e
       -0.15986688 0.0563242 -0.2420735 0.14233148
0000a0 b3 9f e9 bc fd 0c 66 3c 41 ca d3 bd 0a 76 09 3d
       -0.028518533 0.014041183 -0.10341311 0.033559836
0000b0 0c 35 6b bc fe a7 17 be 36 b8 a5 bc 57 93 0b be
       -0.014355909 -0.14810178 -0.02022944 -0.13630424
0000c0 77 99 31 bc ea 11 1e bd 71 0e 23 3e d3 a0 46 bc
       -0.0108398115 -0.038591303 0.15923478 -0.012123304
0000d0 fd b3 03 bc 3e 2f 83 3e 50 e0 46 bd 2b d3 cc 3d
       -0.008038518 0.2562198 -0.048553765 0.100012146
0000e0 a5 cb 7a bc e7 f4 86 bd b4 3a 1d 3e bb 1f 63 bd
       -0.015307342 -0.0658968 0.15354425 -0.055450182
0000f0 ed 37 f5 3d fa 99 62 3e a8 3c 93 bd 05 32 ab 3d
       0.119735576 0.2212905 -0.07189304 0.0835915
000100 3c 19 42 be cb 52 58 bd 6b 50 ac bd 18 16 bb bb
       -0.18954939 -0.052813333 -0.08413776 -0.005709421
000110 dd 1b d6 3d 25 38 1d bc 5d 49 57 3e b3 86 34 3e
       0.10454533 -0.009595905 0.2102408 0.17629509
000120 83 d8 8f bb 49 8a cb bc 9c 14 93 3d 13 ea 65 3e
       -0.004389824 -0.024846213 0.07181665 0.22452573
000130 52 2e 4e bc e8 18 08 bd 9d a5 4b 3e 41 55 bf 3d
       -0.012584286 -0.033226877 0.19887395 0.09342433
000140 50 23 15 be e9 fb 05 bd cf c3 49 bd 7a 0a 39 be
       -0.14564252 -0.032710943 -0.049259003 -0.18070403
000150 e5 49 01 bc a7 bf 87 3e a2 14 3c be 28 db 16 3d
       -0.007891153 0.26513407 -0.18367246 0.036830097
000160 55 f0 fa bd 4e 12 e9 3c 84 b5 67 bd aa 9f 40 bd
       -0.12252871 0.028451111 -0.05656959 -0.047027268
000170 95 4e 42 be 58 02 49 bc e9 5b bb 3d 96 a6 16 3e
       -0.18975289 -0.012268625 0.0914839 0.14711985
000180 f2 18 21 3d 0e cc 4d 3d 16 a4 06 3e 76 8f 8a 3c
       0.03933043 0.05024343 0.13148531 0.01691411
000190 f7 1f 84 bd 2a 44 1c 3d 4f 57 fb 3d ed c1 cc 3c
       -0.06451409 0.038150944 0.12272512 0.024994815
0001a0 bc cd e3 3d b6 f0 4c 3e 5a 4f 07 3e 47 d6 9a bd
       0.11123225 0.20013699 0.13213864 -0.075604014
0001b0 43 40 5e bd 3d 2e 55 3c 3f 45 77 3e 8b e7 5c be
       -0.054260504 0.013011512 0.24147509 -0.21572702
0001c0 a2 5f c5 ba 57 45 82 3c ce 94 c9 3d 6a 2d c8 bc
       -0.0015058408 0.015902204 0.09842835 -0.024435718
0001d0 3c 6d 92 3d b1 db af bc c9 44 9f 3d 99 df 46 bb
       0.07149741 -0.021467062 0.077767916 -0.0030345677
0001e0 f4 86 49 3d fc 9f c7 3d e5 12 3f bd 6d 4d 79 bd
       0.049200967 0.097473115 -0.04664888 -0.060864855
0001f0 84 73 c1 bd 2a 00 3f bd 1e c1 b0 bd b7 1c 0c 3e
       -0.09445861 -0.046631016 -0.08630584 0.13682829
000200 71 9d e9 bc 76 fc 73 3e c2 b0 33 3e 68 75 23 bd
       -0.028517457 0.23826775 0.17547897 -0.03990689
000210 e0 62 6b 3e a3 d1 2e bd c2 00 b0 bc 78 bd 81 3d
       0.22986937 -0.042680394 -0.021484736 0.063349664
000220 20 38 90 bd 6c 30 7a 3c 72 d8 87 3c ae 4d 5a bd
       -0.07041955 0.015270334 0.016582701 -0.053296737
000230 a3 2b 10 bd b2 35 16 3d 38 4b 76 3c 7e 45 1b 3c
       -0.035197865 0.0366723 0.015032582 0.009477017
000240 0f 20 4d 3e b6 cc 3d bc 4f c8 c5 bd 64 27 b8 3d
       0.2003176 -0.011584451 -0.096573465 0.08991888
000250 7a 35 ec 3d b1 16 8b bc 4b 6c 76 bd d8 a2 4f bd
       0.11533637 -0.016978594 -0.06016187 -0.05069241
000260 b2 ef cb bd e2 06 a7 3d 9c ed ac 3d b7 41 16 3d
       -0.09957828 0.0815561 0.08443758 0.036683764
000270 ab 1f ce 3d c1 b8 3b 3e 54 30 1d bc b4 bb 09 be
       0.10064634 0.18332197 -0.009594042 -0.1345051
000280 13 36 82 3d c3 f8 b6 3b 86 ec ec 3d ed 1c 81 3a
       0.0635797 0.005583854 0.11568551 0.000985054
000290 2b a4 0e 3e c3 62 8b 3e 15 a8 1f bd 0e 33 85 3d
       0.13929813 0.27223787 -0.038978655 0.065038785
0002a0 e3 00 05 3e 0b 72 bf 3d 96 bd eb bc b0 14 a0 3d
       0.1298862 0.09347924 -0.028776925 0.07816446
0002b0 c4 88 f5 bd e4 13 85 3d b6 b7 cd bc 8e 68 38 bc
       -0.119889766 0.064979345 -0.025112014 -0.0112553965
0002c0 7f 09 19 bd d5 64 b1 3d 3c 45 e9 3b 4b 7f 48 3e
       -0.03736257 0.0866181 0.007118849 0.19579808
0002d0 94 4c 06 bd db 63 7f bd 83 92 b9 bc 20 6c 80 bd
       -0.032787874 -0.06235109 -0.02265287 -0.06270623
0002e0 e7 26 93 bc d9 98 ad 3d 14 e7 12 3b 31 b1 06 be
       -0.017962886 0.08476419 0.0022415565 -0.1315353
0002f0 cc 04 ce bb 05 fb 0b bd 62 44 cb bb 98 75 6c be
       -0.006287193 -0.034174938 -0.00620322 -0.23091733
000300 a6 a5 11 3d d1 55 11 3d 65 aa 97 3c 6b cb 22 be
       0.035558365 0.03548223 0.018513868 -0.1589791
000310 95 50 77 3d 30 88 50 3e da 16 e6 3d a5 f7 1d bd
       0.060379583 0.20364451 0.11234827 -0.03856625
000320 9e 1c 85 3e 20 d3 42 3d 2e 5c 16 3e e9 61 11 bd
       0.25998396 0.047564626 0.14683601 -0.035493765
000330 24 71 ff bd c6 6d 99 bd 58 32 97 3d ad aa ae bd
       -0.12472752 -0.07491641 0.07382649 -0.085286476
000340 c1 e9 0a 3c b7 d6 56 3c 9e 46 ac bd 65 3b 97 3d
       0.008478583 0.013112715 -0.08411907 0.073843755
000350 91 aa 57 bd 86 4a 48 3d 0b 6f bc bd 56 9c 41 3d
       -0.0526529 0.048899196 -0.09200867 0.047268234
000360 f2 93 12 3d fc a3 92 bc b9 99 53 be 38 9a 2a 3e
       0.035785623 -0.01790046 -0.2066411 0.16660392
000370 42 26 24 bd 43 b4 9a bd cb db d1 3d 30 c5 a4 3d
       -0.040075548 -0.075539134 0.10247 0.08045423
000380 6c cf 36 3d 39 a3 3b 3e 70 6a 78 3e 04 ed bb 3d
       0.044631407 0.18323983 0.24259353 0.091760665
000390 18 ed 96 bc 3c 9a e9 3d 9a af 1f 3c 25 1a 57 bd
       -0.018423602 0.11406371 0.0097464565 -0.052515168
0003a0 e1 c3 8e bd ce 4f f7 3d 05 61 e6 3d 05 c6 67 bd
       -0.06970955 0.120757684 0.11248974 -0.05658533
0003b0 62 a7 d9 3d a6 d6 5b 3d c9 d3 ac bd 95 b2 5c 3e
       0.10627629 0.0536715 -0.08438832 0.21552499
0003c0 55 e0 1b 3e 57 fd 26 bd e7 3d 13 bc 01 ae 36 3b
       0.15222295 -0.040768947 -0.008986927 0.002787471
0003d0 ec 34 7f 3d cc e6 e2 bd a9 8a de bb e3 80 af 3c
       0.06230633 -0.11079177 -0.006791432 0.021423763
0003e0 68 75 bb 3d 2b a8 7c 3e e4 c3 5d bd 35 30 6e 3e
       0.09153253 0.24673526 -0.054141894 0.23260577
0003f0 d2 0e 18 3d 78 b2 de 3c 8f 5e 64 3d 95 c8 9a bc
       0.03712351 0.02718471 0.05575424 -0.018894473

model.6.weight f4 [14, 640]
000000 34 46 d2 bc 92 fd e4 bd 4e 55 cb 3c 57 cf 0f bd
       -0.025668241 -0.11181177 0.02482095 -0.035109844
000010 29 2e 2e bd 01 d0 ee 3d 84 c5 b0 3b ee e4 c4 3c
       -0.04252449 0.11660767 0.0053946394 0.024034943
000020 67 b9 7e bc 09 79 87 bc 01 e9 7d 3c 5b 8d c7 3b
       -0.015547133 -0.016537206 0.015497447 0.006089849
000030 6d 5c 06 bd f9 a9 92 3d ed c5 39 bd e2 c4 a0 3d
       -0.032802988 0.07161326 -0.045354772 0.078500524
000040 8b 6e 0e bd 52 bf 9b bc 10 d2 98 bd bb 2f 2c bd
       -0.03477339 -0.019012127 -0.07461941 -0.042037707
000050 e5 45 1f 3d 41 be 32 bc 0c 3c 05 bd c2 dd 61 3c
       0.038885016 -0.010909618 -0.03252797 0.013785781
000060 8e aa 0e 3e c6 58 76 bc 04 10 da ba 34 74 c1 bd
       0.13932249 -0.015035814 -0.0016636853 -0.09445992
000070 1d c0 eb 3c 9d 00 bb 3c 47 9f e5 ba 82 0c f7 bd
       0.02877813 0.02282744 -0.0017518782 -0.120629326
000080 b3 2c d7 bc f8 e3 26 3d 72 a5 8c 3c 2b 7e 05 3c
       -0.026266431 0.04074475 0.017168734 0.008147757
000090 1c 47 ff 3b a3 7d d2 3c 7a ea 59 3e 00 42 5e bd
       0.0077904593 0.025694674 0.21280852 -0.05426216
0000a0 4f 46 66 3c d8 20 45 bd 15 43 ff 3d b6 25 b7 3b
       0.014054849 -0.048127025 0.12463967 0.0055892123
0000b0 a3 a6 7a bb f1 bc ed bc b1 82 0a bc 05 1e 79 bc
       -0.0038246296 -0.029020758 -0.008454011 -0.015204911
0000c0 ff 5d 53 3d 76 c8 48 bd e2 a8 e8 bd 62 5e 49 bc
       0.051603314 -0.0490193 -0.11360337 -0.012290569
0000d0 ab 76 3f bd a5 13 f9 ba 7e 51 d3 3c 7f cb 9e 3c
       -0.04674403 -0.0019003047 0.025795694 0.019384144
0000e0 fe 95 6d bd 48 7b 34 bc 88 b4 76 bd 32 ea 6c 3c
       -0.05800437 -0.011015721 -0.06023076 0.014460133
0000f0 1d 1c b1 bc 85 33 1f bd 4d ad 10 3b 3e 27 33 bd
       -0.02161985 -0.038867492 0.0022075952 -0.043738596
000100 dc 3a 07 3d 83 b9 85 3c 6d a7 2d bd f2 a0 33 be
       0.033015117 0.01632381 -0.042395998 -0.17541865
000110 08 0f cd 3b 7e f0 a5 3c 43 25 aa bc 6a 0e 3a bd
       0.0062578954 0.020256277 -0.02076972 -0.045423903
000120 22 7f 3e bd bf 2f 44 3d e7 5b ad 3b d6 e5 a3 bd
       -0.046507962 0.047897097 0.0052904966 -0.08002822
000130 c5 ad d0 3c 32 02 9d bc 6c eb 56 3b 9d c4 ca bb
       0.025473485 -0.019166086 0.003279413 -0.006187989
000140 01 b2 47 ba f2 34 50 3c 2d ec ed 3b c6 e7 b8 3d
       -0.0007617772 0.012707936 0.0072608204 0.09028582
000150 5e 9c b2 bd 87 cd e1 bc a8 fd 8c bd 7c 5b f3 bc
       -0.08721231 -0.027563823 -0.068843186 -0.02970671
000160 c7 12 c7 bd 9a a4 55 bd f1 e5 05 3d 3e b2 c3 bd
       -0.09720378 -0.05215893 0.032689992 -0.095554814
000170 f5 cb 8c bb 6e 22 90 be ce 5e ae bc 7a fa 93 bd
       -0.0042967745 -0.28151268 -0.02128544 -0.07225509
000180 40 8f 8c bd bf 3a a0 3c 4f 3c c5 3d c5 58 23 bb
       -0.0686326 0.019559262 0.096306436 -0.0024924737
000190 d8 8f 77 bd aa 4d 56 bd 96 cc 23 3d bd 44 d5 bc
       -0.060439914 -0.05232016 0.03999003 -0.026033754
0001a0 17 34 bd b9 4f 90 b3 3d 11 da 2c bd 10 b4 33 bc
       -0.000360877 0.08767759 -0.04220015 -0.010968223
0001b0 61 6d ea 3c f2 af b9 3b fb 2d 19 bd 9a 60 6b bd
       0.028616609 0.0056667263 -0.037397366 -0.057465173
0001c0 ed 05 75 bc 91 8d 4a 3d 97 a0 9a bd d4 e3 86 bd
       -0.014955026 0.049451414 -0.07550161 -0.065864235
0001d0 1f 4c f0 3d cd f1 00 3d 0f f4 97 3c de f9 a5 bd
       0.11733269 0.0314806 0.018548993 -0.08104299
0001e0 99 9f 37 be 17 d7 da b8 9b f2 a3 bd f1 ce 48 3c
       -0.17931975 -0.00010435114 -0.08005258 0.01225637
0001f0 45 2f 00 3e b5 dd d4 3c e3 f7 11 bb 21 c8 82 3b
       0.12518032 0.025984624 -0.0022272996 0.0039911424
000200 f4 6c b8 3c 67 94 80 bc 8a f8 4e bb f4 54 9b 3c
       0.02251289 -0.015695764 -0.0031581246 0.018961407
000210 ba 2a 1e bd 2b 5d 1f 3d 3b a8 04 3c 51 bb 05 bd
       -0.038614966 0.03890721 0.00809675 -0.032649342
000220 60 e9 08 3c 26 31 13 3b 2a 77 59 bd ee 5b 7e 3c
       0.008356422 0.0022459715 -0.05309216 0.015524847
000230 eb b8 fc bc 96 92 fb bb 0b 91 3d bc 37 9f 59 3d
       -0.030849895 -0.0076773865 -0.0115702255 0.053130355
000240 2e d6 66 3c ca 1d d2 bc dd 34 31 3d bd 95 3c 3d
       0.01408915 -0.02564897 0.043263305 0.04604124
000250 86 bf 74 bd b4 68 3d 3d f5 3c 26 be 70 35 80 bd
       -0.059752963 0.04624243 -0.16234191 -0.062601924
000260 6d 18 97 3e 20 1e 69 3b 95 61 bf be 50 36 69 3d
       0.29510823 0.0035570934 -0.37379137 0.056936562
000270 20 8a 67 bc ca da 50 bc 30 6e 3a bc ac df 4e be
       -0.014132053 -0.012747476 -0.01137881 -0.20202512
000280 0c eb 9c be 17 78 ab 3d 73 13 69 bb 74 54 45 3d
       -0.30648077 0.08372515 -0.003556457 0.048176244
000290 6e bf 7d bd 66 d0 81 bd 91 1f 2b 3d 7a b2 8e bc
       -0.06195014 -0.06338577 0.04177815 -0.017419089
0002a0 78 8d b3 bc 33 6f a9 bd e1 84 f7 bb dc 9b e2 3c
       -0.021918043 -0.08273163 -0.007553682 0.02766221
0002b0 5e 88 49 3c a7 55 cf bc 91 d4 0c bc 1e 97 9d 3c
       0.012300579 -0.025309397 -0.008595602 0.019237097
0002c0 d7 dd 5c 3d 40 a1 4e bd a2 52 47 3d 32 ab d0 bc
       0.0539225 -0.05044675 0.04866279 -0.025472257
0002d0 4c bb a4 bd bb 2b b3 3c c5 61 cc 3d 97 67 ae 3c
       -0.080435365 0.021871438 0.099795856 0.02128963
0002e0 39 69 ce 3c 07 3f 91 bd f2 08 0e be a9 fa 2e be
       0.025196658 -0.070921 -0.138706 -0.17087807
0002f0 71 13 e4 bc a1 c3 10 3e 87 7c 71 3c c1 1f 9e 3d
       -0.027841302 0.14137127 0.014739162 0.077209
000300 44 ec 7d bd 9b 81 8d 3d 00 6c 81 3d 7b 5a 88 bd
       -0.0619929 0.06909486 0.063194275 -0.06657883
000310 a1 e3 a5 bc e0 1e 1d 3d 21 95 a6 bc 86 6f 2b 3a
       -0.020250143 0.038359523 -0.020334782 0.00065397506
000320 14 6f cb bb c7 24 ad bc 28 ec 20 bd 1b ed 01 bd
       -0.00620831 -0.0211357 -0.039287716 -0.031720262
000330 e6 52 19 3c 4f b1 ce bc 8a 37 60 bd 68 4f 91 bc
       0.009358143 -0.025231032 -0.054740466 -0.01773806
000340 dd c5 02 bd 66 14 2f 3c 7b bd 07 bc 51 04 29 bf
       -0.03192698 0.010686016 -0.008284922 -0.6602221
000350 39 38 6e bd 42 f1 05 3d b8 3f 9d 3b c9 12 80 bd
       -0.058159087 0.032700785 0.0047988556 -0.06253583
000360 88 c3 6d bd 36 04 62 be 8d 9b 01 3d 2e ed 43 bc
       -0.0580478 -0.22071919 0.031642485 -0.0119584035
000370 a7 aa e3 3d 8c fd 43 3c 8c 58 c1 3b 26 f2 ec bd
       0.11116534 0.011962306 0.005900448 -0.11569624
000380 98 18 4e bd 8b fa 95 3b 36 da fc 3c bd ed 1d 3d
       -0.050316423 0.004576986 0.03086577 0.038556803
000390 d5 de 30 bd f9 c2 51 3c 33 ab 20 bc 4f 74 25 bd
       -0.04318126 0.012802833 -0.009806442 -0.040394124
0003a0 e4 0c 34 3d 24 40 b4 3d ba 0b a9 3b 17 4c d4 bc
       0.043957606 0.08801296 0.0051588686 -0.025915189
0003b0 29 18 0a 3d 92 3a 7b bb 48 fe 57 be 38 99 d1 bd
       0.033714447 -0.0038334471 -0.21093094 -0.10234302
0003c0 3b 54 a8 bc be 8d 0c 3c f7 44 ba 3c 99 af 83 3b
       -0.020547977 0.008578716 0.022737963 0.0040187356
0003d0 61 86 09 3e 2f 15 42 bd 70 d8 4b ba f0 a3 3b bc
       0.13430168 -0.047383483 -0.0007776087 -0.01145266
0003e0 53 df 3a 3c 35 d6 f5 bc 85 cb bc 3c 66 fc 85 ba
       0.011405784 -0.030009368 0.023046264 -0.0010222315
0003f0 ac 20 11 bd db 3d fb bd 39 04 b7 3a 10 2c 8a 3d
       -0.03543155 -0.12267657 0.001396305 0.067466855

model.6.bias f4 [14]
000000 d2 3d 77 bd 24 d3 0a 3d 5b be 65 be 6b 30 8d 3d
       -0.06036169 0.033892766 -0.22435896 0.068940006
000010 1d 9e bf 3d 14 68 df be 5b 3a a5 bb dd 84 31 bd
       0.093563296 -0.43634093 -0.005042357 -0.0433396
000020 21 ee 07 bc 5d d5 70 3e f9 f6 07 be d2 87 ea bd
       -0.00829652 0.23518892 -0.13277806 -0.11451687
000030 03 b1 28 bc f5 7e 0c 3e
       -0.010296109 0.13720305
