code/seed42/GAN_generator.pth (torch, 67998 bytes, 14 tensors)

0.weight f4 [64, 73]
00000000: 9f03 debd 3e60 8a3d 9e28 47bd 0c8b ea3c
00000010: f9dc 0a3d 8134 203d 9c95 f23b 2312 31bc
00000020: 4f57 953d bc74 bcbd 2eb1 0fbd 521d 50bd
00000030: 272a 333d 95d8 24bd 02b5 503c 0905 57bc
00000040: ded4 783c e19f 893d 4eb7 a2bc 66de b5b9
00000050: e42c c63d af43 fdbc 29d4 b7bd fdf5 873d
00000060: 2fd9 5fbb 0bd3 e73c 1311 edbb 12e4 41bd
00000070: 256c a3bd c612 0a3d 79f4 583d 1968 6f3d
00000080: a676 9fbd b302 22bd 3ee3 423b d58f 663d
00000090: 5b17 85bd 96bc 3bbd e45f 093d b6d1 863c
000000a0: 4f9b e13b fe36 e33c 30b8 21bd ab07 a8bd
000000b0: 5c81 213d 3819 44bd 13bb 0dbd 1431 b7bd
000000c0: 4b3c 8bbc a959 913c 82eb 4239 9c9f 7d3d
000000d0: 5201 09bd 8c9e df3b f97b 25bd b770 0f3d
000000e0: 72db 05bd 4e81 c0bb 40c6 953b 25fe d03c
000000f0: 6276 7a3b ddfa 69bd 1908 2e3d 2798 8b3c
00000100: 8784 613d f7ac 913c 8207 a83c 4250 853c
00000110: d6da 5abd 1b2d 493d 66bc 85bd 7b36 d0bc
00000120: cbdc 86bd 917d 0cbe aab0 99bc 1117 1dbd
00000130: b948 febc c430 4abb 8522 febc 0f87 babb
00000140: ce38 903c f984 893c 7f0f 3abd 455d 71bd
00000150: 3f70 50bc f300 9d3d f27a 62bd 0094 4cbc
00000160: 4d2a 193d ba61 ae3c 9c4a 3a3c 0d73 a93b
00000170: 6876 79bd b3ab e73d 8a18 0639 2f21 98bd
00000180: 3ebe 983d dc94 d2bc f511 be3c be1b 13bd
00000190: 208b e83a c739 98bd 81c3 4c3d e64a 883d
000001a0: e689 6b3d 7158 ccbc 74c7 efbc 72a8 1dbc
000001b0: 501d 193d 8980 cabc 5a14 6dbc edcd ec3c
000001c0: 9ba9 793c e4cb 7d3d bc50 cf3c 9ce6 b5bc
000001d0: 81bc 78bd 0e56 8c3d a11b fbbb cfc0 e2bc
000001e0: 4151 22bd ed39 063c 0333 833d d935 30bb
000001f0: 13e6 923d 75a3 0ebc bdbd 943c 69a6 b63b
00000200: b530 023d 5f02 07bc f105 99bd 6543 463d
00000210: 6501 0a3d 8290 dc3c 43e0 bcbc 56ff a63d
00000220: 1cae 773c f53d 1e3c 16cb 60bb 988f c9bc
00000230: dc95 8c3c 7ab3 93bd dc1f f53c 8cd2 c83b
00000240: af56 6fbc b275 7fbb 3089 a3bd 1532 fa3a
00000250: 6cd6 dcbb f093 ff3c 605d ca3c 929f 77bd
00000260: 98e4 71bc 1ef5 8c3d 75ad 45bd e377 26bd
00000270: ba07 f43c 2ec0 d83c 1d1e 0ebc 57ce 143d
00000280: 9885 783d c9aa 88bc cd26 98bc afd3 923d
00000290: 60da d4bc 51b5 083c 751a c53c 96b4 8a3c
000002a0: 8c0d 12bc b885 003d 82a4 5a3d 9e8b b5b9
000002b0: e5ff d23d 11a6 7dbd 196b 15bd fb62 ceba
000002c0: ba16 663c b3ab 4c3c 1c5f 3e3c e4aa d63c
000002d0: 05e7 8d3d a0a7 fe3b 63b5 89bd e569 733d
000002e0: 02eb a0bd 7486 03bd 102e 96bb d8d9 bebc
000002f0: 082e b13c 4720 183a 4730 c1bc 406b 2ebd
00000300: ec53 62bc 35f3 de3c 4834 4a3c e2fe 653d
00000310: fba1 78bc 0fb9 483d 9726 f3bc 4690 9ebc
00000320: 197c babc 24fe b83c 1bbb 3fbd b409 2cbd
00000330: e541 a53c 293a ab3c e0a7 253b bed6 62bc
00000340: 630b c03c 2af5 2dbd 845c 7a3b d47a 863c
00000350: 8e87 d53c 3b54 513d b47d 74bd 3395 803c
00000360: 8e01 88bb e7e2 0a3d f412 57bc c1fe 4cbc
00000370: b855 d1bd e333 b6bc 5f5b e4ba 24b7 23bd
00000380: a528 19bd 96c9 5bbb 6815 53bc 2c1d b2ba
00000390: d3d1 48bc 1a28 f0bc eea5 2e3d 4061 883d
000003a0: 0c0e cbbc 59a1 27bd 98cd 4e3d 6304 90bb
000003b0: 58de 96bd 79ac 2b3d 731b 23be 8bcf 283d
000003c0: 3572 63bd 05b0 a5bd 6f11 fd3b 9506 de3c
000003d0: 1d2f 98bc a3c2 86bd 5a9e 243d d175 a8bb
000003e0: 4f64 b23c 21a2 89b9 e350 e53b 91e0 0bbd
000003f0: e2c3 83bb b7aa e7bb bac5 343b 2ac1 ed3d
-0.108405344 0.06756638 -0.04862272 0.028630756 0.033902142 0.03911257 0.0074030887 -0.010807547
0.072920434 -0.09201953 -0.03508108 -0.050809212 0.04374137 -0.04024561 0.012738468 -0.013123759
0.01518747 0.067199476 -0.019862797 -0.0003468871 0.09676531 -0.030916063 -0.08976013 0.066387154
-0.003415655 0.028298875 -0.0072347014 -0.047336645 -0.07979611 0.03370931 0.052967522 0.058448885
-0.07786302 -0.039553355 0.0029737498 0.056289513 -0.06498595 -0.045834146 0.033538714 0.01645742
0.0068849693 0.027736183 -0.039482296 -0.082045875 0.039430007 -0.047875613 -0.034602236 -0.08944908
-0.016996523 0.017742949 0.00018589015 0.061919793 -0.033448525 0.00682432 -0.040401433 0.035019603
-0.032679982 -0.0058747893 0.0045707524 0.02551181 0.0038217534 -0.057124007 0.04248819 0.017040325
0.05505803 0.017782671 0.020511393 0.016273621 -0.053431354 0.04911528 -0.06530075 -0.025416603
-0.06585082 -0.13719775 -0.018760998 -0.038352076 -0.031040536 -0.003085182 -0.03102232 -0.00569237
0.017605212 0.01678704 -0.045424934 -0.05892684 -0.012722074 0.07666197 -0.05529303 -0.012486458
0.037393857 0.021286834 0.011370327 0.005171186 -0.060903937 0.11312046 0.00012788377 -0.07428204
0.07458161 -0.025705747 0.023201922 -0.03591513 0.0017741658 -0.07432895 0.049991135 0.06654911
0.057504557 -0.024944516 -0.029269911 -0.00962268 0.03738147 -0.024719493 -0.014470184 0.028906787
0.015238191 0.061962023 0.025307052 -0.02220469 -0.060726646 0.06852351 -0.0076632057 -0.027679829
-0.03962827 0.0081925215 0.06406214 -0.0026887564 0.071727894 -0.008705963 0.01815688 0.005574037
0.031784732 -0.008240311 -0.07471836 0.048404116 0.033692736 0.026924375 -0.023056155 0.0815417
0.0151171945 0.009658326 -0.0034300736 -0.024604604 0.017161302 -0.07211967 0.029922418 0.006128615
-0.014608069 -0.0038980064 -0.07985151 0.0019088412 -0.0067394283 0.031198472 0.024702728 -0.060454912
-0.014763974 0.0688269 -0.048261125 -0.040641677 0.02978884 0.026458826 -0.008674172 0.036329594
0.06067428 -0.016683 -0.01857319 0.07169282 -0.025983036 0.00834401 0.024060467 0.016931813
-0.008914363 0.031377524 0.053379543 -0.00034627033 0.10302714 -0.06192595 -0.03647909 -0.0015746051
0.014043504 0.012492108 0.0116193555 0.026204534 0.06928829 0.0077714473 -0.0672405 0.05942716
-0.07857324 -0.032110646 -0.004583128 -0.023297235 0.021628395 0.00058031495 -0.02358259 -0.04258275
-0.013813954 0.02721558 0.012341566 0.05615128 -0.015175338 0.04900461 -0.029681487 -0.019355904
-0.022764252 0.022582121 -0.046809297 -0.04200144 0.020173023 0.020901756 0.0025277063 -0.013845144
0.02344293 -0.042470135 0.0038202116 0.01641599 0.026065614 0.05110572 -0.059690192 0.015696144
-0.004150576 0.033907797 -0.013127077 -0.01251191 -0.10221428 -0.022241538 -0.001742225 -0.03996958
-0.037392277 -0.0033536903 -0.012883522 -0.0013589016 -0.012257057 -0.029315997 0.04263871 0.06659174
-0.024786972 -0.040925357 0.05048904 -0.004395054 -0.073666275 0.04191253 -0.1592844 0.041213553
-0.05552884 -0.08090214 0.0077230255 0.027102748 -0.018577153 -0.06580093 0.04019008 -0.005140998
0.021776346 -0.00026251472 0.006998168 -0.03414971 -0.004021154 -0.0070699113 0.0027583675 0.11609109

0.bias f4 [64]
00000000: 116c 96bc e7db 9bbd 7efa 4cbd d2e6 393d
00000010: 1795 d7bd 295e d0bd c16b cbbd 16f2 babd
00000020: 220b d5bd 2068 28bb 707b 00bd a5cb e83d
00000030: 0f5e 18bd 72a7 1ebd d254 70bb 4e9a 6abc
00000040: 0109 c63c aa81 153d fcb3 073c 9220 f339
00000050: 8aec c1bd 686b ebbd ecac f1bd cb34 babc
00000060: 6233 073d 3b91 e1bd ed89 843b c776 893d
00000070: eac6 abbc 431d bd3d ed06 bdbd 6462 883d
00000080: 7759 da3d 4a23 fdbc 799a 223d e89f c03d
00000090: 783f 71bd d64b 8fbd 85bc 733c c91b 263d
000000a0: 0fd1 8b3d 6b6a da3d 0b24 b0bd b330 8b3d
000000b0: a59b 9d3d fa86 d0bd b137 bf3c a41e b0bd
000000c0: 13dd 5d3d 059a 9fbd 56f5 23b9 44e0 283d
000000d0: 15c0 babd c774 d8bd 65b8 dbbb cea2 cf3c
000000e0: 23b5 38bd a106 a93d e875 953c 797a 0a3c
000000f0: 73bc 8d3d 61ba 9d3d 36fa 5dbd bbce df3d
-0.018362077 -0.076103024 -0.050043575 0.045386143 -0.105264835 -0.101742096 -0.09932662 -0.091282055
-0.10402514 -0.002569683 -0.03136772 0.11366967 -0.037199076 -0.038733907 -0.003667165 -0.014319016
0.024174215 0.03650061 0.008282658 0.0004637284 -0.09468944 -0.114950955 -0.1180056 -0.022730252
0.033007987 -0.11014029 0.0040447623 0.06712108 -0.020968873 0.09234097 -0.092298366 0.066593915
0.10661595 -0.030900616 0.039698098 0.094055 -0.05889842 -0.069968864 0.0148764895 0.04055384
0.06826984 0.10664829 -0.08600625 0.06796398 0.076957025 -0.10181995 0.023341985 -0.08599594
0.05416591 -0.07793049 -0.00015636286 0.0412295 -0.09118668 -0.105691485 -0.006705331 0.025346186
-0.04509462 0.082532175 0.018244699 0.008452051 0.069207095 0.077015646 -0.054193698 0.109281026

1.weight f4 [64]
00000000: 0881 883f 2fe8 833f aaa3 8a3f ae6a 713f
00000010: 3824 8f3f ea58 823f 36bf 603f 917c 763f
00000020: 0246 563f eb47 893f cbc8 903f 3f83 723f
00000030: 29f6 793f 7169 5f3f 9511 6c3f 8412 5d3f
00000040: 1021 853f 619b 9e3f 90bb 8c3f 2a15 8e3f
00000050: bad9 383f f01c 863f 5b03 9d3f 2494 683f
00000060: d874 833f faf4 853f 2508 7d3f 7c59 613f
00000070: 77f3 5e3f a7ad 923f 3b72 943f 07a5 5b3f
00000080: 10db 773f 4e06 8d3f 99d4 843f facd 7c3f
00000090: 8ba5 943f 382f 833f f224 803f ba0d 803f
000000a0: 9998 7a3f d19e 743f a2f7 923f d70e 673f
000000b0: a79e 553f 29e5 8f3f 0a6d 7c3f 01b4 733f
000000c0: 090c 9f3f 3cb1 533f 384b 663f b6db 7d3f
000000d0: 8924 a93f dac9 8c3f d900 703f 7b55 9e3f
000000e0: 5a86 603f 3624 6c3f 2963 913f c79d 6c3f
000000f0: adf2 983f b907 9a3f b3e5 8b3f c309 933f
1.0664377 1.0305232 1.0831196 0.94303405 1.1182928 1.0183384 0.87791765 0.96283823
0.83700573 1.0725073 1.1311277 0.94731516 0.97641236 0.87270266 0.9221433 0.8635638
1.0400715 1.2391168 1.099474 1.1100209 0.72207224 1.0477581 1.2266649 0.90851045
1.0270033 1.0465386 0.9884055 0.8802717 0.8709025 1.1459244 1.159736 0.85798687
0.9681864 1.1017549 1.037738 0.98751795 1.161302 1.0248785 1.0011275 1.0004189
0.97889096 0.95554835 1.1481822 0.9025702 0.8344521 1.1241809 0.9860388 0.9519654
1.2425548 0.82692313 0.89958525 0.9916338 1.3214275 1.09991 0.93751293 1.2369837
0.87705004 0.92242754 1.1358386 0.9242825 1.1949059 1.2033607 1.0929474 1.1487354

1.bias f4 [64]
00000000: 83df ed3d a816 3dbd 0e04 04be 95c4 933d
00000010: b4a2 0fbe 561a 45be a5b9 bbbd e08c 2ebe
00000020: 2421 7dbe 30ce ae3b 1e3b c7bc ea63 073e
00000030: 24f2 dc3c a976 99be e364 b7be f6e6 b9be
00000040: 5e88 84bd e72c 24be bb78 673d 1b5f 673c
00000050: b06c dfbe ebc9 1e3e ee64 9b3d d360 96be
00000060: 64c4 52be 729c d9bb 377f a0be 9043 d0be
00000070: ef6f dfbe 706e 3a3c 5fed 8dbe cfc2 a2be
00000080: 24b5 2d3d b359 babc eb1b c5bc e8e0 833d
00000090: 71ba f33d 6b1e d9bd 800b e73d 3155 d53c
000000a0: 92f7 78be 1123 81be d5b4 7bbd 5459 52bd
000000b0: 45d4 4bbe bc99 72be c89e cb3c 6c5c aebe
000000c0: a0f9 ebbd 03c1 edbd 1632 2bbe f7b2 353d
000000d0: 84b4 803e bc51 993d 8419 9abe 40f7 c3bd
000000e0: d79e ec3c 915d 75be 6269 c4bd 55a8 5fbc
000000f0: 7e72 7cbe 24f6 4bbe a4c8 16be 761e 28bc
0.11614897 -0.046164185 -0.12892172 0.072152294 -0.1402691 -0.19248328 -0.09166268 -0.17045927
-0.24719673 0.005334638 -0.024320181 0.13221708 0.02697093 -0.29973343 -0.35819158 -0.36309022
-0.064713225 -0.16032754 0.056511622 0.014121796 -0.4363761 0.15506713 0.0758761 -0.29370746
-0.2058273 -0.006640964 -0.31347057 -0.40676546 -0.43640086 0.011378869 -0.27720162 -0.31789252
0.042409077 -0.02274785 -0.024061164 0.06439382 0.11900795 -0.10601505 0.1128149 0.026041599
-0.2431319 -0.25222066 -0.06145175 -0.05135472 -0.19905193 -0.23691458 0.024855986 -0.34054887
-0.115222216 -0.1160908 -0.16718325 0.044360127 0.25137722 0.07486293 -0.30097592 -0.095686436
0.028884334 -0.23961474 -0.09590413 -0.013650973 -0.2465305 -0.19918114 -0.14724976 -0.010261169

1.running_mean f4 [64]
00000000: d8f4 51bc 0d86 97bd c1c3 6ebd 3f5e 2e3d
00000010: fba3 e6bd 4d55 adbd 355c cabd 2a5f c7bd
00000020: 1211 e5bd c278 d2bb 60d8 c2bc 4a0a c83d
00000030: 2d12 20bd 8adc 92bc db5a 2e3c ab4a 84bc
00000040: 2c63 383c f89c f33c 1b76 323c f472 8dbc
00000050: 2cdc babd 45ff f7bd 7f18 02be dba8 5bbc
00000060: f1e1 a13c 6f1c c7bd 7bf9 b83c 02d9 ae3d
00000070: 5b00 45bc d6cf a93d 02a9 cdbd 89ab 813d
00000080: 6d75 b33d 8e6a acbc e16f ee3c 41bd b93d
00000090: 6489 83bd 28b5 4ebd deee 683c f103 243d
000000a0: 90d8 b13d 70ba fb3d a85f cdbd c077 6c3d
000000b0: 1bf1 993d b8d3 debd a902 163d eb80 83bd
000000c0: 9097 443d 365b c0bd 40ca 19bc 2d44 de3c
000000d0: 0bbe afbd ef13 dabd cc78 0e3b 0471 a33c
000000e0: bd1b 2abd d8c2 c73d 0600 d23c 2463 973c
000000f0: e3d3 7d3d 1b87 8d3d 9927 80bd cf6b ef3d
-0.012814723 -0.07398615 -0.058292154 0.04257035 -0.112617455 -0.084635355 -0.09880868 -0.09734948
-0.111848965 -0.006423087 -0.023784816 0.097675875 -0.039079834 -0.017927427 0.010641779 -0.016148886
0.011254113 0.029737934 0.010892416 -0.017266728 -0.09124026 -0.12109236 -0.12704657 -0.0134069575
0.019761058 -0.0972222 0.022579899 0.08537485 -0.0120240105 0.08291595 -0.10042001 0.06331546
0.087626316 -0.021046903 0.029106082 0.090693004 -0.064226896 -0.050465733 0.014217107 0.04004282
0.08683884 0.122914195 -0.100280106 0.05773139 0.0751669 -0.10880226 0.03662363 -0.064210735
0.047996104 -0.09392397 -0.009386599 0.027132118 -0.0858117 -0.10648333 0.002173948 0.019951351
-0.04153036 0.0975396 0.025634777 0.018479891 0.06196965 0.06910535 -0.06257553 0.11690485

1.running_var f4 [64]
00000000: cf5d 193e 8439 0b3e 27bd d33d 5b5c 093e
00000010: 303e f43d b0e9 143e 1c0b 0d3e 89b5 123e
00000020: 3214 0f3e f84a 2f3e f7a3 183e 0bdd 1b3e
00000030: d518 183e 0e8a 033e 1d10 073e 7bdc 113e
00000040: 3af0 033e 2cb4 e03d 10ae 0e3e ed72 243e
00000050: 6647 003e 07c2 1d3e b023 3d3e 0e40 0a3e
00000060: ba0e 223e c182 173e 4de4 083e dd2a 0a3e
00000070: 0ae0 093e bffb 213e 36d0 eb3d c74a f33d
00000080: af14 0e3e 980d 193e b577 253e 9e5a 1a3e
00000090: 90d5 143e 404d 173e 3909 1d3e 8828 253e
000000a0: 3b4d 043e 4b91 083e 3595 263e 4efb f53d
000000b0: d8dc 163e d8eb e03d aa4a 013e a3df 133e
000000c0: aa00 df3d 1ea2 0e3e 3f79 083e 69bb 193e
000000d0: f48d 363e 8fb7 1a3e bf5b 093e a192 e63d
000000e0: 5b57 073e 5c55 083e e0cb 0e3e eae5 0c3e
000000f0: 5fe5 203e 123e ea3d 00d9 ea3d 2f51 053e
0.14977191 0.13596159 0.10338812 0.13414137 0.11925924 0.1454227 0.13773769 0.14327063
0.13972548 0.17118442 0.14906298 0.1522104 0.14853223 0.12845632 0.1318974 0.14244263
0.12884608 0.10971865 0.13933587 0.16059466 0.12527236 0.15406047 0.18470645 0.13500997
0.1582593 0.14795972 0.1336834 0.13492914 0.1346437 0.1581869 0.115143225 0.11879497
0.13875078 0.14946592 0.16158946 0.1507363 0.14534593 0.14775562 0.1533555 0.16128743
0.12920086 0.13336675 0.16267855 0.12010823 0.14732683 0.109824836 0.12626138 0.1444078
0.108887985 0.1392903 0.13327502 0.15012898 0.17827588 0.15109085 0.13413905 0.11258436
0.13216917 0.13313812 0.1394496 0.1375958 0.15712498 0.1143762 0.11467171 0.1301925

4.weight f4 [128, 64]
00000000: 7c0e 01bd 75f3 54bd 4948 4fbd 22e4 8abc
00000010: 53ed babc a84c 6d3e 88d7 4a3d fcdf b63b
00000020: 1805 8a3c 556d fabc 6a04 37bc 7cff 9b3d
00000030: eebe 003e 3d58 033e 8465 7c3e 9314 723d
00000040: b8bc 85bd c699 33bd b270 7f3c 6362 fcbc
00000050: c001 393d e0ef aa3d 05bf 093c 09b0 483e
00000060: 4dc9 323d 9507 a93b 59b2 633e d4e1 603e
00000070: e35e 6d3e dadc 5d3c f6d0 80bd 9431 94bb
00000080: e60d e3ba fbb8 90bc f221 123d 4b33 983d
00000090: 9953 44bd f3b0 6abb 06f6 923d 1556 b73d
000000a0: 929b 99ba d9fc 7c3e ea79 08bd 0301 573d
000000b0: 7865 3a3d 67d2 6f37 9fd1 2a3e 1dbb d53d
000000c0: f413 1cbd fc24 f53b f005 d33c f5be b53d
000000d0: 8da8 aa3c c52d fcbd 243e 13bd 4995 813c
000000e0: 12f0 eabc c73a 3f3e d8d9 58bc 17c7 1bbd
000000f0: ed24 563c 321f 09bd 499d e0bc 20df 313d
00000100: 1a0a 0e3e b56b 2c3e 0c56 c03d 2537 003e
00000110: aae3 813d 4dcd f13c 9410 7d3d c91d 9d3d
00000120: 54c5 ac3d 18b8 363c 06b7 663e bac9 b63c
00000130: a588 d43c da13 323d c3f8 863d 6306 c4bb
00000140: 016c 673c 133b 8d3d e42f 153e 8f91 9b3c
00000150: 1d61 d63c 6aeb 653d 14d3 363d 54d4 7d3c
00000160: 0474 65bd 9ec1 323e a0fd 8f3d 2890 473d
00000170: c797 b03c 93d0 093d 831d a23d 297a b23d
00000180: 964d 50bc ad1e 4e3e 89f5 d4bc 7347 e13c
00000190: 679b b43d 8238 013e 6511 bc3c b3f5 393d
000001a0: e2c7 fa3d e64e 2e3d 4098 b6bd 40c6 5bbd
000001b0: 388d b73b eb4c c53d c515 29bc bc41 f13c
000001c0: c971 583d 6264 14bd 3fa3 e53c 8077 323d
000001d0: d551 283d f6a7 eb3d 69b8 163e e6dc 883d
000001e0: 9008 333d 8f20 193d a6b7 823e a594 de3d
000001f0: 370e 3ebb 3a25 833d af75 8f3d 2e74 323e
00000200: 8639 e4bd 9ed2 f1bd 81c7 c63d 337d 8ebd
00000210: 9640 b73d f008 2cbd 656f 5bbc aee3 c2bc
00000220: 1084 3abd b3e7 e13a 2a14 28bc fc64 efbc
00000230: dc93 13bd ea0a 20bc cf38 b0bb f4d7 7f3d
00000240: d74f c6bc 19f6 f43d 9acc 1abe c344 38bc
00000250: 911e 62bc 6c28 86bd dc2f f5bd f450 23bc
00000260: e0ba 75bd 99ac b3bd 1dd3 6dbd d3ca e4bc
00000270: 1c73 40bd c48f b6bd cc20 b83d bcca 153d
00000280: 3181 513b 4604 88bd fe3a 18bd a1ec 97bd
00000290: cffb 89bd 97ee abbc e354 a6bd c3b8 59bc
000002a0: 6015 e6bd cf9b 09bd 5a82 0d3c d75c f63d
000002b0: 2ff8 e6bc c056 a03d 7796 a73d 638e dbbb
000002c0: 8b79 003e 364d 303d c417 45bb b5d8 b0bc
000002d0: 33df 79bd 4a62 91bd 2ac9 07bd 78be e03d
000002e0: b1d4 b23c f21a 0cbd afd7 9dbd 4910 e9ba
000002f0: 8854 d43d b6e8 cc3d dbca 963d 476b 02be
00000300: e69a 75bc 182d 64bc 6757 9a3d f5db abbc
00000310: 6cdf f83c d01a 9fbc c8c3 163c ab9b aa3b
00000320: 8185 62bd 5df8 8c3d 3dd6 8f3b 1909 c83b
00000330: cb3c f7bc 53ad a3bd 6a34 3e3c 6772 a93d
00000340: 7e29 063e 01d5 1d3d 48c6 aebd 6ffd 003e
00000350: c1db 5f3a 7683 f5bb a09a 293c 2ea2 4abd
00000360: eff2 b2bb 437f 99bd 3148 a93b f53a 363d
00000370: bbcb 5b3d 0f56 413d e1bb c53c 0968 2b3c
00000380: fe7f d53d 6def d5bd 2b01 163d f3f6 2dbd
00000390: 67e7 f43d 1ef4 febd 3601 3abd 2856 053d
000003a0: c205 2dbe 5a34 5abd d038 863d a0d1 c13d
000003b0: 6796 4bbb a5bc 6b3d d100 ccbd 9018 333b
000003c0: f040 ed3c 8398 943d e7ad d83c 5643 a93c
000003d0: 4999 583d b175 9b3d 62ea 93bd 7d20 933d
000003e0: b09f 413d e594 64bd 771d 74bd d97d 1ebd
000003f0: 3760 3c3e 6923 c03c 7366 90ba f55f a7bd
-0.031507954 -0.05198999 -0.050606046 -0.016954485 -0.022818243 0.23173773 0.049521953 0.0055809002
0.016848132 -0.030569712 -0.011170486 0.07617089 0.12572834 0.12826629 0.246481 0.059101652
-0.06530136 -0.04384782 0.0155908335 -0.030808633 0.045167685 0.08346534 0.008407359 0.19598402
0.043649007 0.0051583746 0.22236003 0.21961147 0.23180728 0.013541425 -0.06289856 -0.0045225117
-0.0017322868 -0.01766633 0.035676904 0.07431658 -0.047931287 -0.0035811036 0.071758315 0.08951966
-0.0011719337 0.24705829 -0.03331939 0.0524912 0.045506924 1.4294498e-05 0.16681527 0.1043608
-0.038104966 0.0074812155 0.025759667 0.08874313 0.020832324 -0.12313417 -0.035947934 0.015818255
-0.028678928 0.18674766 -0.013235532 -0.038031664 0.013070327 -0.033477016 -0.02741875 0.04342568
0.13871041 0.16837962 0.09391412 0.12521036 0.063422516 0.02951684 0.06178339 0.07671697
0.08436075 0.01115229 0.22530755 0.022312988 0.025944063 0.043475963 0.06590416 -0.0059822067
0.014124871 0.06896033 0.1456905 0.018990306 0.026169354 0.05613271 0.044634894 0.0154925175
-0.056018844 0.17456672 0.07030797 0.048721462 0.021556748 0.033646178 0.07915785 0.087147065
-0.01271381 0.2012889 -0.025995987 0.02749989 0.08818703 0.12619212 0.022957513 0.045400333
0.12245156 0.042555712 -0.08915758 -0.053655863 0.0056015514 0.096338116 -0.010320132 0.02945029
0.05284289 -0.036228545 0.028031943 0.043570995 0.041093666 0.115066454 0.14718784 0.06682758
0.043709338 0.037384566 0.25530738 0.108681954 -0.0029000172 0.06403585 0.07004868 0.17427132
-0.11143784 -0.1180775 0.09706021 -0.069574736 0.08947866 -0.04200071 -0.013393258 -0.023790207
-0.0455361 0.001723519 -0.010258714 -0.029222958 -0.03602968 -0.009768227 -0.005377866 0.06246181
-0.024207992 0.11961002 -0.15117112 -0.011246863 -0.013801233 -0.065506786 -0.11972019 -0.009968031
-0.05999267 -0.08773155 -0.05806266 -0.027928745 -0.046984777 -0.0891414 0.089906305 0.036570296
0.0031967873 -0.0664144 -0.037165634 -0.0741818 -0.06737482 -0.020987792 -0.081216596 -0.0132886795
-0.11234546 -0.033595856 0.008637035 0.120294265 -0.028194515 0.07829046 0.08182996 -0.0067003234
0.12546365 0.043042384 -0.003007398 -0.021587709 -0.061003875 -0.07098825 -0.03315083 0.10973829
0.021829935 -0.034205385 -0.07707154 -0.0017781343 0.103676856 0.100053236 0.0736291 -0.12736236
-0.014990544 -0.013926767 0.07536202 -0.020978907 0.030379973 -0.019421965 0.009201951 0.0052065453
-0.0553031 0.06883309 0.004389553 0.0061046 -0.030180356 -0.07992043 0.011609176 0.08273774
0.13101766 0.038533214 -0.08533913 0.12596677 0.0008539521 -0.007492478 0.010351807 -0.049471073
-0.005461089 -0.07494976 0.0051660766 0.04448982 0.05366109 0.047201212 0.02413744 0.010461816
0.10424803 -0.104460575 0.036622208 -0.042471837 0.11958199 -0.124489054 -0.04541131 0.032552868
-0.16896728 -0.053272583 0.06553805 0.09463811 -0.0031064989 0.057552952 -0.09961093 0.0027327873
0.028961629 0.07255652 0.02645011 0.020661991 0.05288056 0.07590807 -0.07222439 0.07183931
0.04727143 -0.05580606 -0.059598412 -0.038694236 0.18396078 0.023454385 -0.001101686 -0.08172599

4.bias f4 [128]
00000000: e730 c53c 101c 68bd ecc0 59bd 2b65 993d
00000010: ae48 89bd 7dbd a83d 94d0 713d efb7 fcbd
00000020: cb84 743d a124 babc 58d0 433b d9dc fa3d
00000030: 74b2 a63d a297 023d 4b94 70bd bd88 2d3d
00000040: 1645 08bd 712d 173d cc87 803c 9ade a5bc
00000050: d009 d03d 3b6a c33d 1ce2 08bd 2e7b ab3d
00000060: 7a5e b3bd 65c5 3abc ce9b eeba a437 473b
00000070: 46d2 cfbd 32c5 a63d df96 ddbb e6f2 1a3d
00000080: 510e af3c 70c9 f2bd 7051 aebd a93c 023d
00000090: 6fef b63d 5dbf 71bb 6137 c73d d3ad d83c
000000a0: e6b4 b8bd 68c9 cebd ab3b e0bd 5989 b33d
000000b0: 04a7 b3bd d300 c1bd 98e9 e2b9 fcde c0bd
000000c0: 0b15 5dbd d42a 10bd 99e8 453d be04 e93d
000000d0: 1268 e8bb e9fc 453d aaaa bfbd 8c6d 75bd
000000e0: 0a1e 9fbd 4dc1 dfbd 8561 58bd 4d13 b8bd
000000f0: bdf2 73ba eda1 413d d9ae 1ebd e41b 51bd
00000100: f106 51bd 7133 a03d c4e6 443d 4223 c43d
00000110: 6733 adbd 25bd 3d3d a456 d83d 681e f7bc
00000120: 276a 2fbd 6359 14bd 2deb c73d ffe4 cbbd
00000130: 1ee1 f9bb e78d eabd d5e6 c6bb 5f50 9a3d
00000140: eccd 7b3a 91d2 f33d 27a1 5cbd 2dfc cbbd
00000150: b09f fdbc 6ddc f23c 3c6a 5a3d 80bc 83bc
00000160: 7d8f d7bd c3fe a2bd b8a4 9d3d 2a3a e23d
00000170: 78d5 81bc 7eae 613d 62ef 823d 3d6c 0e3d
00000180: 2a30 823d 381f bfbd 455d 493d 9046 85bd
00000190: 467d 8bbd c5ed 8fbd 4b69 01be f31e c93d
000001a0: 1b40 443d e09e d03d be3a 47bd 8130 853d
000001b0: c3df e6bd e23e 8a3d b11e e6bc 0523 16bd
000001c0: 3963 bebd 2328 adbd c3bf fe3d fda3 f93d
000001d0: 6350 763b 80c1 013d 210f 233d 9314 933d
000001e0: 1224 bfbd ab28 72bc 1e9f 593d bc4d a23d
000001f0: 9b1c e9bd 3e9b d13d 49ae 993d 16d5 74bb
0.02407117 -0.056667387 -0.0531625 0.074899994 -0.06703316 0.08239267 0.059036806 -0.1233977
0.059696954 -0.022722544 0.0029878821 0.122491546 0.08139506 0.03188289 -0.058735173 0.042366732
-0.03326901 0.03690857 0.015689753 -0.020247746 0.101581216 0.09541746 -0.03341876 0.08373104
-0.08758254 -0.011399602 -0.0018204392 0.0030398155 -0.10147528 0.08143081 -0.00676237 0.037829302
0.021369131 -0.118548274 -0.08511627 0.03179613 0.08932387 -0.0036887743 0.097273596 0.026450073
-0.09018879 -0.10097009 -0.10948881 0.08766431 -0.0877209 -0.09423985 -0.0004328012 -0.09417531
-0.053975146 -0.035197094 0.048317526 0.113778576 -0.0070924843 0.048336897 -0.093587235 -0.059918925
-0.07769401 -0.10925541 -0.052827377 -0.08988056 -0.0009305885 0.047273565 -0.038740966 -0.05105199
-0.05103201 0.07822312 0.048071638 0.095770374 -0.0845707 0.04632296 0.105634004 -0.030165866
-0.042825844 -0.03621806 0.09761653 -0.09955787 -0.007625713 -0.11452847 -0.006069998 0.07534861
0.0009605575 0.11905397 -0.053864624 -0.09960208 -0.030959934 0.029646123 0.05332397 -0.016081095
-0.10525415 -0.07958748 0.07697433 0.1104625 -0.01584886 0.05509805 0.06393315 0.034771193
0.06356843 -0.093321264 0.049161214 -0.06507599 -0.068110034 -0.07027773 -0.12637822 0.09820356
0.0479127 0.10186553 -0.048640005 0.06503392 -0.11273148 0.06750275 -0.028090807 -0.03665449
-0.09296269 -0.08454921 0.124389194 0.121894814 0.0037584535 0.031678677 0.03980935 0.071816586
-0.09333052 -0.014780204 0.05313026 0.07924983 -0.11382409 0.10234688 0.075039454 -0.0037358454

5.weight f4 [128]
00000000: c228 6e3f 613c 803f 1faf 9e3f 3199 5e3f
00000010: f4a1 9c3f 37f3 823f 34d3 883f 6f08 743f
00000020: 4ab5 703f 9202 a33f 40cb 5d3f e86b 8a3f
00000030: 2ab4 683f fec5 803f d27d 6f3f dd13 833f
00000040: f8d0 a33f 66fc 893f 1aa2 6a3f a7aa 8c3f
00000050: c0aa 943f e859 8b3f cf16 4a3f 47b4 793f
00000060: e0de 9b3f 7281 613f 5291 883f ad3c 703f
00000070: 008c 833f b463 783f 5206 963f 0f1c 5d3f
00000080: a234 913f 52a1 823f 3cea 8e3f e9e4 8f3f
00000090: 697b 663f 07ad a33f f180 953f 6cc9 a03f
000000a0: 8d16 7b3f ee18 533f ae29 813f e129 623f
000000b0: ce32 943f fee7 893f 7b63 943f 27b1 933f
000000c0: cc11 503f 3016 9f3f 74d9 833f 7ad7 783f
000000d0: 9684 933f 9486 783f 4632 923f 714f 7f3f
000000e0: 7f7d 6f3f c126 753f 4aa3 633f 0a8a 8d3f
000000f0: fb3e a03f 4573 883f 9d23 9d3f 8764 a83f
00000100: 0f2e 713f f67a 8d3f 8d42 933f a68c 723f
00000110: df95 703f a7a8 813f 35fb a23f 5ce8 8f3f
00000120: 3d8e 983f 461f 7b3f 55a0 803f e20a 8a3f
00000130: 3998 553f f16d 8b3f 0f64 633f a6f0 823f
00000140: 9abd 803f 37dc 823f 0c63 6c3f ccd7 693f
00000150: 1405 843f 994b 903f 8b66 7b3f 6d86 8c3f
00000160: c52a 863f 5c3f 663f 0ac1 643f f30d 913f
00000170: 1608 813f 6559 983f be70 4e3f a64c 6f3f
00000180: 2d3a 563f 5fa3 8c3f 3858 833f 1758 733f
00000190: a494 8d3f f9ef 923f 6c34 623f 5f5b 833f
000001a0: 2859 6a3f 984d 873f 36b4 923f 1979 4d3f
000001b0: 3650 7f3f 6d85 a53f e532 9c3f b7df 713f
000001c0: a9e3 8d3f bf0f 763f dd4d 8a3f 22d5 873f
000001d0: 7373 8e3f 8cb1 7c3f 3c84 8f3f 7ba4 8c3f
000001e0: a029 923f 9cbb 833f 386e 7e3f 1127 813f
000001f0: d5d0 883f bc6c 8f3f 3baa 7c3f 4367 8f3f
0.9303094 1.0018426 1.2397193 0.869525 1.2236924 1.0230473 1.0689454 0.9532537
0.94026625 1.2735159 0.8663826 1.081418 0.9089991 1.0060422 0.9355136 1.0240437
1.2798147 1.0780151 0.916536 1.0989579 1.1614609 1.0886812 0.78941053 0.97540706
1.2177391 0.8808814 1.0669348 0.93842584 1.02771 0.97027135 1.1720679 0.8637094
1.1344187 1.0205481 1.1165233 1.1241733 0.9003206 1.2787179 1.1679975 1.2561469
0.98081285 0.82459915 1.0090845 0.8834515 1.1578004 1.0773923 1.1592859 1.1538438
0.81277156 1.2428646 1.0300736 0.9720379 1.1524837 0.9708035 1.1421592 0.9973059
0.93550867 0.9576226 0.88921034 1.1057751 1.251922 1.0660177 1.2276493 1.3155679
0.94210905 1.105315 1.1504685 0.9474586 0.93978685 1.0129594 1.2732912 1.1242785
1.1918408 0.98094594 1.004893 1.0784571 0.834354 1.0892926 0.8882455 1.022969
1.0057862 1.0223454 0.92338634 0.91344905 1.031405 1.127307 0.98203343 1.0978523
1.0481802 0.8994043 0.89357054 1.1332382 1.0080593 1.1902281 0.8064078 0.9347633
0.8368252 1.0987357 1.0261297 0.9505629 1.1060987 1.1479484 0.8836124 1.0262259
0.9154229 1.0570555 1.1461246 0.80262905 0.9973177 1.2931343 1.2203032 0.94481987
1.1085101 0.96117777 1.0805012 1.0611918 1.1128982 0.98708415 1.121223 1.0987695
1.1418953 1.0291629 0.9938693 1.0090047 1.068873 1.1205058 0.9869725 1.1203388

5.bias f4 [128]
00000000: 460f 3ebe dd2e ebbd b066 3e3e 1254 24bd
00000010: d38b b63d 56ae 37bd 8baf bcbd 1b60 44be
00000020: fd94 d4bd 2b38 f33d 9dc7 bdbd 9332 e63d
00000030: ee5b debd 9f95 ffbd a94d 57be c9f1 45be
00000040: b2a2 1f3e 54cf e33d 34be 743b abaa 04bd
00000050: 2b6a d23d f98a b43d 6738 42be 7e6c e7bc
00000060: 3c6d 163e b67b 40be cdb6 c1bd abfd 31be
00000070: bf71 15be 5037 9fbd e3a3 493d 45f9 7ebe
00000080: b31a e13d bad8 963d 1035 113e 7481 e8ba
00000090: 2071 e03b f045 2b3e b029 983d 882a 153e
000000a0: c28c 12bd 19e3 8ebe 164d b8bd 706d 49be
000000b0: c276 c03d 72e3 9e3d 963d 1a3e 7a27 d63d
000000c0: c2e8 5bbe 7abf 1d3e 8029 d4bd 8e95 35bd
000000d0: 9cd5 c63d 44f3 88bd f938 aa3a 9465 3abd
000000e0: c909 d1bd 6fae d8bc 920a 68bd 699b 643d
000000f0: fb2d 493e 9dc2 2a3d 7bbe 353e 6e79 823e
00000100: 3cbb 4dbe 0421 ab3d b421 1a3d 35c2 17be
00000110: b517 4abe 0f32 93bd 1a42 ce3d c5ea 903d
00000120: dd97 273d 11e1 7ebd 770c 2abe 90e7 d9bc
00000130: 46fc ecbd 5d48 8e3d dfa2 ddbd 50a1 0bbc
00000140: 9bf5 a23d 5655 843d 9328 dbbd 963b 11be
00000150: ff1d 053b 5d8b 9e3d a10c eabd 3be4 ad3d
00000160: 7d0b 8cbc 625e f9bd 8893 69be f9bc f53d
00000170: d2d8 a1bd 3174 883d a23a 5abe 02be 7abd
00000180: ec42 5abe 4f12 9ebd 5c68 52bd 0912 13be
00000190: c637 693c 4545 243d 2ed3 a2bd d208 5ebd
000001a0: 4abe b2bd bd5f 3d3d 877d 123e b73e 8fbe
000001b0: 3d5b 203c 778f 0d3e 46a8 c43d 75bc aebd
000001c0: 7ab6 973d dfc3 b7bd 97c0 523d f0bb 1ebd
000001d0: f691 6a3d c140 e6bd d291 ae3d cf5d 6b3d
000001e0: fd37 143e d0ee 6d3c cc3e 9bbd 4b17 31bc
000001f0: eace d53d 13e9 133e 7bb8 313b a7f5 403d
-0.18560514 -0.11483548 0.1859386 -0.04011924 0.08913388 -0.044843994 -0.0921317 -0.19177286
-0.1037998 0.118759476 -0.09266589 0.11240115 -0.10857378 -0.1247971 -0.21025719 -0.19330515
0.15589407 0.11123529 0.0037344815 -0.032389324 0.10274156 0.088155694 -0.18966828 -0.028249975
0.14690107 -0.18797192 -0.094586946 -0.17381923 -0.14594172 -0.07774222 0.04922856 -0.24899776
0.109914206 0.07365556 0.14180398 -0.0017738775 0.006849423 0.16725898 0.07429826 0.14567006
-0.03577877 -0.27907637 -0.08999078 -0.19670653 0.09397651 0.077582255 0.15062556 0.10456748
-0.21475509 0.15405074 -0.10359478 -0.04433208 0.097087115 -0.06687024 0.001298695 -0.04550703
-0.102069445 -0.026450364 -0.056650706 0.055812273 0.19646446 0.041689504 0.17748444 0.25483268
-0.20090955 0.083559066 0.037629798 -0.14820178 -0.19735606 -0.07187282 0.100712016 0.07076029
0.040916312 -0.06222636 -0.16606317 -0.026599675 -0.11571555 0.06947396 -0.10822081 -0.008522347
0.07957002 0.06461589 -0.10701098 -0.14182886 0.0020312069 0.07741425 -0.1142819 0.08490797
-0.017095322 -0.12176205 -0.22810185 0.11998934 -0.07902683 0.06662787 -0.21311429 -0.06121636
-0.21314591 -0.07718336 -0.051369056 -0.14362349 0.014234489 0.040105123 -0.079504356 -0.05420763
-0.08727701 0.04623388 0.14305697 -0.27977535 0.009787378 0.13824259 0.09602408 -0.08532039
0.074078515 -0.08972906 0.0514532 -0.03875345 0.057268105 -0.112428196 0.08523907 0.05746251
0.14474483 0.014522269 -0.07580337 -0.010808776 0.10439856 0.1444438 0.0027118016 0.047109272

5.running_mean f4 [128]
00000000: d8e7 293f 367b b73f f4df f8be 6f1c a33e
00000010: f126 513e c243 033f 79de 903f da77 653d
00000020: 5c9f 833f eae6 b8be 4385 613f 2b57 33bf
00000030: b6ec 6dbf d404 9d3f b033 953f c78e f73f
00000040: 2119 8cbe fae3 28bf c49e 3cbf 5d7f 7d3f
00000050: b9ab 5abf 9e43 16bf 503c 173e 9a6c 5d3f
00000060: 7409 37bf 39ce c63f 9a9e 7a3f dd3f aa3f
00000070: c4c4 6c3f 92dc a23f 21db ed3d ae50 c73f
00000080: 88f7 b73e b4d7 513e fff3 8f3e ffd8 623f
00000090: 267d 9e3f f179 a63e 5218 253f a915 e2be
000000a0: 4399 26bf f03a 3e3f 2281 503f ba1e a03f
000000b0: ffd6 463f d217 1dbf 7f41 16bd 1836 b0be
000000c0: 5374 f8bd 9f80 4abf 9d34 4f3f 6004 0fbf
000000d0: c1da 02bf 4e25 5e3e 2308 2b3e 44bd 23bf
000000e0: 7bf4 983f 2be8 0a3e 43e6 4d3d 8138 363f
000000f0: eb92 bfbf 8cf2 6abe f28f 19bd 96c9 9fbf
00000100: dff9 d33f 8d93 6ebe 9ab5 ae3f ca98 a53f
00000110: 5bbb 5b3f 1d95 943f 67c5 d5be bc14 ffbd
00000120: 272c ef3e 9818 6c3e 21fb 8d3f f6e6 393f
00000130: 8234 573f 8ce8 61bf ec5f 913f d0ed b7be
00000140: c62d ba3e 4a1e 40bf 7ea8 223f 9e42 993f
00000150: cb50 e7be aaed 09bf d26c 9a3f 8bdb 363f
00000160: 0cc0 963f e4f7 afbe 950f ef3f ee27 83bf
00000170: 7869 b73f 2b44 0cbf 50f0 213f d794 b63f
00000180: cc24 833e 955a ab3f 7a0c b83f 3bb4 483f
00000190: 6a1f 453f 9637 8a3f 30dc 3c3e 7f83 c23f
000001a0: 87a6 743e 389f d43e a590 2dbf 37b7 3f3f
000001b0: ae6b 7bbe 98e2 e23d 7a67 bb3e 3abd 6d3e
000001c0: 3fa4 91bf 2d8a a73f 9972 593f 421d 2f3f
000001d0: 271c f63e eef9 ae3f 3995 2f3e 0257 10bf
000001e0: 3914 4ebf 33e4 6e3f 2a64 193f c688 543f
000001f0: 3bfd bd3e 61ec 993e eb5c 27bf 3407 00be
0.6636939 1.4334476 -0.48608363 0.3185763 0.20425011 0.51275265 1.1317893 0.056022502
1.0283008 -0.36113673 0.88093966 -0.7005488 -0.9293932 1.2267098 1.1656399 1.9340447
-0.27362922 -0.65972865 -0.7367976 0.99022466 -0.8541828 -0.58696926 0.14769101 0.8649384
-0.714988 1.5531684 0.97898257 1.330074 0.9248774 1.2723563 0.11614061 1.5571496
0.3593104 0.2049244 0.28115842 0.8861236 1.2381942 0.3251491 0.64490235 -0.4415715
-0.6507761 0.7430868 0.8144704 1.2509377 0.7767181 -0.6136447 -0.036683556 -0.3441627
-0.12131562 -0.7910251 0.80939656 -0.5586605 -0.5111504 0.21693918 0.16702323 -0.6396067
1.194961 0.13565128 0.050268423 0.7117997 -1.4966711 -0.22944087 -0.037490793 -1.2483394
1.656063 -0.23298474 1.364917 1.2937253 0.85832757 1.1608006 -0.4175217 -0.12455127
0.46713373 0.23056257 1.1092263 0.72618043 0.84064496 -0.88245463 1.1357398 -0.35923624
0.36363047 -0.7504622 0.6353835 1.1973455 -0.45178828 -0.5387827 1.2064459 0.71428746
1.1777358 -0.34368813 1.867663 -1.024656 1.4329062 -0.54791516 0.6325731 1.4264172
0.2561401 1.3387018 1.4378808 0.7840001 0.7700106 1.0798213 0.1844337 1.519638
0.2389165 0.41527724 -0.67798835 0.7488894 -0.24552795 0.110783756 0.36602384 0.23216715
-1.1378249 1.3089043 0.8494049 0.6840402 0.48068354 1.3670022 0.17146768 -0.56382763
-0.8049961 0.93316954 0.59918463 0.830212 0.37107262 0.30063155 -0.65376157 -0.12502748

5.running_var f4 [128]
00000000: 8ec8 353f 976e a63f 4470 653f fd13 113f
00000010: cfbf 833f 7ae3 423f 3d79 8c3f a07b 863f
00000020: 6572 883f 1f58 c63f 15d4 4c3f c71b 0740
00000030: eac0 9a3f 8105 7e3f cfc7 2b3f d573 853f
00000040: 9fe7 a03f 12c6 d63f 0b9d a03f 0ac2 8e3f
00000050: 31eb 2a3f e0d6 8b3f bc6b 473f 63ce 833f
00000060: 7614 783f 45ea 273f 8e2d 8b3f a7f5 273f
00000070: 8197 2d3f ab68 923f 0720 8d3f 2c68 703f
00000080: 5590 7a3f a675 8c3f 3932 853f 03d0 783f
00000090: 4efa 723f 0bca 8a3f 31da 603f 9dcd 0140
000000a0: 23bb dc3f d423 833f 9b82 6a3f d131 843f
000000b0: 8698 073f 991a cb3f 143c 7d3f 11f4 8e3f
000000c0: 0e1a 433f 94d5 c73f fe7e 3f3f b820 6b3f
000000d0: 836a c03f 6e64 8a3f 3909 1a3f f485 b53f
000000e0: 56b7 7c3f f3f0 843f 4fe6 6b3f b2a3 033f
000000f0: b814 a43f c805 893f 0862 e93e a999 af3f
00000100: d023 4d3f 2f0c 9e3f 9c81 933f 7915 9c3f
00000110: 11f0 693f 808c 883f 0447 bf3f c201 693f
00000120: 60e6 543f 2bf8 7d3f 4e7b 9e3f 0fa7 463f
00000130: 9777 643f 0afc a73f 18a2 a13f 1106 763f
00000140: b4ab 853f 458b cb3f a3ba 1b3f 4294 233f
00000150: d3fa 583f 93d0 dd3f 6f29 723f 7a88 4e3f
00000160: 869a 403f dff5 a03f 760b 603f ca77 5b3f
00000170: 3dfb 933f 989b 0840 c478 473f 25e1 9d3f
00000180: 1bb5 8d3f eb42 7d3f 34ea 4a3f 0794 1f3f
00000190: c26a 993f 44a1 b33f e442 343f 986f a53f
000001a0: f6a7 943f efa9 753f ed32 a93f 5939 323f
000001b0: ef4a ee3f 3fca 3a3f 0d1a 203f 4075 873f
000001c0: bf91 aa3f b433 2e3f 660a 8b3f b7aa 7d3f
000001d0: 99c2 8e3f 7695 353f 943f 4a3f cfe6 af3f
000001e0: c00e c43f 52df 963f 3352 213f 9b07 713f
000001f0: 2d37 8d3f e703 563f af11 cb3f 4949 983f
0.7100915 1.3002499 0.8962443 0.56671125 1.029291 0.7612835 1.0974499 1.0506477
1.065991 1.5495642 0.8001111 2.1110704 1.2090123 0.9922715 0.6710176 1.0425974
1.2570685 1.6779196 1.2547926 1.1152966 0.66765124 1.092495 0.77898765 1.0297359
0.9690622 0.6559184 1.0873277 0.6560921 0.678093 1.1438192 1.1025399 0.93908954
0.97876483 1.0973403 1.0405952 0.971924 0.94913185 1.0842909 0.87832934 2.0281746
1.724461 1.0245309 0.9160554 1.0327703 0.5296711 1.5867492 0.98919797 1.1168233
0.7621163 1.5612054 0.7480315 0.918468 1.5032505 1.0811899 0.6017032 1.4181504
0.9871725 1.0386032 0.921483 0.51421654 1.2818823 1.0704889 0.45582604 1.3718768
0.8013277 1.2347468 1.1523929 1.2194053 0.9138194 1.0667877 1.4943547 0.9101831
0.83164024 0.992068 1.238138 0.7759866 0.8924498 1.3123791 1.2627592 0.96103007
1.0443025 1.5901877 0.6083166 0.638981 0.8475773 1.7329277 0.9459447 0.80676997
0.75235784 1.2575034 0.8751749 0.8572966 1.1561047 2.1344967 0.7791865 1.2334334
1.1070894 0.98930234 0.79263616 0.62335247 1.1985705 1.4033589 0.70414567 1.2924681
1.1613758 0.95962423 1.3218666 0.69618756 1.8616618 0.72964853 0.6253975 1.0582657
1.3325728 0.6804764 1.0862548 0.99088615 1.1153136 0.70931184 0.7900326 1.3742312
1.5317001 1.1786902 0.6301605 0.9415223 1.1032463 0.83599705 1.5864772 1.1897365

8.weight f4 [14, 128]
00000000: 5613 4c3d 1899 4abd 5e76 f5bc f47a a8bc
00000010: c656 fd3c ee10 9cbd 516d 6cbd eac9 e43d
00000020: a2dd 84bd 3187 0bbd 143c acbd eb12 433c
00000030: cbea da3c b4c0 3c3c e2ec c0bc d6c1 213d
00000040: baa2 b13b 2d77 1e3d 0f8c 3ebd cd72 29bd
00000050: 7018 003c fa00 dd3a 28cd 353d e3c8 67bd
00000060: be2b 88bc c5c5 adbd 0e15 723d b370 8d3d
00000070: e499 9ebb c9c9 4e3b 893e 963d 74d9 e7bd
00000080: 5e87 5c3d c5f8 863d 7141 7dbd 75a3 f63d
00000090: 9cbf cbbd 5858 dc3c a284 51bc 90f4 4bbc
000000a0: c874 043d e60e 813b 3273 c1bd 3a76 0c3d
000000b0: bd68 e8bc 70b6 f1ba f6c6 823c d328 bb3d
000000c0: 2278 b53a 7387 e83d bc9e d23c 090e 803a
000000d0: a254 3ebd 62cd cc3d 86fd b83d d644 353d
000000e0: a6c7 8cbb 9ca7 533d a9b8 a0bd 509d 2d3c
000000f0: 0d6b abbd c1c3 a4bd 4025 51bd 3486 e8bd
00000100: 3b43 983d c205 ca3d dee5 b4bd 2772 733c
00000110: d119 d03d 5990 ab3c dd26 923b a3c3 533c
00000120: 00dc 06be 0497 4a3d 2a69 a43d 7529 0c3d
00000130: 03fd 4fbd 6b82 bdbd ac54 533d fe48 16bd
00000140: 860d e3bc 77c6 243d a502 f83c 7702 313d
00000150: cd78 9abb e57f 833c d232 c2bd e1c0 023c
00000160: 6814 7bbd d1b4 5a3c e017 f13c 11f1 a7bd
00000170: 0633 bdbc 945a 4c3d 9077 80bd c4d4 fcbc
00000180: 25e7 953b 0b88 32bc 1880 cbbd 1047 9fbc
00000190: ef2e 6abc 4320 adbd c52f 113d bd1f 0bbd
000001a0: 342f 97bc 37ac 60bc 1f4f b1bc 676d cabb
000001b0: 5139 8f3b f05d b73d bfff 8abd b24b 3d3c
000001c0: 5377 80bc 86c2 5dbd f373 fcbc f4f7 26be
000001d0: 88fe 2e3d 4458 9b3d 4e9a 133d 5ea5 1dbd
000001e0: 1cd9 de3d 52e8 d53c 9796 283d 5f3f 9a3d
000001f0: 0564 b33c 3724 e2bb 5c73 833d bdb1 7d3d
00000200: fec5 59bb 65d9 183b 145a 613d 9abe 8ebc
00000210: af71 a9bc a44e a0bb b3bf 53bc 053d 783c
00000220: 4a83 443c 50ad 883c 763b ff3b 2823 213d
00000230: e0e3 1dbb 634a d63c 34b1 50bd 4db2 09be
00000240: 3847 d239 fc96 afbc c291 61bc 4643 aa3c
00000250: c463 b3bc 9f77 6bbc 1863 243d a322 2cbd
00000260: e490 67bc 3a35 4cbd 10fc 983c b175 523c
00000270: 5576 cb3b 81de 2d3d 505e 86bc 34de 9fbc
00000280: 3202 983d 6c86 e03b 7a86 b5bd dd5b 483d
00000290: 123a fcbc f124 05bd fce1 4dbc 2cd8 f33b
000002a0: de2e ce3d 8397 ae3c d30b c7bc 2999 933c
000002b0: 71b2 13bc 68ff 3a3d 14c1 abbc 7765 f23c
000002c0: a59b 6ebb 8013 7dbc 3d96 483d ceac 19bd
000002d0: 372c 4b3d 6c85 9dbc f4fc 763c f32e c3bc
000002e0: 3a77 c63d e18f 573c 2c07 0ebc a601 22bc
000002f0: c722 63bd 9fca 843b 69d0 8b3c 8bf5 a6bc
00000300: 96d6 72bd 2f7d 7ebd 55aa 9fbc 817e 423d
00000310: 663f 9f3c 5be3 d1bc cb57 0d3d 7247 383c
00000320: 87b2 863c de8a 78bb 7ea9 dc3c 945b 083b
00000330: b95f c3bc 973e 203d 18ad 623d 5821 173d
00000340: fe68 12bc e607 ae3d 6b74 873c 2ebd 48bc
00000350: c36a 85bc a5c8 e93b 0ff6 f2bc ec46 beba
00000360: 0e1a b73c c78c 16bc 821f a4bd 4e6d 4a3d
00000370: 998a 633c 4356 9a3c 7dd3 ff3c f524 513d
00000380: f5f5 abbb 8a17 9a3c b2f6 6bbc 6ab6 ae3b
00000390: 9c3b 73bd 752d f4bb 3acc da3c 03ec 9d3d
000003a0: 10fd 7c3c 123a 183d 88f6 9dbc f966 f3bb
000003b0: 3f18 d1bc e4ae eabc d812 203c 4324 01bd
000003c0: 245d 3a3b c37f b3bd f863 223d c4fb 6fbd
000003d0: 76e1 9bbc 91be c8bc 41d4 2f3b fea0 1abc
000003e0: 7304 0cbd e118 b93d c9b6 19bd ec5f 21bd
000003f0: 3098 2d3d 5a41 ddbc 487c 8abc 13cd 643c
0.049823128 -0.049462408 -0.029963668 -0.020566441 0.030925166 -0.076204166 -0.05772144 0.111713246
-0.064875856 -0.034064475 -0.084098965 0.011906366 0.026723286 0.011520553 -0.023550455 0.039491497
0.00542101 0.038687874 -0.04652029 -0.04136925 0.007818326 0.0016861253 0.044385105 -0.056588065
-0.01662242 -0.08484987 0.05910211 0.06906261 -0.0048401225 0.0031553379 0.073361464 -0.11320773
0.053840034 0.06590418 -0.061829988 0.12042896 -0.09948656 0.026897594 -0.01278797 -0.012448445
0.032337934 0.0039385436 -0.094458 0.034292437 -0.028370256 -0.0018441211 0.015964013 0.09138646
0.0013845006 0.1135396 0.025710456 0.0009769808 -0.04646743 0.10000111 0.09032731 0.0442551
-0.004296261 0.051673517 -0.07847721 0.010596588 -0.08370028 -0.080451496 -0.051060915 -0.11353722
0.07434698 0.098643795 -0.08832906 0.014858759 0.10161174 0.020942854 0.0044601993 0.012925061
-0.13169861 0.049460426 0.08027871 0.034219224 -0.0507784 -0.09253391 0.05159442 -0.036690705
-0.02771641 0.040228333 0.030274699 0.04321524 -0.0047141076 0.016052196 -0.094823495 0.007980556
-0.061298758 0.013348774 0.02943033 -0.08200277 -0.023095619 0.04989107 -0.06272805 -0.030863173
0.0045746737 -0.010896693 -0.09936541 -0.019443065 -0.014293416 -0.08453419 0.035445947 -0.033965815
-0.018455125 -0.013712934 -0.021644173 -0.0061775926 0.0043708463 0.08953464 -0.06787061 0.011553692
-0.015681898 -0.05414059 -0.030817008 -0.16305524 0.04272321 0.07585195 0.03603583 -0.038487785
0.10881254 0.026111756 0.04115924 0.07531618 0.021898279 -0.00690129 0.064184874 0.061937083
-0.0033229585 0.0023322937 0.055017546 -0.01742487 -0.020684091 -0.004892187 -0.012924123 0.015151267
0.011994192 0.016684204 0.0077890707 0.03934017 -0.0024092123 0.026158517 -0.050950244 -0.13446923
0.00040107383 -0.0214343 -0.0137676615 0.020784032 -0.021898158 -0.014371782 0.040133566 -0.04202522
-0.014133666 -0.04985545 0.01867488 0.012845443 0.0062091746 0.042448524 -0.016402394 -0.019515134
0.07422294 0.006851962 -0.0886354 0.048915733 -0.030789409 -0.032505933 -0.012566086 0.007441541
0.10067533 0.02131248 -0.02429763 0.018017368 -0.009014712 0.04565373 -0.02096609 0.029589398
-0.003640869 -0.015446544 0.048971403 -0.037518315 0.049602713 -0.01922866 0.015074957 -0.023826098
0.096907094 0.013156862 -0.008668702 -0.009888088 -0.055453088 0.0040524746 0.017067151 -0.020380756
-0.059286676 -0.062131103 -0.0194904 0.047483925 0.01943941 -0.025621107 0.034507554 0.011247503
0.01644255 -0.0037924568 0.026936289 0.0020806538 -0.023849355 0.03912219 0.055340856 0.036897033
-0.008936165 0.084976 0.016535005 -0.012252135 -0.01628626 0.0071345144 -0.029658346 -0.0014516986
0.022351291 -0.009188837 -0.08013822 0.049420647 0.013888025 0.01883996 0.031228775 0.051060636
-0.005247826 0.018810052 -0.014402078 0.005331804 -0.05938302 -0.007451708 0.026708711 0.07711031
0.015441194 0.037164755 -0.019282594 -0.007428047 -0.025524257 -0.028647847 0.009770118 -0.031528722
0.0028436864 -0.08764603 0.03964612 -0.05858971 -0.019028407 -0.024504932 0.0026829394 -0.009437798
-0.03418393 0.090379484 -0.037527833 -0.03939812 0.042381465 -0.027008701 -0.016904965 0.013964909

8.bias f4 [14]
00000000: 7c6b 3ebd bb74 c6bd 5244 43be ea58 5ebd
00000010: 3b0a 66bb 03be a4bc 0a3d 123d de85 6d3c
00000020: b69b 443e 857e 183c f64b 8dbe 37e5 4abe
00000030: 7e0f 63bd 8717 b43d
-0.046489224 -0.09690233 -0.19069031 -0.054284014 -0.0035101313 -0.020110136 0.035702743 0.014497248
0.19200024 0.009307508 -0.27597016 -0.19814001 -0.055434696 0.0879355
