code/seed42/GAN_discriminator.pth (torch, 43756 bytes, 5 tensors)

0.weight f4 [128, 14]
0.26166704 -0.17600442 -0.090556964 0.036580104 0.098709986 -0.057835918 -0.11364126 0.011059248
-0.3065871 -0.069285385 0.08869976 0.16396742 4.689838e-05 -0.1484938 0.15766843 -0.12428765
-0.09227937 -0.09551739 -0.09644405 0.030527992 -0.068148986 0.026542911 -0.028866677 -0.020343753
0.27322602 0.30221385 -0.1607167 0.08934757 -0.1312147 -0.111207314 -0.062300425 -0.008331217
0.30351853 -0.07003337 0.00603348 -0.24141325 -0.05373757 0.13412291 0.35842022 -0.019545563
-0.12602712 -0.046364684 -0.036544178 0.07002961 -0.21389794 -0.09697257 -0.105882876 0.0008357022
-0.099168204 -0.07782386 -0.07988538 -0.09673679 0.16949892 0.19723172 0.024862308 0.13495174
0.12170735 0.3101153 0.13068312 -0.13269578 0.06685043 0.18803222 0.12763888 0.017544486
-0.049681723 0.04320454 0.14092799 0.18652329 0.07872572 -0.090623364 -0.3037955 0.14532243
0.27872917 0.14397775 0.013873777 -0.042001266 -0.05777333 0.069647714 -0.06848435 0.09768718
0.36803612 0.061613016 -0.118835285 0.135022 0.005346546 0.1274281 -0.14224587 0.059811153
-0.052542806 0.0021343236 -0.12019854 0.11920894 -0.21669699 -0.22179614 -0.08185663 0.2899386
0.011124528 -0.09998548 -0.23841114 -0.09939126 -0.0662533 -0.14519054 -0.058386803 0.011137831
-0.17271075 0.23465931 0.032842636 0.14609624 -0.08556624 -0.1966145 -0.0054441234 -0.034419354
-0.15901002 -0.09524761 0.03110658 0.09693309 -0.10303267 -0.105668604 0.07964607 -0.09715988
0.14604639 -0.11590813 0.18168652 0.22029452 0.116608515 -0.024510907 -0.13354397 0.030841755
0.2621188 0.019301629 0.11044953 -0.007922281 -0.09717078 -0.009529648 0.10146424 0.12735076
-0.105196625 -0.015353979 -0.22064988 -0.02740056 0.12629737 -0.095598646 0.013852992 0.08744018
-0.11622624 0.08789016 -0.06645021 -0.15490451 -0.28289214 0.23608394 -0.3909323 0.09874323
0.091700114 -0.017788293 -0.1895022 0.067798056 -0.31345245 0.052573264 -0.36738932 0.2288396
-0.11147503 -0.03517822 0.021521904 -0.042729408 -0.051132496 -0.08735708 0.07076405 -0.10374586
-0.45328754 0.097507015 -0.21705684 0.23413457 0.015262601 -0.117167994 0.042465504 0.016091295
0.16218147 0.005983257 -0.30301812 -0.20365156 0.06977609 -0.18059841 0.15502706 -0.22959752
0.06311254 -0.031724945 0.037315518 0.09330953 0.02468568 0.08406185 0.15524206 -0.23850344
-0.16302432 0.087004684 -0.08487264 -0.24501866 0.029686203 0.013020359 0.15531135 0.0059978142
-0.1410973 0.03822408 0.05020225 0.11437189 -0.07056528 0.112200655 -0.03930307 -0.01872048
-0.20742099 0.14433143 0.007359045 0.007523673 -0.15259622 -0.13853635 -0.029292082 -0.19046636
0.05154299 -0.046328172 -0.27666304 -0.28296855 0.3871152 0.048513856 -0.004056685 -0.07247921
-0.22246018 0.08765539 0.046237312 0.11773792 -0.035139594 0.03111436 -0.000581501 -0.10508956
0.07748181 -0.21919613 -0.22631904 -0.059200406 -0.08032396 0.0693604 0.04362537 0.07165974
-0.087499306 -0.057970416 -0.06872577 0.13033965 -0.08400597 -0.11357774 -0.17964889 -0.006492391
0.11316904 -0.05499108 -0.19261038 0.0075785527 0.111189686 -0.108230904 -0.07145228 -0.06453136
00000000: 39f9 853e 813a 34be ee75 b9bd 05d5 153d
00000010: 7628 ca3d 5be5 6cbd c0bc e8bd d931 353c
00000020: fcf8 9cbe 7fe5 8dbd 38a8 b53d 13e7 273e
00000030: c1b4 4438 c20e 18be d573 213e 868a febd
00000040: f7fc bcbd 9f9e c3bd 7584 c5bd d715 fa3c
00000050: b291 8bbd 8570 d93c cf79 ecbc f1a7 a6bc
00000060: 48e4 8b3e c6bb 9a3e eb92 24be dcfb b63d
00000070: 255d 06be a9c0 e3bd bb2e 7fbd a87f 08bc
00000080: c866 9b3e a86d 8fbd 80b4 c53b 0935 77be
00000090: ed1b 5cbd 8457 093e db82 b73e 041e a0bc
000000a0: 410d 01be e5e8 3dbd 59af 15bd af6b 8f3d
000000b0: 1008 5bbe 8e99 c6bd 1fd9 d8bd 0613 5b3a
000000c0: b318 cbbd 1e62 9fbd f29a a3bd f01d c6bd
000000d0: 2091 2d3e 1df7 493e 0aac cb3c ca30 0a3e
000000e0: b441 f93d 6fc7 9e3e ccd1 053e 67e1 07be
000000f0: e1e8 883d 858b 403e c4b3 023e 74b9 8f3c
00000100: 107f 4bbd 3ef7 303d 6d4f 103e f6ff 3e3e
00000110: f33a a13d be98 b9bd 158b 9bbe 67cf 143e
00000120: 97b5 8e3e e76e 133e d74e 633c 8509 2cbd
00000130: baa3 6cbd 76a3 8e3d 8641 8cbd 3710 c83d
00000140: 3b6f bc3e ee5d 7c3d ea5f f3bd 3543 0a3e
00000150: 1432 af3b 837c 023e e7a8 11be 8afc 743d
00000160: 2037 57bd 02e0 0b3b a72a f6bd d123 f43d
00000170: d1e5 5dbe 871e 63be 73a4 a7bd d572 943e
00000180: a743 363c 30c5 ccbd 0d22 74be a58d cbbd
00000190: cfaf 87bd d4ac 14be 0027 6fbd 737b 363c
000001a0: 16db 30be 884a 703e 0086 063d 419a 153e
000001b0: 5a3d afbd 5055 49be 9e64 b2bb 4ffb 0cbd
000001c0: 86d3 22be 2e11 c3bd 3ad3 fe3c db84 c63d
000001d0: cb02 d3bd c868 d8bd 7b1d a33d c2fb c6bd
000001e0: 2f8d 153e 3e61 edbd 080c 3a3e e394 613e
000001f0: 72d0 ee3d 19cb c8bc c0bf 08be d9a7 fc3c
00000200: 6f34 863e 731e 9e3c 5d33 e23d 74cc 01bc
00000210: 7901 c7bd 3e22 1cbc 7ccc cf3d 3d68 023e
00000220: 5471 d7bd 418f 7bbc 0bf2 61be 2477 e0bc
00000230: 1954 013e 39c9 c3bd a9f7 623c d613 b33d
00000240: 0608 eebd c2ff b33d 0c17 88bd 4a9f 1ebe
00000250: 3dd7 90be fdbf 713e 4728 c8be e439 ca3d
00000260: 45cd bb3d c1b8 91bc dd0c 42be b5d9 8a3d
00000270: d77c a0be 1057 573d 741a bcbe ee54 6a3e
00000280: 054d e4bd 0a17 10bd b44e b03c 0805 2fbd
00000290: 4f70 51bd 45e8 b2bd beec 903d b678 d4bd
000002a0: 4e15 e8be c2b1 c73d 2644 5ebe f9c0 6f3e
000002b0: fd0f 7a3c c6f5 efbd 4ff0 2d3d e4d1 833c
000002c0: e612 263e 330f c43b 3125 9bbe 098a 50be
000002d0: c4e6 8e3d caee 38be 6abf 1e3e 9d1b 6bbe
000002e0: 2641 813d 04f2 01bd 28d8 183d 1119 bf3d
000002f0: a039 ca3c 9f28 ac3d c6f7 1e3e 3f3a 74be
00000300: d9ef 26be 832f b23d b5d1 adbd 2ce6 7abe
00000310: 7b30 f33c 5853 553c f009 1f3e 5089 c43b
00000320: d07b 10be da90 1c3d e0a0 4d3d cf3b ea3d
00000330: 8884 90bd 75c9 e53d 42fc 20bd b15b 99bc
00000340: 2b66 54be 9ecb 133e 2524 f13b 2589 f63b
00000350: 2f42 1cbe 79dc 0dbe f3f5 efbc 9d09 43be
00000360: be1e 533d 9cc2 3dbd c7a6 8dbe 41e1 90be
00000370: f733 c63e 77b6 463d f1ed 84bb fb6f 94bd
00000380: 9acc 63be ab84 b33d 5663 3d3d 9420 f13d
00000390: 89ee 0fbd 8be3 fe3c df6f 18ba 3239 d7bd
000003a0: c8ae 9e3d f374 60be 2ec0 67be 207c 72bd
000003b0: e380 a4bd d30c 8e3d 84b0 323d 57c2 923d
000003c0: d632 b3bd 6372 6dbd 19c0 8cbd c277 053e
000003d0: 520b acbd 729b e8bd e1f5 37be 20be d4bb
000003e0: 2bc5 e73d 543e 61bd a83b 45be 8255 f83b
000003f0: 6bb7 e33d 2aa8 ddbd 9355 92bd 0529 84bd

0.bias f4 [128]
0.089723945 -0.15054548 -0.20995013 -0.005011744 0.09040819 0.06380516 -0.0866298 -0.14140812
-0.40100887 -0.2976796 -0.11807491 0.13100299 -0.20913808 -0.029815318 -0.27045622 0.06611625
-0.26801053 -0.07657125 0.070450686 0.14723733 -0.14040622 0.05405695 0.23819402 -0.1140048
-0.08436986 -0.012926362 0.033228844 0.059038937 0.08590905 -0.18941735 -0.13585809 0.017228892
-0.12296357 0.07781989 0.0559234 -0.11526126 0.17902711 0.1941143 0.1203155 0.07533365
-0.06954325 -0.1599897 0.04246957 0.0648168 0.41477174 0.11306441 -0.102018125 -0.047560923
0.16611321 0.0038642816 0.106145315 0.19611642 0.15644532 -0.14690024 -0.17641115 0.045120724
0.09657155 0.07493654 0.0060792384 -0.098181345 -0.069604814 0.0698016 0.15780537 0.094353035
-0.019679002 -0.06372719 0.24090917 -0.16229175 0.12289917 -0.18921512 0.22117257 -0.37414223
0.06439189 0.045362044 -0.34721592 0.099089734 -0.031262398 -0.022104267 -0.08337157 -0.21954313
-0.060303766 -0.18670347 0.17320229 0.026347896 -0.06097088 0.2211155 -0.05283007 -0.26009035
0.09895124 -0.23928095 -0.14885227 -0.016571835 -0.06538587 -0.17184032 -0.17120147 0.22484383
0.0438677 -0.094884835 -0.31565174 -0.015793892 -0.08984002 0.026969321 -0.28349757 -0.021912297
-0.18440491 0.06297468 -0.30132926 -0.11304705 -0.2931651 0.19259146 -0.11519189 -0.10096246
-0.33342418 0.06801555 -0.028080156 -0.36955354 0.23262554 -0.16806667 -0.43135002 0.045384727
0.0727427 0.004850995 -0.15805283 -0.009967533 0.26213175 0.10200506 -0.10394963 -0.050210122
00000000: 30c1 b73d 9828 1abe 2bfd 56be 8e39 a4bb
00000010: ee27 b93d 48ac 823d f76a b1bd 4acd 10be
00000020: 0951 cdbe 7669 98be 42d1 f1bd a625 063e
00000030: 4b28 56be 413f f4bc 3d79 8abe f567 873d
00000040: ad38 89be 63d1 9cbd 7348 903d 62c5 163e
00000050: a6c6 0fbe d26a 5d3d 22e9 733e 597b e9bd
00000060: 1bca acbd 18c9 53bc f81a 083d d0d2 713d
00000070: 16f1 af3d 9ff6 41be 621e 0bbe 9b23 8d3c
00000080: 53d4 fbbd 0960 9f3d ef0f 653d 180e ecbd
00000090: e252 373e e6c5 463e f967 f63d 8748 9a3d
000000a0: b16c 8ebd 57d4 23be 92f4 2d3d acbe 843d
000000b0: f65c d43e 508e e73d e1ee d0bd 3ecf 42bd
000000c0: 9519 2a3e e33f 7d3b b762 d93d bed2 483e
000000d0: 3433 203e 046d 16be 20a5 34be 82d0 383d
000000e0: 4ec7 c53d 5478 993d 5934 c73b 4d13 c9bd
000000f0: f88c 8ebd 24f4 8e3d bb97 213e 2a3c c13d
00000100: dc35 a1bc 6783 82bd e5b0 763e cf2f 26be
00000110: 8fb2 fb3d 9cc1 41be 107b 623e 928f bfbe
00000120: e5df 833d 8dcd 393d 49c6 b1be 8fef ca3d
00000130: 000d 00bd 0214 b5bc b7be aabd eacf 60be
00000140: 1501 77bd 322f 3fbe f15b 313e 8bd7 d73c
00000150: 9abc 79bd 1a6c 623e 5864 58bd 902a 85be
00000160: f3a6 ca3d 1106 75be bb6c 18be a8c1 87bc
00000170: 07e9 85bd e9f6 2fbe 704f 2fbe 763d 663e
00000180: 9eae 333d fb52 c2bd 1b9d a1be 3162 81bc
00000190: 0bfe b7bd c4ee dc3c 9826 91be 6b81 b3bc
000001a0: a4d4 3cbe def8 803d d447 9abe 3685 e7bd
000001b0: bc19 96be b236 453e bae9 ebbd 68c5 cebd
000001c0: 93b6 aabe bd4b 8b3d 5b08 e6bc 1f36 bdbe
000001d0: 6435 6e3e ab19 2cbe e9d9 dcbe 56e5 393d
000001e0: 20fa 943d 18f5 9e3b 9ad8 21be dd4e 23bc
000001f0: 2236 863e 07e8 d03d 8be3 d4bd 21a9 4dbd

3.weight f4 [64, 128]
-0.03506021 0.0048950193 -0.13899334 0.03247286 0.18506414 0.077163756 -0.12546575 -0.23448484
-0.07335015 0.0832332 -0.1800849 0.15040734 0.25493538 -0.1003296 0.09624751 -0.24258856
0.10997246 -0.16291787 0.034182277 -0.13967913 0.11510374 -0.043512493 -0.0457678 0.17777799
0.017768562 -0.21895327 -0.16478124 -0.16001225 -0.06723274 -0.06824796 -0.22705024 0.25513545
-0.111253105 -0.094199516 -0.056668162 0.053195655 0.16237734 -0.042709716 -0.07606629 0.18347238
0.40951538 -0.15606064 0.058545187 0.035818398 0.15081145 -0.24341533 -0.093307115 0.06285335
0.09728347 0.26648355 0.04352981 0.37883294 -0.017521879 -0.23129973 0.013837758 0.117697485
0.069258735 0.13093255 -0.26188862 -0.17825902 0.16641982 0.14268854 -0.23320332 -0.09217575
0.17173138 -0.04314338 0.15844874 0.15340678 -0.11142229 0.12661214 0.03679284 -0.14717105
-0.09507665 0.15900251 -0.16289783 -0.01937286 0.014394597 -0.16446064 -0.07342995 -0.045219023
-0.11911447 -0.20159297 0.33803028 0.030634956 -0.11402412 0.12343546 0.079481564 0.05408189
-0.056625452 0.17875512 -0.120017655 0.03184403 -0.0010551875 -0.12931152 0.15289734 -0.30489007
-0.047675446 -0.060155377 -0.27060825 -0.22513244 0.013072211 -0.06889836 -0.26001185 0.04010092
0.0034170907 -0.22926137 -0.13390286 -0.22945441 -0.19845146 0.13236587 0.14493343 0.11390334
-0.28028506 0.09067908 0.17434537 -0.12063836 0.24813388 -0.08376052 -0.14476329 -0.02453983
-0.10503821 0.2901259 -0.06842392 -0.057747588 0.24436188 0.023701843 0.0779742 -0.086373046
-0.18068454 -0.05175026 0.2284374 -0.002449012 -0.21917154 0.18920861 0.09821075 0.20526603
0.20321737 0.13237557 0.256119 -0.2793993 -0.00036200337 -0.024071265 0.15136422 0.09400578
0.16342466 0.062211834 -0.041926123 0.13370042 0.12330909 -0.037640236 -0.028448522 0.0042483266
0.098105706 0.1668953 0.1349365 0.055862725 0.14977407 -0.0073907315 0.34373462 -0.34617776
0.06588607 -0.060868274 0.045995787 0.13050885 -0.04617444 -0.024150481 0.010471845 -0.21486354
-0.08089991 0.011560603 -0.164318 0.09844421 -0.15830575 0.13340613 0.15560824 0.013783475
-0.13759099 -0.095115535 -0.038972374 0.012621397 0.060923565 0.17317642 0.083644584 -0.07751917
0.10709649 -0.048896227 0.2315771 0.076748095 -0.11282433 -0.08092447 0.22638026 -0.03960458
-0.09661769 -0.20596942 0.07809509 -0.08388494 0.062304977 -0.09414205 -0.10028876 0.021959346
0.092407554 -0.18864615 0.261596 0.17983131 -0.0197498 0.07354638 -0.012508224 0.0071824607
0.03758082 0.15346128 -0.20622432 -0.23933694 0.016574439 -0.15406024 -0.062765524 -0.01701101
0.13638732 -0.13038023 0.09716429 0.023256104 -0.25042254 0.15898903 -0.19435889 0.31193775
0.031894352 0.0950776 0.12009318 0.028196434 -0.11712744 -0.006981745 0.14115556 0.11983687
0.0013002662 0.26405674 0.08321936 0.028143533 0.049290016 -0.2997131 0.1751154 -0.012902903
0.4204882 0.04930966 -0.20570302 0.03778278 -0.19477604 0.0826141 0.0043842006 -0.060890935
-0.050868053 0.0022567986 0.2132781 0.04738045 -0.16216607 0.05884398 0.16401514 0.07917498
00000000: 4b9b 0fbd 6666 a03b 4554 0ebe 4302 053d
00000010: 7481 3d3e 0808 9e3d 187a 00be cb1c 70be
00000020: 9a38 96bd 2b76 aa3d 2d68 38be 6204 1a3e
00000030: e486 823e 9b79 cdbd 6a1d c53d 2369 78be
00000040: 3e39 e13d f1d3 26be b702 0c3d 0c08 0fbe
00000050: 82bb eb3d 283a 32bd 0477 3bbd 6f0b 363e
00000060: 608f 913c 4935 60be 6abc 28be 40da 23be
00000070: 52b1 89bd 96c5 8bbd dc7f 68be 1da1 823e
00000080: abd8 e3bd adeb c0bd e01c 68bd b0e3 593d
00000090: 3f46 263e 62f0 2ebd a5c8 9bbd 2fe0 3b3e
000000a0: 00ac d13e 5cce 1fbe 14cd 6f3d 50b6 123d
000000b0: 516e 1a3e de41 79be cd17 bfbd 42b9 803d
000000c0: 8e3c c73d 8870 883e 504c 323d 64f6 c13e
000000d0: 0b8a 8fbc d6d9 6cbe c4b7 623c 610b f13d
000000e0: 86d7 8d3d 2f13 063e 4416 86be 8889 36be
000000f0: f569 2a3e f21c 123e dacc 6ebe a4c6 bcbd
00000100: 5ada 2f3e 1db7 30bd 6340 223e ab16 1d3e
00000110: 5f31 e4bd 9da6 013e 17b4 163d 02b4 16be
00000120: 8cb7 c2bd 8ed1 223e b0ce 26be d5b3 9ebc
00000130: 51d7 6b3c 5f68 28be 7162 96bd 9537 39bd
00000140: 4af2 f3bd 636e 4ebe 4e12 ad3e 29f6 fa3c
00000150: 7a85 e9bd bbcb fc3d 3bc7 a23d f984 5d3d
00000160: 17f0 67bd 950b 373e d1cb f5bd e36e 023d
00000170: 384e 8aba 3d6a 04be 1f91 1c3e 8d1a 9cbe
00000180: 5447 43bd 7c65 76bd 2a8d 8abe 1e89 66be
00000190: d42c 563c 951a 8dbd 4620 85be dd40 243d
000001a0: 45f1 5f3b 7ec3 6abe d51d 09be 19f6 6abe
000001b0: dc36 4bbe eb8a 073e 6e69 143e 2846 e93d
000001c0: 8681 8fbe f4b5 b93d 9887 323e 3f11 f7bd
000001d0: cf16 7e3e a38a abbd d43c 14be c107 c9bc
000001e0: 461e d7bd 628b 943e d721 8cbd bc88 6cbd
000001f0: 003a 7a3e 5e2a c23c f0b0 9f3d 5ae4 b0bd
00000200: 5e05 39be 15f8 53bd 7eeb 693e 9a7f 20bb
00000210: 816e 60be e7bf 413e b822 c93d 4231 523e
00000220: 3718 503e 768d 073e 0822 833e 6d0d 8fbe
00000230: 45cb bdb9 1a31 c5bc 39ff 1a3e 1a86 c03d
00000240: cb58 273e d6d1 7e3d baba 2bbd c3e8 083e
00000250: 7a89 fc3d a62c 1abd e00c e9bc 8c35 8b3b
00000260: a5eb c83d 9ae6 2a3e cb2c 0a3e 50d0 643d
00000270: 605e 193e f32d f2bb fcfd af3e 363e b1be
00000280: 47ef 863d 0351 79bd 1466 3c3d 1da4 053e
00000290: 6921 3dbd 3bd7 c5bc 1a92 2b3c 3005 5cbe
000002a0: daae a5bd af68 3d3c fa42 28be 1e9d c93d
000002b0: e71a 22be 9e9b 083e c457 1f3e 16d4 613c
000002c0: a7e4 0cbe efcb c2bd 7fa1 1fbd fac9 4e3c
000002d0: fd8a 793d 2955 313e da4d ab3d 5fc2 9ebd
000002e0: 6855 db3d 6947 48bd 8c22 6d3e 1b2e 9d3d
000002f0: 7110 e7bd bbbb a5bd 3ad0 673e 6938 22bd
00000300: 7fdf c5bd a6e9 52be 52f0 9f3d decb abbd
00000310: 8133 7f3d 8ccd c0bd 3264 cdbd 16e4 b33c
00000320: 2c40 bd3d 752c 41be e9ef 853e b325 383e
00000330: 55ca a1bc 7c9f 963d 4bef 4cbc d95a eb3b
00000340: 59ee 193d f424 1d3e 782c 53be be14 75be
00000350: 1ec7 873c f8c1 1dbe 368b 80bd ac5a 8bbc
00000360: 1ea9 0b3e 6582 05be 12fe c63d 9683 be3c
00000370: 6237 80be 05ce 223e 0406 47be 4eb6 9f3e
00000380: a7a3 023d 0bb8 c23d 6af3 f53d 35fc e63c
00000390: 83e0 efbd 1fc7 e4bb 158b 103e 086d f53d
000003a0: b26d aa3a 7232 873e e96e aa3d 448d e63c
000003b0: 54e4 493d ff73 99be 7451 333e b366 53bc
000003c0: 3b4a d73e edf8 493d d0a3 52be 1ec2 1a3d
000003d0: 5f73 47be 9531 a93d 57a9 8f3b c668 79bd
000003e0: 055b 50bd cce6 133b 9365 5a3e 0112 423d
000003f0: dd0e 26be 6306 713d 96f3 273e 7e26 a23d

3.bias f4 [64]
-0.20268875 0.12678187 0.048446555 -0.04129924 0.023748696 0.01742411 -0.059883304 0.0025658521
0.0062695295 0.046202347 -0.00092841766 0.06106976 -0.13691317 0.08259647 -0.06819824 -0.08109095
-0.06958344 -0.107096694 -0.058681525 -0.1415539 -0.08984261 0.015647663 0.05777338 0.0430941
0.0118657015 0.052966237 0.021460326 -0.014636806 -0.069924876 -0.086397745 -0.22522926 -0.05175691
-0.27721682 -0.01919519 0.10736823 -0.15335475 0.15340215 0.08602833 -0.14315684 -0.10389081
-0.14360759 0.06370527 -0.02896186 -0.08364356 -0.13503245 0.070639014 -0.22221218 -0.097136185
0.023998844 -0.0155182015 -0.052048262 -0.028841706 -0.19937392 0.028565899 0.03135522 0.07914636
-0.05164341 0.020371296 -0.08815007 -0.0310701 -0.048571255 -0.11532439 -0.062163748 0.10624383
00000000: a48d 4fbe 1bd3 013e e56f 463d 6429 29bd
00000010: a08c c23c 02bd 8e3c 3248 75bd db27 283b
00000020: a070 cd3b ac3e 3d3d 0e61 73ba 4924 7a3d
00000030: f732 0cbe 5728 a93d 85ab 8bbd 0313 a6bd
00000040: c381 8ebd 8355 dbbd 0a5c 70bd 81f3 10be
00000050: 67ff b7bd 872f 803c c8a3 6c3d 7083 303d
00000060: 5c68 423c 20f3 583d 91cd af3c 37cf 6fbc
00000070: c634 8fbd 4df1 b0bd 80a2 66be 0eff 53bd
00000080: 5def 8dbe 3b3f 9dbc e0e3 db3d 0709 1dbe
00000090: 7415 1d3e 9f2f b03d b597 12be b4c4 d4bd
000000a0: de0d 13be e977 823d 6c41 edbc 514d abbd
000000b0: f245 0abe 30ab 903d 978b 63be 56ef c6bd
000000c0: 3999 c43c 0e40 7ebc 8f30 55bd 7145 ecbc
000000d0: ad28 4cbe 0803 ea3c 556e 003d 7d17 a23d
000000e0: 0a88 53bd b4e1 a63c 0688 b4bd b986 febc
000000f0: a7f2 46bd 322f ecbd 6a9f 7ebd 5d96 d93d

6.weight f4 [1, 64]
-0.02073549 0.039592165 0.18445492 -0.015371044 0.06783137 0.27769095 0.36739838 0.26299855
0.24598795 0.24736406 -0.3158339 0.13245513 -0.20318042 0.07545345 -0.107119136 0.013846421
0.029227115 0.066805266 0.12047782 0.17232868 -0.025373155 -0.023676135 0.15050568 0.20513964
0.22674696 0.3758548 0.11162057 0.082317196 0.3776648 0.2638369 -0.22020826 -0.05617098
-0.12470546 -0.09742506 0.24015372 -0.015473277 0.042940293 0.079389125 0.36297286 0.19357204
-0.20722859 0.054111533 0.2064937 0.14231984 -0.17796516 0.1586567 -0.05548946 -0.24333107
-0.29152754 0.17422968 0.20644204 0.4372199 -0.21527216 0.19764495 0.23033749 0.3413665
-0.12414668 0.22273473 0.12176092 0.23830901 -0.04760632 -0.0076640625 -0.25345492 0.19931847
00000000: 79dd a9bc 652b 223d c0e1 3c3e d5d6 7bbc
00000010: 2ceb 8a3d 822d 8e3e a41b bc3e bfa7 863e
00000020: 44e4 7b3e 014d 7d3e fbb4 a1be 51a2 073e
00000030: 870e 50be 5787 9a3d 4761 dbbd 19dc 623c
00000040: b46d ef3c 33d1 883d 13bd f63d ee76 303e
00000050: 5ddb cfbc 74f4 c1bc 291e 1a3e 2010 523e
00000060: 5b30 683e 0a70 c03e 5399 e43d eb95 a83d
00000070: 485d c13e a115 873e 467e 61be 8b13 66bd
00000080: 9465 ffbd ca86 c7bd dbea 753e a183 7dbc
00000090: 29e2 2f3d c496 a23d 94d7 b93e c037 463e
000000a0: bb33 54be 0ea4 5d3d 1673 533e 4bbc 113e
000000b0: 803c 36be e776 223e ea48 63bd c82b 79be
000000c0: 1943 95be 4469 323e 8b65 533e 49db df3e
000000d0: 4e70 5cbe 7063 4a3e 97dd 6b3e 97c7 ae3e
000000e0: 9d40 febd 9314 643e ca5d f93d 4707 743e
000000f0: d8fe 42bd d122 fbbb d8c4 81be 241a 4c3e
