code/seed2/cGAN_generator.pth (torch, 962894 bytes, 6 tensors)

model.0.weight f4 [320, 79]
00000000: 762c e7bc 4c38 f0bc ac16 f23c 88da 653b
00000010: 3bc4 923c 640e 463c fe5c f0bb 37e0 483d
00000020: dd03 0a3d ece3 74bc 96ff 203c e2eb 10bb
00000030: 873e 373c 438e 883a 45be 463d 47e4 953b
00000040: f997 5fbd ed05 97bc c694 73bc 48d5 383d
00000050: edee 5c3b 3038 943c 4371 b539 6816 94bb
00000060: 0157 173d 0f9f 84bb b770 fdbc ef96 143d
00000070: 31c6 80bc 6937 eabc 41f6 03bd 1851 e5bc
00000080: 02fe 753d 05f3 c6bc 2bb7 b23b 2421 95bc
00000090: cddc 033c 70a9 09bc 54be 60bd e23d 883c
000000a0: cd0b 42bd 981e 7b3d 0c80 083d 7f64 3d3d
000000b0: a717 70bc 1628 8abc 418c 9cbc 8305 d1bc
000000c0: 024f 303c 4753 11bd c976 25bd bcf2 4fbd
000000d0: d626 8f3c 24ca a33b d1aa 0b3d 6a69 31bc
000000e0: 0b88 2d3d 1e41 203d 7a5f 2ebc 32a3 99ba
000000f0: 4193 97bc 49af 05bc a0bb 743d 67d8 333c
00000100: 00b8 42bc c2a4 05bd 7780 78bc 75d7 c93c
00000110: d787 f13b bdbe dc3c c7cb 92bc 36e1 1d3d
00000120: 7159 38bd 8b41 f7bc a2a7 853c ca93 fb3b
00000130: e3c9 043c 80ed 123d 1b03 a3bc 3d5e b6bd
00000140: 4a1a d2bc 4de6 45bd 3a78 66bd 4cb1 89bd
00000150: bdc6 7f3b 6ea2 843a 544f b83c 21f9 143d
00000160: 2c85 0cbd 52d3 03bd ad08 84bb 5128 69bd
00000170: 535f b6bc 3786 cb3c c7ba ff3c 9368 333d
00000180: e001 1d3d 0681 8abd 81b9 4dbc 0b6f 46bd
00000190: 4e64 63bc f8e6 88bc 0f46 63bd e6fa 143d
000001a0: eea1 4b3d cde8 83bc 7fa3 883d 16a2 ba3c
000001b0: 7654 233c 0e1b a1bd 5999 f7ba bb67 493d
000001c0: d3e0 3a3b ba5f a0bc 8a11 23bd d68c 02bc
000001d0: a610 a03b 1acd be3c 4cf9 a3bb 08da 40bd
000001e0: cf21 df3b 7518 973c 62e6 553d 3392 07bd
000001f0: a3d0 683d ba7a 4f3b cdeb 9c3c c530 83bc
00000200: 1a8b 253c 0841 373d 86fb ecbc 0c2a 2c3d
00000210: 560f 89bd ad38 79bb 6168 68bc fa8f 163d
00000220: 7b99 523d 196e 60bc 3ae4 ecbc 3fd7 17bc
00000230: 2c01 5a3d 6d9f f0ba fc59 413d b576 fbbc
00000240: aae6 ad3c e214 42bd f388 8bbc 06c2 f3bb
00000250: 1c10 e93a 9575 82bc e24d 96bd 987a 333d
00000260: 898c c3bc 26da 383c 0f1e d6bc 216a d93b
00000270: cf46 283d f883 3cbd 97fd 91bc d21f 90bc
00000280: 6d69 dcbc 160f 04bd 1970 23bd f63b 053c
00000290: 9a11 853c 6d80 943b f278 603c 829e 1cbd
000002a0: b8d0 ae3c 7fdd 6d3d 1b02 24bd 7fbb e33a
000002b0: 6911 773d 0e3f 403d ae91 e3bc 97e6 693d
000002c0: 0ac0 99bd 5249 cc3c d081 42bc 7986 68b9
000002d0: df41 52bb 1982 f7bc 91f0 603d 5783 2b3c
000002e0: b722 b4bc 8582 8d3d e9aa 0bbd 0bdd 55bc
000002f0: 7e4b 55bd cd1f 18bd b250 723d 0cd2 6ebc
00000300: 1c1a a1bc ce0d 83bc 200b c0bc e5df 993c
00000310: 4766 45bb 3a12 45bd af24 823c 98ea 873c
00000320: b9a0 a23c 4998 de3c 9581 ba3c 0b04 7e3c
00000330: 80bb 5e3d c873 0ebd ab49 0abc eba4 b03c
00000340: ec51 c93c b992 51bd 8359 903c 28f3 09bd
00000350: af34 823a b278 2abb 501a 903d 9c43 3f3d
00000360: dd93 753c 6a1d 4bbd 7716 47bc 32aa 9bbc
00000370: d611 203d b4c7 ad3c 96c1 ff3b 30c8 26bc
00000380: 531d 03bd bdb7 a1bd a0c5 8d3c 71a1 9cbc
00000390: 7238 febc c385 9fbd d0b2 913a 2483 5b3c
000003a0: 70eb 0a3c c80a 82bb 680d 923c 7dcd 9b3c
000003b0: 6642 5dba 56c9 5f3c d058 6cbc 0eb9 843d
000003c0: 3c64 c4bc 7160 50bc dc39 903c 9d90 9dbd
000003d0: 945e ea3c f9b3 30bd 969e a03d d441 04bd
000003e0: 39d5 383d 9cae 79bc 31f6 efbc a8c2 c439
000003f0: 1fb1 06bd 2ecd 243b 5cb6 6dbd 274a a13c
-0.028219443 -0.02932372 0.029551826 0.0035072882 0.017915836 0.012088392 -0.0073353043 0.049041953
0.03369509 -0.014946919 0.009826561 -0.0022113253 0.011184341 0.0010418374 0.0485213 0.004574332
-0.05458829 -0.018435443 -0.014867013 0.045125276 0.0033711747 0.018093199 0.00034607397 -0.0045192726
0.036948208 -0.0040472816 -0.030937536 0.036276754 -0.015719505 -0.028590875 -0.032217268 -0.02799277
0.060056694 -0.024285803 0.005453964 -0.01820428 0.0080482485 -0.008402213 -0.05486901 0.01663107
-0.047374535 0.061308473 0.03332524 0.04623842 -0.014654077 -0.016864818 -0.019109847 -0.025515324
0.010761024 -0.03547981 -0.040396485 -0.0507686 0.017474573 0.0049984623 0.03409845 -0.010828355
0.04236607 0.0391246 -0.010642881 -0.001172161 -0.018502833 -0.008159467 0.059749246 0.010976887
-0.011884689 -0.03262783 -0.015167347 0.02463887 0.0073709297 0.02694642 -0.017919434 0.038544856
-0.045007173 -0.03018262 0.016315285 0.00767753 0.008104774 0.03587103 -0.019898942 -0.08904693
-0.025647301 -0.048315335 -0.056267 -0.0672327 0.003902837 0.0010119209 0.022498764 0.0363704
-0.03430669 -0.032183953 -0.0040293545 -0.056923214 -0.022262251 0.024844272 0.031216992 0.0438009
0.038331866 -0.067628905 -0.012556435 -0.048445743 -0.013878895 -0.016711697 -0.055486735 0.036372088
0.049714975 -0.016102219 0.066718094 0.022782367 0.0099688675 -0.078664884 -0.0018890306 0.04917119
0.0028515353 -0.019576896 -0.03981165 -0.007968148 0.004884797 0.02329116 -0.0050040837 -0.04708293
0.00680945 0.01844428 0.052221663 -0.03309841 0.056839596 0.0031658844 0.019155407 -0.016014466
0.010103965 0.044739753 -0.02892853 0.042032287 -0.06692378 -0.0038028166 -0.014185042 0.0367584
0.0514159 -0.013698124 -0.02891742 -0.009267627 0.053223774 -0.001835806 0.047204956 -0.030696252
0.021228153 -0.047383197 -0.017033076 -0.007438901 0.001778129 -0.015925208 -0.07339074 0.043818086
-0.023870723 0.011282479 -0.02613738 0.006634966 0.041083153 -0.046024293 -0.017821116 -0.017593298
-0.02690574 -0.03224095 -0.039901827 0.008131972 0.016243745 0.004531911 0.013700711 -0.038237102
0.02133976 0.058072563 -0.04004107 0.0017374604 0.060319338 0.046935134 -0.027779426 0.057104673
-0.07507332 0.024937306 -0.01187177 -0.00022175339 -0.003208272 -0.030213403 0.054916922 0.010468326
-0.02198921 0.0690966 -0.03409854 -0.013053189 -0.052073948 -0.037139703 0.05915899 -0.014576446
-0.01966577 -0.015997794 -0.023442805 0.018783519 -0.0030120777 -0.048113085 0.015886633 0.016591355
0.01985203 0.027172225 0.022766868 0.015503894 0.054378033 -0.034778386 -0.008440415 0.021563014
0.024575196 -0.051165316 0.017620808 -0.033679157 0.0009933914 -0.0026011881 0.07036269 0.046695337
0.014988867 -0.0495886 -0.012151352 -0.019002054 0.03907951 0.02121339 0.0078050597 -0.010179564
-0.032010388 -0.078963734 0.017306149 -0.01911995 -0.031032775 -0.07789185 0.0011115912 0.013397966
0.008478984 -0.0039685704 0.017828658 0.019018883 -0.0008440375 0.013658842 -0.014425471 0.06480609
-0.023973577 -0.012718306 0.017605714 -0.076935984 0.028609551 -0.043140385 0.07842748 -0.03228934
0.04512522 -0.015239384 -0.029292198 0.00037529063 -0.03288376 0.002514671 -0.05803524 0.019688679

model.0.bias f4 [320]
00000000: 050d cbbc 9847 6cbd 8646 a73d d68b bebc
00000010: 74a4 98bd 7b6a a03d bd87 b5bd f65c 1ebc
00000020: 5577 273d a1a9 0c3d 552c 7cbd 84bd 9d3d
00000030: 02e5 4abd 5180 03bc e342 7f3d 78fc e5bc
00000040: fbf6 10bd b163 883d 729e ed3d fae1 9a3d
00000050: f808 96bd 3385 f53d 6fdc 6bbc 2142 673d
00000060: 2974 8ebd 47db a53d 3b48 af3c 29be 3e3d
00000070: 7604 a03d db33 89bd 3f0e 8b3d 9b4e 573c
00000080: e44b bcbd 9e6e d43c 5169 373d 74b2 6abc
00000090: bb98 f23b be52 f43d 94e2 5b3d cc13 0c3d
000000a0: 94d3 7e3d f44f be3c bbb8 2cbd bfa3 cfbc
000000b0: 0adb 49bd d61c 9ebd acfe d53c c0a8 c7bd
000000c0: 78ca 243d 3799 24bd ec8c ea3c 3ddd 353d
000000d0: 5818 d83d 0531 8fbd f05e 6c3d 0332 743d
000000e0: 4fbd 9bbd e5ba 51bd 3b6c bb3a 4aab d0bc
000000f0: b999 7a3d 2172 8dbd e163 c23d dc1c c83d
00000100: 0119 a8bb 0924 e13d f134 b03c 9b5d 70bd
00000110: 6043 eb3c 721e ab3d fe85 ab3c 1bac 2bbd
00000120: c041 f33d 5e53 aebd 3b89 b63d e8cc 3fbc
00000130: 77db f3bd 3fec 5fbd ec1e debb 10e7 c23c
00000140: 9cdf c73d 6a4a 563d aae9 94bc 1ef1 b03d
00000150: 7143 313d 327e d53d bacf 15bd b06b 8abd
00000160: 5cc8 29bd 7549 b7bc 39d3 e1bd 862d 56bc
00000170: 0a5d a43d 2da7 93bc 0372 e93d 905c 573d
00000180: 062c a2bd 26e6 9ebb 95f7 69bc 714d 9a3d
00000190: 33c7 643d 3835 a8bd 4486 85bd 00cf 2fbd
000001a0: d75f a13d 8be0 693c 602d c0bd 68f0 a73d
000001b0: 9744 ffbd f9c2 e73d 6cec 8dbc 56a8 a2bd
000001c0: 5391 9dbd 11bd 41bd 4749 3dbd 8c75 1c3d
000001d0: b2e6 603d 9b76 863d 955f d33d ed63 e53d
000001e0: 302f b83d fe14 533d 95ee 28bd 946b 683d
000001f0: 3b41 74bd e078 d53d 80e2 173d aa66 7a3d
00000200: c4ac c83c 19d6 443d 2093 31bd 3eec 22bd
00000210: cfc3 663d 4714 753d d27a 70bd 0edf 60ba
00000220: f7df 003d e85d 183d b0e5 5f3c ed16 d4bd
00000230: ff4f d83d 2de6 e43d 00a8 aebb 0c88 373d
00000240: 7ed4 b73d 0655 04bd a86e 9abc 89b3 373d
00000250: 07a7 963d 2744 f23d 3a9b e13d 0ff6 6fbc
00000260: c6d3 873d 04cb c7bc ea5b aabd 5e3f 8dbd
00000270: e846 c5bd 19ec 803c 0904 7b3d 19af c6bc
00000280: 2db7 653d 5ada 25bd 9e2e 7d3d 3cc3 d23c
00000290: 6280 18bd 36e2 b3bd c634 5abd f34a f1bc
000002a0: 272d 453d 18b4 263d f544 e5bc 8a06 823d
000002b0: bae5 303d e6a2 a7bd 2851 9fbd 782b 6e3d
000002c0: 6007 8c3d 1b2f 1ebd 8b7b 5e3d e0f1 053d
000002d0: 631e bc3c 1b0f 3e3d 37e0 ddbc 613d b13d
000002e0: 0c3f 5fbd c28e 0b3d 1a2c ad3d 3300 86bd
000002f0: 7322 573b c343 013e 896f fd3d 14ad f23d
00000300: cf64 993d 0d5e e83d 779c 983d 2d65 883d
00000310: 8186 91bd ae16 eebc 6c53 a23a 86e6 83bd
00000320: 2742 bb3d 1cbe 93bd 683f 4dbd cbee 6d3d
00000330: c87f b5bd ed8e 923c 70f3 f83d eef8 b2bd
00000340: 746c 933d 3737 92bd d4eb 96bd 9876 d8bc
00000350: aaf8 95bd e38e 0b3d fa5f cf3d 0749 713d
00000360: cce5 c73d ab55 263d 62f4 063d c1a2 f8ba
00000370: 47d8 1dbd fa83 373d 3552 e2bd 73de 263d
00000380: 60ba 94bd 8570 843d 111d 6abd 175d 983d
00000390: 0de8 3c3c 1edb 843c 2d36 0abd 646a 56bd
000003a0: dc53 fd3d 063f dd3b 3247 b13d 50a1 fd3d
000003b0: 812a ccbd 5770 f93c 8c7d 15bd 3239 9bbd
000003c0: bf96 edbc 0f31 90bd 8c93 b73d 4e73 34bb
000003d0: 84a5 1dbd e664 9abd 8ff6 4a3d 624c 12bd
000003e0: a380 203b d9b1 efbc a076 d3bd 0385 8539
000003f0: fc35 813d 89a5 8bbd 30b0 7fbc 76c4 c13d
-0.024786482 -0.057685465 0.08167748 -0.023260038 -0.07453242 0.078328095 -0.08863781 -0.009665718
0.04088529 0.03434146 -0.061565716 0.07702163 -0.049534805 -0.0080261985 0.062319648 -0.028074488
-0.03539179 0.066596396 0.11602487 0.07562633 -0.073259294 0.11988296 -0.014395817 0.05645955
-0.069557495 0.080984645 0.021396747 0.04656807 0.07813351 -0.06699344 0.067898266 0.0131413
-0.091941625 0.025931653 0.044778172 -0.014324773 0.007403461 0.11929844 0.05368288 0.034198567
0.062213495 0.023231484 -0.04216836 -0.025346635 -0.049281158 -0.07720344 0.026122414 -0.097489834
0.04023215 -0.04018518 0.02863165 0.044400442 0.10551518 -0.069917716 0.057707727 0.059618007
-0.07604467 -0.051203627 0.0014299223 -0.025472302 0.061181758 -0.06906534 0.09491707 0.097711295
-0.005129934 0.10993201 0.02150962 -0.05868302 0.02871865 0.08355416 0.020937916 -0.04191218
0.11877775 -0.08511995 0.089128934 -0.011706568 -0.11907094 -0.05466866 -0.0067785885 0.02379182
0.09759447 0.05231706 -0.018177826 0.086397395 0.043277208 0.104244605 -0.036575057 -0.06758821
-0.041450843 -0.022373894 -0.11026616 -0.013072377 0.08025558 -0.018024052 0.11398699 0.05257851
-0.07918553 -0.004849213 -0.01428022 0.07534302 0.055854034 -0.08213276 -0.0651975 -0.04292202
0.07879608 0.014274727 -0.093836546 0.08200151 -0.12464254 0.11316485 -0.017324649 -0.07942264
-0.07693734 -0.04729945 -0.04621246 0.03819804 0.05490751 0.06565591 0.10320965 0.112007
0.08993375 0.05153369 -0.041243155 0.05674322 -0.05963252 0.10423446 0.03708124 0.061133064
0.024496444 0.048055742 -0.0433532 -0.03977608 0.05633908 0.05983379 -0.05871088 -0.00085781596
0.03146359 0.03719893 0.013665602 -0.10355935 0.10562133 0.11176715 -0.0053300858 0.04480748
0.089760765 -0.032307647 -0.018851593 0.044848952 0.07356077 0.11829405 0.11015935 -0.014646067
0.066321895 -0.024388798 -0.083183125 -0.06896852 -0.09632665 0.01573758 0.061283145 -0.024253415
0.056082893 -0.04049144 0.061812036 0.02572786 -0.03723181 -0.08783381 -0.053272985 -0.029454684
0.048138764 0.040699095 -0.027986983 0.063489035 0.043187834 -0.08185367 -0.07779151 0.058146924
0.06837344 -0.038619142 0.05431704 0.032701373 0.022963708 0.046401124 -0.027084453 0.08654285
-0.054503486 0.03407169 0.08455677 -0.06543007 0.003282693 0.12623505 0.12374789 0.11849418
0.07489931 0.11346064 0.07451718 0.06659923 -0.07105733 -0.029063549 0.0012384481 -0.06440453
0.09143477 -0.07213995 -0.050109297 0.05808906 -0.08862263 0.017890418 0.12155807 -0.08738886
0.0719842 -0.07139438 -0.073691994 -0.026423737 -0.073228195 0.034071814 0.10125728 0.058907535
0.09760627 0.040609043 0.032947905 -0.0018969403 -0.038536336 0.044803597 -0.11050836 0.040739488
-0.07262111 0.06466774 -0.057156626 0.074396305 0.011529935 0.016217764 -0.033743072 -0.052347556
0.123695105 0.0067518977 0.086561576 0.123842835 -0.099690445 0.030449076 -0.036496684 -0.075792685
-0.029002545 -0.07040607 0.08963689 -0.0027534547 -0.038487926 -0.07538776 0.049551543 -0.035717376
0.0024490736 -0.029259609 -0.1032536 0.00025466838 0.06309125 -0.06818683 -0.015605971 0.094613

model.3.weight f4 [640, 320]
00000000: 8955 56bc 94ef 6b39 597e d93c e47f 503c
00000010: 9eb5 07bd 32ec 313c a6c9 2ebd dc11 f83b
00000020: ef19 e5bb f367 a1bc aeef cb3b 59f0 19bd
00000030: fa16 09bc 40d9 163c 20d4 6ebd c66b 63bd
00000040: 0cfc f3bb 769a a23c b8e3 1cbd 71e2 c23b
00000050: 33ad a0b8 8ce4 febc 41e9 26bc 8262 503c
00000060: 8d73 263c 1f57 2b3b 2997 b23c 05f0 363c
00000070: 2fe6 8a3c 343e c03b 63f8 453d 0865 11bc
00000080: 4582 c3bc 9dc4 213c bcfa eebb 6b42 3dba
00000090: 4e9b 9cbc af3e 20bd 2782 1dbd c6ab 5ebc
000000a0: b407 d6ba 7fc3 03bd 85fe c5bb 1111 733c
000000b0: 597e 973c 182c e83c f8a8 ecbc 4d17 babc
000000c0: cc9f 793c b990 15bb 99f1 c9bc 4d85 913b
000000d0: a63a ff3b e511 9739 0f72 a5bb 8dd6 f03b
000000e0: 1ff9 04bd 44f1 41bc 3700 383c 1160 18bb
000000f0: b4b4 02bd b203 273d 2480 d0bc 88d4 163b
00000100: 3696 a7bb 3549 b8bc 5821 e43b d0b0 79bd
00000110: 6f59 bbbc 93ee 153c fd8c 18bd 1dc8 08bd
00000120: f176 a6bc 1e01 d6bb b60d d33c 8d91 3dbd
00000130: d984 ab3c 3ffd 10bc 9f9e b53c caf3 98bc
00000140: 3830 803c 6b01 87bc 84fc 63bc bbcb edbc
00000150: 816e 81bc e7c5 32bc 6ab7 363d 1d74 b0bb
00000160: 1919 af3a 4ab8 c1bb b118 f3b9 f79b 37bc
00000170: a5f9 98bc 486e 11bc cd58 2cbd fd25 0f3d
00000180: 3c7f 083c 3417 093c ffee 66bc 30b4 1ebc
00000190: 6c9a 0c3d a087 8dbc dc64 00bc 2eac 033d
000001a0: 69f8 8a3c cce9 49bc 8d88 b63c bf9e a8bb
000001b0: e302 52bc aa21 933c a275 d4bc 39e1 37bd
000001c0: ee7a b5bc a1ca 1c3c 0cdc abbc a6e0 26bb
000001d0: ccff 71bc 9055 8b3b 4ae7 eebb 0988 e9bc
000001e0: 055e e6bc 0dee 97bb ed6e 2e3c 5fa3 9fbc
000001f0: 9cab c2ba 5f2e 533c a766 b93c 5414 3f3b
00000200: c126 bab9 b075 343c ffa3 56bc 3d33 333d
00000210: aa69 c3bc 9393 92bc a6e0 c2b9 c2db 963c
00000220: 65d1 11bd e474 c53b 0074 30bc 2c38 e5bc
00000230: d66e f13c b3de a4bc ef4c 7fbc f7b4 a63a
00000240: 0f45 a0bc 89e2 093c 6721 183c 070d e83c
00000250: 72a3 a7ba 5297 153d 5efb 00ba 2904 aabc
00000260: 20c8 933c 1ed0 7b3a 638a dbbb 5a76 06bc
00000270: e4ac 8f3c 6ee5 e0bb 205f efb9 cce1 56bd
00000280: e380 553c 3dda c73c 6308 eebb 8d91 413c
00000290: 9647 01bd 70ca ebbc d13e 8abb c54d 4fbb
000002a0: bde9 33bc c484 413c 8155 58bc 1a72 823c
000002b0: e77b 45bc bc70 453c cd80 a53c 3566 b8b9
000002c0: 43e2 8a3c e1a9 703c 8914 fabc 91da e93c
000002d0: d699 82bc 25e4 c43c f68e 703c ed3b 913c
000002e0: 6711 86bc 625a 003d dfaa 0cbc 27a5 25bd
000002f0: c743 093d 290b 44bc e09d 87bc da09 3ebc
00000300: 4950 a43b 543a 94b9 debe 8fbc 6a55 5bbc
00000310: 7258 4fbc b9da 97bb a5f2 16bd 3d40 9dbc
00000320: 21de 1e3b cde0 25bd 92d0 abbc 56da a7bc
00000330: 85e8 ae3a dfd0 08bd 857d 933c 636b e1ba
00000340: 41ca c5bb fb32 06bc f400 26bc 9fa2 b23c
00000350: 2490 78bc 7946 e73b 06e2 ce3c d8aa 57bb
00000360: 3f09 13bc 3333 e1bc e6f7 283c 99ac b33c
00000370: e326 083c 8085 7abc 79ff a43c a3e2 0dbc
00000380: 126e 92bb e1b5 e6bc 2e3d 6e3c bf48 ccbc
00000390: 201f 543c 95fe 453c c3bf 99bc b662 ec3b
000003a0: ad47 103c 7e94 5abc 004f 7abc e658 c7bb
000003b0: 35ff 18bc c0c5 ee3b e261 153c 637e 2cbc
000003c0: 9bd0 05bb 790a bfbc ba69 8d3b 75e2 08bc
000003d0: 9940 a93b f8ad aa3c 89e6 cb3a 576d 0ebc
000003e0: 32b1 353c 9ebe 293c 05f8 38bc 984d ca3b
000003f0: f7f9 9abc a7f2 10bd b1b2 6d3c 7a63 55bc
-0.013081917 0.00022500596 0.026549505 0.012725804 -0.033132188 0.010859536 -0.042672776 0.0075704884
-0.006991617 -0.019702887 0.0062236404 -0.03758273 -0.008367294 0.00920707 -0.058307767 -0.055522703
-0.007445818 0.019849043 -0.038303107 0.005947404 -7.6616554e-05 -0.031114839 -0.010187448 0.012718799
0.010159385 0.0026144458 0.021800594 0.011165624 0.016955463 0.00586679 0.048332583 -0.008874185
-0.023865828 0.009873536 -0.0072930735 -0.0007219675 -0.019117024 -0.03912228 -0.0384542 -0.013590759
-0.00163292 -0.03216886 -0.006042304 0.014835612 0.018492864 0.028341338 -0.028889164 -0.022716189
0.015235852 -0.0022821857 -0.024651336 0.0044409395 0.007788974 0.00028814297 -0.0050489972 0.007349795
-0.032464143 -0.011837307 0.01123052 -0.002325062 -0.031910613 0.04077501 -0.025451727 0.0023014862
-0.005114342 -0.022495845 0.0069619827 -0.060959637 -0.022869794 0.009151119 -0.037243832 -0.033393968
-0.020320388 -0.006530895 0.025763374 -0.046281386 0.02093737 -0.008849441 0.022170363 -0.018670935
0.015647992 -0.016480168 -0.013915185 -0.02902781 -0.015799763 -0.010911441 0.04460851 -0.0053849355
0.001335892 -0.0059118615 -0.00046366968 -0.0112066185 -0.018673727 -0.008876391 -0.042076875 0.034948338
0.008331116 0.008367348 -0.014095067 -0.009686515 0.034326956 -0.017276585 -0.007836547 0.032146625
0.016964154 -0.012323808 0.02228191 -0.005145877 -0.012818071 0.017960388 -0.025934998 -0.044892523
-0.022153344 0.009569795 -0.02097895 -0.002546349 -0.014770459 0.004252143 -0.0072907554 -0.02850725
-0.028121004 -0.004636532 0.010646564 -0.019487081 -0.0014852169 0.012889474 0.022631956 0.0029156404
-0.00035505558 0.011014387 -0.013100623 0.043750037 -0.023854095 -0.017892634 -0.0003716994 0.018415336
-0.035600085 0.0060258973 -0.010769844 -0.027980886 0.029471796 -0.020125723 -0.015582307 0.0012718727
-0.01956418 0.008415827 0.0092853075 0.028326524 -0.0012789799 0.036521263 -0.0004920269 -0.020753937
0.018039763 0.0009605902 -0.0066998466 -0.008206928 0.017538495 -0.0068632877 -0.00045656506 -0.05246143
0.013031217 0.024396056 -0.0072641834 0.011814487 -0.03156241 -0.028783053 -0.004218914 -0.0031632048
-0.0109810205 0.011811439 -0.0132039795 0.015923548 -0.012053466 0.012050804 0.020203019 -0.00035171365
0.016953593 0.01468894 -0.03052737 0.028546603 -0.015942495 0.024034569 0.014682522 0.01772877
-0.01636572 0.031336196 -0.008585661 -0.040440705 0.033511903 -0.011965551 -0.016554773 -0.0115990285
0.0050144535 -0.00028272218 -0.017547067 -0.0133870635 -0.012655364 -0.004634228 -0.036852498 -0.01919567
0.0024241286 -0.04049759 -0.020973478 -0.020489853 0.0013344443 -0.03340232 0.018004188 -0.0017198141
-0.0060360734 -0.008190866 -0.010132063 0.02180606 -0.015171085 0.0070579615 0.02525426 -0.0032908227
-0.008974372 -0.027490234 0.01031301 0.021932887 0.008310053 -0.015290618 0.02014135 -0.008659991
-0.004468688 -0.028162898 0.014540954 -0.024937032 0.012946874 0.012084623 -0.018768197 0.0072139157
0.008806151 -0.013341067 -0.015277624 -0.0060835956 -0.00933819 0.007286757 0.009117575 -0.01052818
-0.0020418528 -0.023320423 0.004315582 -0.008354773 0.0051651713 0.020834908 0.0015556376 -0.008693061
0.01108961 0.010360388 -0.011289601 0.0061738007 -0.01891802 -0.03538766 0.014507935 -0.013024205

model.3.bias f4 [640]
00000000: 77d5 eebb ba9b af3c 54a6 0bbc 23d6 5f3d
00000010: d39d 603a 92ce 2dbd 7f41 273c ca2a 253c
00000020: c00a dc3c c2a7 6c3d a941 66bd 697e 213d
00000030: 9cd7 903c e2c8 2fbd 7de9 da3d 159d aabc
00000040: 9f51 0d3d d2e1 1d3c fd16 1d3d b247 e33b
00000050: def1 cfbc 022e 4b3d 9817 a3bc 0f53 0d3d
00000060: 9c9e 34bd 4093 e9bb cab0 a0bc d6bd bd3c
00000070: 9d20 d93c e706 203d e090 043d 70ff f93c
00000080: 85b1 e03a 2143 833c 4543 86bc 72dc 2f3d
00000090: 8fa7 1fbd aa82 873d 2ad9 4fbd 8b30 f93c
000000a0: 588f 40bd 3e48 ba3c 7f34 d0bc 7bfe 17bd
000000b0: d36c 39bd fc4f 2d3d f15b 553d fd0c 013c
000000c0: 4b57 403d f73c ac3c b584 873c 46ec aebc
000000d0: f0a6 173d 83f3 2cbd b0c0 ce3b a36b 0b3d
000000e0: 490b 993a 3c6a 8e3c a29a 1ebd 9e41 9c3c
000000f0: b1b9 ebba fe80 a93c b268 bc3c 135b 4d3c
00000100: 1bfd 2b3d 588c 68bd 89e0 3abd be3c 423d
00000110: 4ef4 f1bc 54c2 d6bc 3001 b0bc e33e 0d3d
00000120: 5f8d a43c d28b 5b3d 6f3e 19bd 79fd edbc
00000130: 1982 dabb a0c2 333d e5d1 333d 6721 35bd
00000140: 6487 b33b 5b8e 1b3d ebfd be3c 642e 8eba
00000150: 7217 6d3d 5629 913c e04a 5bbd b7c2 123d
00000160: 0a1d 98bc a354 1b3d 133d ebbc d5bd c839
00000170: 9cdc a6bc 62c7 053d af13 643d c57c fb3c
00000180: 57fb 403d 240d 25bd 6cf2 673d d4b3 c9bc
00000190: bd77 3fbd 61ae 02bd 6c4a bd3b 6820 2b3d
000001a0: 9b8f 2cbd 7ed8 86bc 3015 123c a4f7 623d
000001b0: ca86 893c 13c5 c5bc 17e7 04bd 2c5e 62bc
000001c0: f680 a13c 4ec5 43bc a061 e13c 497b 06bd
000001d0: 872c 1abd f779 0ebd 090f 7f3c 5137 393c
000001e0: d759 2fbb 1c76 2fbd 3045 0e3d d3d1 943b
000001f0: 2ad7 043d 1a35 09bd 4564 053d 1b00 10bd
00000200: 930f 313d 14d9 563d f25c 3bbc 64c4 3839
00000210: e975 c13c 0409 13bd 9cdd 13bc 7e2a 41bd
00000220: 419e a43c dbd8 25bd 6773 543d 9461 a53c
00000230: 116c 2fbc 5e2d 463d 3e7f 923d ac2c f8bc
00000240: 56f9 b93c 074b 793d 06b8 273d 81f4 22bd
00000250: d194 2b3b d710 353d 3afb 2c3d df99 693d
00000260: 5523 3abd 150f 763d ad2d 8a3c 3ae1 e83c
00000270: 0643 8b3c 3d5f 69bd e1bf 9cbb 5214 d43c
00000280: df7a bf3c 564b 0c3d 7814 3abd a174 4e3d
00000290: ed99 133b ffb8 d73c be2d febc 6718 ccbc
000002a0: 7947 0fbd 41d7 aa3d 1558 aa3c 2eed 743d
000002b0: 6676 c83b b75f 0b3d c154 54bd 26b8 42bd
000002c0: e9b9 df39 ed61 a5bc fea6 0dbd daa6 5fbd
000002d0: 45c0 333d d054 dd3c 6e25 8fbc bd50 0fbd
000002e0: ead4 53bc 2c4d 07bc c083 09bd 2d0e ddbc
000002f0: a065 dfbc 1f4f b43c fc16 b9bc 5044 173d
00000300: 8259 d7bc 10fa 2c3d dc7f cdbb 6527 293b
00000310: 5d36 9cbc 0e7e 5abc 2093 a93c acb7 5c3d
00000320: ee0d 003d 7818 4a3d cd3f 17bd 33e1 78bc
00000330: 9317 363c 42f1 dfbc 1f3a 90bc c487 0a3b
00000340: 5733 8b3d 853f da3c 177a 95bc 8e65 4abd
00000350: 2fd4 43bd ee53 40bd daf1 2dbc a311 8c3c
00000360: 61e6 e0bc 82b8 94bc 0627 1b3d e084 89bd
00000370: d33d 823c b66d 47bc 47f0 323d 6119 c53c
00000380: fb98 263c acc8 ca3c 1bfb 913c 1cb6 62bd
00000390: 2c63 613c fae9 6cbb 690f 3abd 0d9f ab3b
000003a0: c8a1 073d c500 0bba 3194 a93c f6b5 67bb
000003b0: 4777 a63c 6712 043d b09c b8bb ae98 96bb
000003c0: 16fd e93c ba9d 5cbb e157 56bd 6f8a 14bd
000003d0: b46f 3d3d 1823 903d 2c70 07bd 6bad 99bb
000003e0: b309 473d 4e31 a9bb 3fe9 5abd b6c7 c4bc
000003f0: 0a76 e73c b8bc 233d 84c3 b8bc fb92 60bd
-0.0072886306 0.02143656 -0.008523542 0.054647576 0.00085684395 -0.04243333 0.010208487 0.0100810025
0.026860595 0.057777174 -0.056214962 0.039427195 0.017680936 -0.042916186 0.106890656 -0.020826856
0.034501668 0.009636359 0.038352 0.006936037 -0.025383886 0.049604423 -0.019908711 0.03450304
-0.044096574 -0.0071281493 -0.01961555 0.02316181 0.026504809 0.039069083 0.032364726 0.03051731
0.0017142749 0.01602322 -0.016389498 0.042934842 -0.038978156 0.06616719 -0.050744213 0.030418655
-0.047011703 0.022739526 -0.025415657 -0.037107926 -0.0452698 0.042312607 0.052089635 0.007876632
0.04695825 0.021025164 0.016542772 -0.021352898 0.03702444 -0.04222442 0.0063095912 0.034038197
0.0011676337 0.01738464 -0.038721688 0.019074257 -0.0017984417 0.020691391 0.022999141 0.012533921
0.041989427 -0.056774467 -0.04562429 0.04742121 -0.029535439 -0.02621571 -0.021484941 0.0344838
0.020086942 0.05360014 -0.037413057 -0.02905153 -0.006668341 0.04388678 0.043901343 -0.044221308
0.0054787863 0.037977558 0.023314437 -0.0010847566 0.057883687 0.017719906 -0.053538203 0.035830226
-0.018568534 0.037922513 -0.028715646 0.00038288409 -0.020368867 0.03266085 0.055682834 0.030699143
0.047114696 -0.040295735 0.056627676 -0.024621882 -0.04674505 -0.031904582 0.005776694 0.041778952
-0.04212914 -0.016460653 0.008916184 0.05541195 0.016787905 -0.024141824 -0.032446947 -0.013816398
0.019714814 -0.011948897 0.027512372 -0.032832418 -0.03764012 -0.034784283 0.0155675495 0.011304692
-0.002675643 -0.042837247 0.03473395 0.0045416146 0.03243176 -0.033497907 0.032566328 -0.03515635
0.043227743 0.052453116 -0.011435734 0.00017620769 0.023615794 -0.03589727 -0.009025004 -0.047159664
0.020094993 -0.040490013 0.05186787 0.02018813 -0.010706917 0.04838311 0.07153176 -0.030294739
0.0227019 0.060862567 0.040946983 -0.03978396 0.002618123 0.044205513 0.042231776 0.05703151
-0.04544385 0.060072977 0.016867483 0.028427709 0.016999733 -0.056975592 -0.004783616 0.025888596
0.02337402 0.034251533 -0.045429677 0.050404195 0.0022522167 0.02633333 -0.031027671 -0.02491398
-0.03498027 0.08341838 0.020793954 0.059796505 0.00611763 0.034026828 -0.05183864 -0.0475389
0.00042672388 -0.020188296 -0.034583084 -0.05460248 0.043884534 0.02701798 -0.017473903 -0.034989107
-0.012929181 -0.008258145 -0.033572912 -0.026984299 -0.027270138 0.022010384 -0.022593968 0.036930382
-0.026287798 0.042230666 -0.0062713455 0.0025810834 -0.019068891 -0.013335718 0.020700037 0.0538861
0.031263284 0.04933974 -0.03692608 -0.01519041 0.011114019 -0.02733672 -0.01760584 0.0021138052
0.06796902 0.026641617 -0.018246694 -0.049413256 -0.047809776 -0.04695504 -0.010616744 0.017098254
-0.027453603 -0.018154386 0.037879013 -0.06714797 0.01589862 -0.012172153 0.043686178 0.024059953
0.010168309 0.024753891 0.017819932 -0.055349454 0.013756555 -0.0036150203 -0.045424853 0.005237466
0.03311327 -0.0005302544 0.020700546 -0.003535626 0.020320548 0.032244112 -0.005633913 -0.0045958376
0.028563064 -0.0033663348 -0.0523299 -0.036264833 0.046249107 0.070379436 -0.03306596 -0.0046898625
0.048593234 -0.0051633483 -0.053445097 -0.02402101 0.028254528 0.039974898 -0.022554167 -0.05482767

model.6.weight f4 [14, 640]
00000000: b7d2 5bbc f077 253c b11d 58bc 9f24 8cbd
00000010: 9179 21bd 8d24 04bd 3883 01bc c3d2 edbc
00000020: 9fb9 523a d8e8 973c da14 1fbd 24ed 5abb
00000030: 6616 4dbd e3a8 a939 b6a0 d13c 813c b4ba
00000040: 876c 86bc 7f65 163c a32c 323c 3c85 1abd
00000050: 44e6 47bd 109b fc3b b645 f13c 55e3 9e3c
00000060: 245e 88bc 80e7 b1bc 05f3 29bd d260 91ba
00000070: fc65 cf3b 1946 14bd 2b21 a8bc 956e 3d3a
00000080: c95f 8ebc 9f71 573c e09d bd3c 2c94 823c
00000090: 9f1c ca3c c82c a73b 6f7f b43c 4017 853b
000000a0: 7df9 063c f008 b93b aac1 c03c 3fd2 2ebd
000000b0: 6977 20bd 3544 63bd a092 7bbd 495f 58bc
000000c0: b564 cebc bb26 b0bc d1e6 b2bc e43e dfbb
000000d0: 6947 2a3d 3217 7bbc 9010 bf3b 0ace 15bd
000000e0: 9fad fc3c 4f09 f7bc 645c c0bc 4e55 65bd
000000f0: 15ea 1abc 3787 fe3b 7199 c53c dbc9 5a3d
00000100: cb13 4cbd 4121 333c 9328 c93b b760 15bd
00000110: 0c25 46bd 9fff 6cbc 08d4 adbc ee26 943c
00000120: c393 cbbc 1b85 883a 81fe 83bb 1776 e53c
00000130: 9e0e f2bc dcda 823a 6726 6a3c a83d 2ebb
00000140: ab3b a3bc 90e5 11bd ef3a 0a3c 2181 24bc
00000150: 349f df3c 7ca8 1e3b 7145 48bc 0c19 fa3c
00000160: 22fb 353c fbd7 8bbc 04bf c8bb 24f0 1b3c
00000170: 542d 853b b77d ae3c 1f26 23bd f974 663d
00000180: 6dcb 083d 0801 0ebd 41e3 eebb 9081 21bc
00000190: 14c1 11bc 21b3 71bc 59dd 32bc 62e4 193d
000001a0: 5120 72bd 9654 9bbc a2d1 19bd ee22 4b3d
000001b0: 2240 e8bc 7bd9 31bd 9f95 68bd b7c9 adbb
000001c0: fbce 903c 70cc 923c 56a6 013c bbe3 df3c
000001d0: 0ae5 093c 9fd6 423b a132 10bd 7b58 3b3d
000001e0: 3969 d8b9 eec5 a8bc 8c40 5ebc 2a1b 2a3c
000001f0: b1ed ddbc 04ce 68bc 43c3 743c ad35 13bd
00000200: 37f5 c33c 31ea 18bd aa4c 38bd 5590 383c
00000210: 8a6b 32bc 8670 603a f0e0 dabb 64ae 113d
00000220: c5bc 2dbd 782b 0ebb 6353 98bc 328f 42bd
00000230: 034f e93c a066 073c b79e bb3b 8e23 f3bc
00000240: d5f1 183c 531e d33c 6850 053c 7c6a 2dbc
00000250: 270c 82bc 1475 6fbb 4eb5 4dbc 8ed2 d23c
00000260: ef57 02bd d655 22bd 9ff7 0b3d 7358 62bd
00000270: b01f b3b8 9123 c93b 3e49 123c f600 3c3c
00000280: 9618 31bc b593 b23c e82e 353c e366 603d
00000290: c2f5 77bc 0e90 b23c 8078 16bd 3e3b 18bc
000002a0: 9a59 89bc 2443 943c 1a5b a43b 4982 1dbd
000002b0: 5449 92bb e098 7abb 25c1 63ba c906 8a3c
000002c0: 162e 3cbd 3e7f 4d3c b9ef 89bb 4a8b 083d
000002d0: 61ae 733b 0554 0f3c a35c 9637 7d59 2cbd
000002e0: 2254 b93b 60dd 6abd 1d08 dfbb 58e3 ebbb
000002f0: bbd9 6bbc 3753 57bd 1bd3 01ba 1f36 e5bc
00000300: d1a4 6cba c94a 143c f8d1 a63a d5dc 37bd
00000310: 0690 fa3c 36d2 533c 3c27 65bd a4ed 9c3c
00000320: 2bc2 d9bb b13f 1b3d 047a d73c bc97 653c
00000330: 91fb 12bc cc59 813c 498f a3bd 2cdc 0fbd
00000340: 5915 213d ae2a 5bbb f057 edbc 8c11 5dbb
00000350: 3fc5 18bb 516f a13a 5691 7fbd a78f 2a3c
00000360: f115 95bc d8bb 483b d14f 9fbc 5269 64bc
00000370: dd1c 6a3c 5ee3 46bc b3de 73bb 4a46 053d
00000380: d018 41bc 38af 903c 142d ddbc dbab 23bd
00000390: 77cb 353c 8d7c 233c daea d13b 4e5c 5cbb
000003a0: bf22 f838 08ad babc 4a2c fe3c 6c2d 06bd
000003b0: 842c 0abc f97d 2d3c 49fc 6c3c d963 8abd
000003c0: aeab a73c 869b 193d 3312 aebb 905d 683d
000003d0: a23b e9bc df61 d73c 6bcf 5abc 7664 18bc
000003e0: ef85 0abd b1cc 58bc 5047 1bbc dec9 a93c
000003f0: fbeb 673c b5a9 77bd a4ef 9fbc f8ef 763c
-0.013416938 0.010099396 -0.013190673 -0.068429224 -0.039422575 -0.03226142 -0.00790482 -0.029031163
0.0008038524 0.018543646 -0.038838245 -0.0033405507 -0.05007019 0.00032360022 0.025589328 -0.0013750942
-0.016409172 0.009179472 0.0108749 -0.03772472 -0.048803583 0.0077089146 0.029452186 0.01939551
-0.016646452 -0.021716833 -0.041491527 -0.0011091477 0.006329296 -0.036199663 -0.020523628 0.0007226256
-0.017379658 0.013149648 0.02314657 0.015939794 0.02467185 0.005101774 0.022033421 0.0040616095
0.008238194 0.0056468174 0.023529846 -0.042680975 -0.03917638 -0.05548497 -0.06141913 -0.0132063115
-0.025194505 -0.021502843 -0.021838577 -0.006812917 0.04157201 -0.015325354 0.005830832 -0.036573447
0.030844508 -0.030155806 -0.023481555 -0.055989556 -0.009455224 0.0077675837 0.024121018 0.05341516
-0.049823564 0.010933221 0.00613887 -0.036469188 -0.048375174 -0.014465242 -0.021219268 0.01808497
-0.024850732 0.0010415645 -0.004028142 0.028010411 -0.029547986 0.0009983438 0.014291382 -0.0026587043
-0.019925913 -0.03561932 0.008436902 -0.010040552 0.027297594 0.0024209311 -0.012223587 0.030529521
0.011107238 -0.017070761 -0.0061262865 0.009517703 0.0040642414 0.02130018 -0.039831277 0.056263898
0.033397127 -0.034668952 -0.0072902744 -0.00985755 -0.008896131 -0.01475218 -0.010917031 0.03757132
-0.05911285 -0.018961232 -0.037553437 0.04959386 -0.028350893 -0.043420296 -0.056783315 -0.0053035873
0.017676821 0.017919749 0.007913193 0.02733027 0.008416424 0.0029729975 -0.035204533 0.04573868
-0.00041277127 -0.020602193 -0.013565194 0.010382453 -0.02709088 -0.014209274 0.014939132 -0.03593986
0.023920638 -0.037332717 -0.044994988 0.01126488 -0.010889897 0.0008561689 -0.0066796467 0.035566702
-0.042416353 -0.002169339 -0.01859445 -0.047499843 0.028480059 0.008264214 0.0057257074 -0.02968004
0.009335001 0.025771296 0.008136846 -0.01058447 -0.015874935 -0.003653829 -0.012555433 0.025735166
-0.03182214 -0.03963264 0.034171697 -0.055260133 -8.5412874e-05 0.006138273 0.008928595 0.0114748385
-0.010809084 0.021798948 0.011058547 0.05478562 -0.015134277 0.021797206 -0.03673601 -0.009291468
-0.016766358 0.018098421 0.005015743 -0.038454328 -0.004464308 -0.0038238093 -0.00086881436 0.016848939
-0.04594239 0.012542544 -0.0042094854 0.03333596 0.0037182795 0.008748059 1.792453e-05 -0.04207753
0.0056557814 -0.057340026 -0.006806387 -0.0071987323 -0.014395173 -0.052569594 -0.00049524166 -0.027979909
-0.0009027245 0.009051033 0.001272737 -0.044888336 0.030586254 0.012928536 -0.05594562 0.019156285
-0.006645461 0.037902538 0.026303299 0.014013227 -0.008971111 0.015789889 -0.07986314 -0.03512208
0.039327 -0.0033442187 -0.028972596 -0.0033732383 -0.0023310927 0.00123165 -0.062394463 0.010410226
-0.018198939 0.0030629542 -0.01944724 -0.013941126 0.014289108 -0.0121391695 -0.0037211597 0.032537736
-0.011785701 0.017661676 -0.026999034 -0.039958816 0.011095873 0.009978426 0.0064061703 -0.0033624354
0.000118320335 -0.022787586 0.031026978 -0.03275816 -0.008433465 0.010589116 0.014464446 -0.06757326
0.020467605 0.037501834 -0.005312228 0.056729853 -0.028470818 0.026291786 -0.013355116 -0.0093012955
-0.033819135 -0.013232396 -0.009477451 0.02072614 0.014155383 -0.06046458 -0.01952345 0.015071861

model.6.bias f4 [14]
00000000: 763b c0bc 497b c33a 8a2d c33c 55b0 703c
00000010: e9ff c9bc ea12 083d ed23 53bc 3f26 d63c
00000020: 8506 67bc cd3c 103d 9304 2bbd 891f 98ba
00000030: 926a abbc 8be3 0abd
-0.023465853 0.0014914061 0.023825426 0.014690478 -0.02465816 0.033221163 -0.012886983 0.026141284
-0.0141006755 0.035214234 -0.04175241 -0.0011606078 -0.02092484 -0.033908408
