code/seed2/cGAN_discriminator.pth (torch, 868214 bytes, 5 tensors)

model.0.weight f4 [640, 16]
0	0xbcecfc95	-0.028929034
1	0xbdb2b3af	-0.08725678
2	0xbd325a00	-0.043542862
3	0xbd8546b9	-0.0650763
4	0xbdc5d499	-0.096596904
5	0xbdd416ae	-0.10355888
6	0xbd84168e	-0.064496145
7	0xbdce6c52	-0.10079254
8	0xbdb2b4e1	-0.08725906
9	0xbdf24a9d	-0.118306376
10	0xbd85d219	-0.065342136
11	0xbd854372	-0.06507005
12	0xbd6f0572	-0.058354802
13	0xbdab0efa	-0.08352466
14	0xbdb89845	-0.09013418
15	0xbe19f29e	-0.15033957
16	0xbd7fde94	-0.062468126
17	0xbe046a28	-0.1293112
18	0xbd30dd5d	-0.04317986
19	0xbde036c6	-0.10947947
20	0xbe13cb00	-0.14432907
21	0xbe028bf3	-0.12748699
22	0xbdcbe0ed	-0.099550106
23	0xbcbe7e46	-0.023253571
24	0xbdb25296	-0.08707158
25	0xbdf6a15c	-0.120424956
26	0xbce909a0	-0.028446972
27	0xbd1a0838	-0.037605494
28	0xbdd6b331	-0.10483397
29	0xbe03c786	-0.12869081
30	0xbd3fe164	-0.04684581
31	0xbd039938	-0.032128543
32	0xbda4d744	-0.08048871
33	0xbd051e1c	-0.032499418
34	0x3daf94dc	0.085733145
35	0xbdad12a3	-0.0845082
36	0xbddf846e	-0.10913931
37	0xbdae95b6	-0.08524649
38	0xbdd6d42e	-0.10489689
39	0xbdb91953	-0.09038033
40	0xbe06e38e	-0.13172743
41	0xbd93f70c	-0.07224855
42	0x3d9c260f	0.076244466
43	0x3da1ca8d	0.078999616
44	0xbd8dce4e	-0.06924115
45	0xbd598572	-0.05310578
46	0xbda16575	-0.078806795
47	0xbdafb367	-0.0857914
48	0x3bc5b2e6	0.0060332892
49	0xbd1fb4a6	-0.03899064
50	0xba85ebb5	-0.0010217341
51	0x3ac31073	0.0014882222
52	0xbca99074	-0.020698763
53	0x3c73e230	0.01488547
54	0x3c98284b	0.0185739
55	0x3d4f160e	0.050558142
56	0xbcafe0f9	-0.02146958
57	0xbd3dba70	-0.04632038
58	0x3cd7c90f	0.02634099
59	0x3c864379	0.016389595
60	0xbaa2961e	-0.0012404358
61	0x3c7cc7cf	0.015428497
62	0x3ba562ce	0.005047179
63	0xbc2ff5d6	-0.010739764
64	0xbee588dd	-0.4483098
65	0xbe96215b	-0.29322323
66	0xbe8cc0f7	-0.2749097
67	0xbccef57c	-0.02526354
68	0xbda91b6b	-0.08257183
69	0xbd95780c	-0.07298288
70	0xbecbe84f	-0.39825675
71	0x3ddf914c	0.10916385
72	0xbc92e5be	-0.017931815
73	0xbf002cb4	-0.5006821
74	0xbf27f28c	-0.6560447
75	0xbf202a4c	-0.6256454
76	0xbed07ce7	-0.40720293
77	0xbc66619c	-0.014061358
78	0xbe049c46	-0.12950239
79	0xbebd0e92	-0.3692518
80	0x3c457e90	0.012054101
81	0x3a4fd686	0.000792839
82	0x3d04e308	0.032443076
83	0x3d153889	0.03643087
84	0xbb67fdaa	-0.0035398998
85	0xbc3dc677	-0.011582962
86	0xbb79d8c6	-0.0038123592
87	0x3ca4a9be	0.02010047
88	0xbb2dd9bc	-0.0026527485
89	0xbb8bd679	-0.0042675105
90	0x3ab06fe5	0.0013461082
91	0xba43419e	-0.00074484374
92	0xbc38192e	-0.011236472
93	0xbcc4fa37	-0.024045093
94	0xbc26caa0	-0.0101801455
95	0x3c3636b2	0.011121439
96	0xbc3a919e	-0.011387257
97	0xbc192cd5	-0.009349068
98	0xbb96e294	-0.004604647
99	0xbd11895b	-0.035531383
100	0x3c4b1485	0.012395029
101	0xbb5c2ec1	-0.0033597203
102	0x3982b649	0.00024931345
103	0xbb9d81d3	-0.004806736
104	0x3b7e986e	0.003884818
105	0x3c6f5340	0.014607251
106	0x3c9b7b12	0.018979583
107	0x3c198de6	0.00937221
108	0xbc92dbdf	-0.017927108
109	0x3c125300	0.008930922
110	0xbbac02ca	-0.005249356
111	0xbab174aa	-0.0013538797
112	0xbe15be19	-0.14623298
113	0xbd89d08b	-0.067292295
114	0xbdf28fc5	-0.11843828
115	0xbc0d0309	-0.008606681
116	0xbe362b48	-0.17789948
117	0xbd1e5f95	-0.038665373
118	0xbd23daa8	-0.04000345
119	0xbe07f5d3	-0.13277368
120	0xbd9c9c08	-0.07646948
121	0xbde709fb	-0.112812005
122	0xbe1783fa	-0.14796439
123	0xbe1fec24	-0.15617424
124	0xbd93878d	-0.07203589
125	0xbd7ba6a8	-0.061438233
126	0xbdabe440	-0.083931446
127	0xbe09ed0e	-0.13469335
128	0xbceb88d1	-0.028751763
129	0xbcd78497	-0.026308341
130	0x3c6008ee	0.013674004
131	0xbba82093	-0.0051308363
132	0x3ba051cf	0.004892565
133	0xbbcd34ed	-0.0062624128
134	0xbc8ea253	-0.017411387
135	0xba5d8230	-0.00084498804
136	0xbd3aebfb	-0.045635205
137	0xbc116af1	-0.0088755945
138	0x3be1152a	0.006868978
139	0x3d2acd69	0.0416998
140	0xbc248ff7	-0.0100440895
141	0xbc9a83b9	-0.018861638
142	0xbca1ba67	-0.019742204
143	0x3c12482e	0.008928342
144	0xc00e10b2	-2.219769
145	0xbfeebe88	-1.8651896
146	0xbe9deabc	-0.3084315
147	0xbfe9834c	-1.8243194
148	0xbfad8006	-1.3554695
149	0xc0093a3c	-2.1441793
150	0xbe278bce	-0.16361925
151	0xbf71b6a3	-0.94419307
152	0xc007ad47	-2.119951
153	0xc00bbcba	-2.183394
154	0xbf96fcf6	-1.1795948
155	0x3f5f80c9	0.87305886
156	0xbe33dc14	-0.17564422
157	0xbfea44e1	-1.830227
158	0xbfad9a95	-1.35628
159	0x4044667d	3.0687554
160	0xbe3f936f	-0.18708585
161	0xbcbe27e7	-0.023212386
162	0xbe200c23	-0.1562963
163	0xbe480a96	-0.19535288
164	0xbe45d1e8	-0.19318354
165	0xbe3c0385	-0.18360718
166	0xbc84147e	-0.016123053
167	0xbe30c3e4	-0.17262226
168	0xbc8356d7	-0.01603262
169	0xbe31fa49	-0.17380632
170	0x3c2975b2	0.010343002
171	0x3c583262	0.013195606
172	0xbe145de8	-0.14488947
173	0xbe4aecf3	-0.19816951
174	0xbe444938	-0.19168556
175	0xbd45a240	-0.048250437
176	0xbdf85206	-0.1212502
177	0xbda04b85	-0.07826904
178	0xbe0d83af	-0.13819765
179	0xbae81d91	-0.0017709007
180	0xbc9f3550	-0.019434601
181	0xbdaf21bc	-0.08551356
182	0xbdbffbc4	-0.09374192
183	0xbe1cf856	-0.15329108
184	0xbd31555c	-0.043294296
185	0xbcdf84d7	-0.027285023
186	0xbda15050	-0.078766465
187	0xbdd8aaa9	-0.10579426
188	0xbe0224c4	-0.12709337
189	0xbcb6611a	-0.022263099
190	0xbd11ad50	-0.035565674
191	0xbdcddb2d	-0.1005157
192	0xbd26f98d	-0.040765334
193	0x3c6033be	0.013684211
194	0xbce41826	-0.027843546
195	0x3c1a1e93	0.0094067035
196	0xbcee80b9	-0.029114114
197	0xbc767669	-0.01504288
198	0x3cf3cb65	0.029760072
199	0x3b4018a0	0.0029311553
200	0xbc205dbe	-0.009787975
201	0xbc083629	-0.008313694
202	0xbc32ef73	-0.010921347
203	0xbabf5644	-0.0014597853
204	0xba3fd867	-0.0007318318
205	0xbc4ba654	-0.012429792
206	0x3cb4b204	0.02205754
207	0xbd317ac1	-0.043329958
208	0xbdfcd65c	-0.12345573
209	0xbd75a13f	-0.05996823
210	0xbde5561c	-0.11198065
211	0xbdc586b0	-0.0964483
212	0xbd6ecf75	-0.058303315
213	0xbd3dc359	-0.046328876
214	0xbd8c8005	-0.06860355
215	0xbe1759a6	-0.14780292
216	0xbd5b4dcd	-0.053540993
217	0xbd8ed2ec	-0.06973824
218	0xbe084d13	-0.13310651
219	0xbe047ac0	-0.1293745
220	0xbd443293	-0.047899794
221	0xbd8a789c	-0.06761286
222	0xbd54f142	-0.051987894
223	0xbd94a36c	-0.07257733
224	0xbdb23da4	-0.08703163
225	0xbda4eca9	-0.08052952
226	0x3ce75fd0	0.02824393
227	0xbd324004	-0.04351808
228	0xbd7c2cd5	-0.061566193
229	0xbde7132d	-0.11282954
230	0xbd93f842	-0.07225086
231	0xbd915e86	-0.07098107
232	0xbdc38c4e	-0.09548245
233	0xbdfb42d3	-0.12268605
234	0x3dbbfb99	0.09178848
235	0x3d8442ae	0.06458031
236	0xbd80a80a	-0.06282051
237	0xbd5d53f9	-0.05403516
238	0xbdbc0ddc	-0.09182331
239	0xbcfe39e7	-0.03103347
240	0x3b2404d4	0.0025027292
241	0xbdc84ab9	-0.09779877
242	0xbc8165a9	-0.015795546
243	0xbdae703f	-0.08517503
244	0xbdeba7f8	-0.11506647
245	0xbdbc081f	-0.091812365
246	0xbdd744d6	-0.10511176
247	0xbbb42e6e	-0.005498699
248	0xbdd3e571	-0.10346497
249	0xbe176f5f	-0.14788578
250	0x3c5e6690	0.0135742575
251	0x3cabda97	0.020978255
252	0x3be3f25a	0.006956381
253	0xbde38982	-0.11110212
254	0xbe0be8e7	-0.13663064
255	0x3c2828e0	0.010263652

model.0.bias f4 [640]
0	0x3d982e3a	0.07430692
1	0xbd40bfd5	-0.047057945
2	0x3d9ac702	0.07557489
3	0xbdd290fc	-0.1028156
4	0xbd942d8f	-0.07235252
5	0xbdde6e1c	-0.108608454
6	0xbd42ae38	-0.04752943
7	0x3daa1ae2	0.08305909
8	0xbd5c1274	-0.053728536
9	0xbf7aa792	-0.9791194
10	0xbe8840e5	-0.2661201
11	0xbd0c5e4c	-0.034269616
12	0xbe4c42e2	-0.19947389
13	0xbd71ad04	-0.05900289
14	0xbda107d2	-0.0786282
15	0xbd08e5f1	-0.033422414
16	0xbe3c4754	-0.18386585
17	0xbd869be4	-0.065727025
18	0x3c420680	0.01184237
19	0xbe1547c0	-0.14578152
20	0xbf865d28	-1.0497179
21	0x3dc8139e	0.09769367
22	0xbd9f3423	-0.07773616
23	0xbe8f15ff	-0.2794647
24	0xbd767fb0	-0.060180366
25	0x3deef27c	0.11667344
26	0xbe366f02	-0.17815784
27	0xbe33e658	-0.17568338
28	0xbdb592a8	-0.08865863
29	0xbdc24a94	-0.09486881
30	0xbd8368ac	-0.06416449
31	0x3da69f1a	0.08135815
32	0xbd1f3b33	-0.038874816
33	0xbc9e5006	-0.019325268
34	0xbde1b568	-0.110209286
35	0x3dffa88b	0.12483319
36	0xbf564b3d	-0.83708555
37	0xbe749bc6	-0.23887548
38	0xbdd76086	-0.10516457
39	0xbd1c67ba	-0.03818486
40	0xbdf1447c	-0.117806405
41	0xbdf5aab0	-0.11995447
42	0xbe84b23f	-0.2591724
43	0xbdb0a8b1	-0.08625925
44	0xbfaac592	-1.3341544
45	0xbf185f90	-0.59520817
46	0xbe1eea44	-0.15519053
47	0x3d9a7e67	0.075436406
48	0x3de75075	0.11294643
49	0x3dad5c85	0.08464912
50	0xbd926ff4	-0.071502596
51	0x3d37147d	0.044697274
52	0x3d40363b	0.04692672
53	0xbe4e043a	-0.201188
54	0x3c1fad03	0.009745839
55	0xbe5b9d04	-0.21446615
56	0xbd53a83a	-0.051674105
57	0xbe501f52	-0.20324448
58	0xbe14fa4a	-0.14548603
59	0xbd1d4f98	-0.038405985
60	0xbeae8cab	-0.34091696
61	0xbe6eedac	-0.23332852
62	0x3cb9bb29	0.022672253
63	0xbd09f842	-0.033684023
64	0xbd846e98	-0.064664066
65	0xbe688e04	-0.22710425
66	0xbdf8654e	-0.12128697
67	0x3e1f99b6	0.1558598
68	0xbe2b005e	-0.16699359
69	0x3cbf2557	0.023333235
70	0xbe44fd1a	-0.19237176
71	0xbe229ee0	-0.15880919
72	0x3cc20da6	0.023688149
73	0x3bfbd9ca	0.0076858746
74	0xbe6ff652	-0.23433807
75	0x3dd7cb9a	0.10536881
76	0xbdd76b93	-0.10518565
77	0x3de767ec	0.112991184
78	0xbc7cc058	-0.015426718
79	0xbdd8cb28	-0.10585624
80	0xbe7c531c	-0.24641079
81	0xbdf3dcae	-0.11907326
82	0xbe0196c8	-0.12655175
83	0xbe321a58	-0.17392862
84	0xbfcc89ab	-1.5979513
85	0xbe84c30e	-0.25930065
86	0x3ccc2c3e	0.02492344
87	0xbe53b4f2	-0.20674494
88	0xbe297166	-0.16547164
89	0xbc297dfd	-0.010344979
90	0xbd86a395	-0.065741695
91	0xbecd3889	-0.40082195
92	0x3cb29ffa	0.021804798
93	0xbc90bf02	-0.017669205
94	0x3e1cfb5f	0.15330265
95	0xbd92d429	-0.071693726
96	0xbc99d403	-0.018777853
97	0xbc2cc42a	-0.010544816
98	0xbd65fb59	-0.056147907
99	0xbe6c1972	-0.23056582
100	0xbcf43dd3	-0.029814636
101	0x3cbe28a7	0.023212744
102	0x3dcd3bab	0.100211464
103	0x3d13890c	0.03601937
104	0xbe0bc982	-0.13651088
105	0xbd4bf1a7	-0.049791005
106	0xbe5c2d1e	-0.21501586
107	0xbc546cc7	-0.012965388
108	0xbdd71dc4	-0.10503724
109	0xbe3ee5b2	-0.1864231
110	0xbdb37890	-0.0876323
111	0xbe0e1c27	-0.13877927
112	0xbd9f2609	-0.077709265
113	0x3dc62b7b	0.09676262
114	0xbdb7690c	-0.08955583
115	0xbc0feb7b	-0.00878417
116	0x3db59d4f	0.08867895
117	0xbe213889	-0.15744223
118	0x3b95f913	0.004576811
119	0xbd5ab487	-0.05339482
120	0x3c8ead6d	0.01741668
121	0x3d873b4f	0.06603109
122	0xbe510f22	-0.20415929
123	0x3dfc6ebd	0.12325809
124	0xbe4b1ca6	-0.19835147
125	0xbe2d8301	-0.16944505
126	0xbe5c1db6	-0.21495709
127	0xbdd125ac	-0.102122635
128	0x3b88886a	0.0041666524
129	0xbd6968ca	-0.0569847
130	0x3d5a9db5	0.053373057
131	0xbdde43f8	-0.10852808
132	0xbe3a36bb	-0.1818494
133	0xbccf5360	-0.025308311
134	0xbe6d1050	-0.23150754
135	0xbe3ee4bc	-0.18641943
136	0xbd944258	-0.072392166
137	0xbe5a3e32	-0.21312788
138	0xbdaf3c50	-0.085564256
139	0xbe2569d6	-0.16153654
140	0x3d87ca5b	0.06630393
141	0x3d22760a	0.039663352
142	0xbddf9ce1	-0.10918594
143	0xbfa6e26a	-1.3037846
144	0xbe6a364c	-0.22872275
145	0xbd7e59c4	-0.062097326
146	0x3dff3592	0.124613896
147	0xbe7cf03a	-0.24701014
148	0xbe1d0fec	-0.15338105
149	0xbc06bb1e	-0.008223323
150	0x3de18842	0.11012317
151	0xbe7162da	-0.23572865
152	0xbf8adc37	-1.0848454
153	0xbda06ca0	-0.078332186
154	0x3a91337a	0.0011077963
155	0xbe1a4196	-0.15064082
156	0xbe5e3fec	-0.21704072
157	0x3c9f8726	0.019473623
158	0x3d8818da	0.06645365
159	0x3d912fde	0.07089208
160	0x3d158a0f	0.036508616
161	0xbdcdc46a	-0.10047229
162	0xbe3848fb	-0.1799659
163	0xbdaa0381	-0.083014496
164	0xbf82fbbb	-1.0233072
165	0xbda06184	-0.078311
166	0xbd757770	-0.059928358
167	0xbe1986c6	-0.14992818
168	0xbd6ba490	-0.057529986
169	0x3d8d8872	0.069107905
170	0xbe2174ff	-0.15767287
171	0x3dd80f64	0.105498105
172	0x3d733e4b	0.05938558
173	0xbdde5fd4	-0.108581215
174	0xbdff26fc	-0.124586076
175	0xbd65016a	-0.05590955
176	0xbc0856b9	-0.008321458
177	0x3d8daa3a	0.06917234
178	0x3bef6201	0.007305384
179	0xbd58a623	-0.052892815
180	0xbe072f78	-0.13201702
181	0xbee8650f	-0.45389602
182	0xbe0d1cd8	-0.13780534
183	0x3deee601	0.116649635
184	0xbe022d3a	-0.12712565
185	0xbd99bdb8	-0.07506889
186	0x3c8e8fe1	0.017402591
187	0xbe38bbb6	-0.18040356
188	0xbe792f48	-0.24334443
189	0x3d8273b8	0.06369728
190	0xbd161652	-0.03664238
191	0xbe46057a	-0.19338027
192	0xbe1c5f24	-0.15270668
193	0xbf5d89c3	-0.8653833
194	0xbf78ca03	-0.97183245
195	0xbd565cc0	-0.052334547
196	0x3a999671	0.0011717809
197	0x3dbc56c7	0.09196239
198	0xbdfac05d	-0.12243722
199	0xbd68f2b8	-0.0568721
200	0xbe5392d2	-0.20661476
201	0xbdcb4234	-0.099247366
202	0xbdc55649	-0.09635598
203	0x3d490f5e	0.04908692
204	0xbe3986d6	-0.18117842
205	0xbd6c37c0	-0.057670355
206	0xbdac7f9c	-0.08422777
207	0x3d7fdccb	0.062466424
208	0x3db39898	0.08769339
209	0xbe5f0868	-0.2178055
210	0xbdb88590	-0.0900985
211	0xbda59eb9	-0.080869146
212	0xbdec1a2d	-0.1152843
213	0xbdbd4e9e	-0.09243511
214	0x3deb44e2	0.11487748
215	0x3dc83af2	0.09776868
216	0xbcf57510	-0.029963046
217	0xbe1b7710	-0.15182137
218	0xbd8b3482	-0.067971244
219	0x3d10d8ce	0.03536301
220	0xbe19e8be	-0.1503019
221	0x3d81177c	0.063033074
222	0x3dcf65c9	0.10126836
223	0xbe713a72	-0.23557451
224	0xbf575598	-0.8411498
225	0x3cb90cd3	0.022589123
226	0xbf1c74f1	-0.6111594
227	0xbd0fb664	-0.03508605
228	0xbe4dc51e	-0.20094725
229	0xbf8e9c20	-1.1141396
230	0xbe403276	-0.1876925
231	0xbe752266	-0.23938903
232	0xbe34d0ca	-0.17657772
233	0xbe6637bc	-0.22482198
234	0xbe766f7e	-0.24065968
235	0xbf3edd0c	-0.7455604
236	0xbe41b91a	-0.18918267
237	0xbe11897f	-0.14212607
238	0xbdfb2576	-0.122630045
239	0xbe045732	-0.12923887
240	0xbf9db169	-1.2319766
241	0xbe3f3126	-0.18671092
242	0xbe653360	-0.2238288
243	0x3cad0212	0.021119151
244	0x3cd21c6f	0.025648324
245	0x3c23241a	0.009957338
246	0xbd92f09d	-0.071747996
247	0xbe2c4990	-0.16824937
248	0xbd03bdbc	-0.032163367
249	0xbe00a5bb	-0.12563221
250	0xbe3a945e	-0.1822066
251	0xbe3ead10	-0.18620706
252	0x3d878c9c	0.06618616
253	0xbf9645e3	-1.1740078
254	0x3d729456	0.059223495
255	0xbda1e6e0	-0.07905364

model.3.weight f4 [320, 640]
0	0xbda93cf7	-0.08263581
1	0xbd84dccf	-0.064874284
2	0xbbcd1153	-0.0062581687
3	0x3cde5c42	0.027143601
4	0xbdba1427	-0.09085875
5	0xbb4f5025	-0.0031633463
6	0x3d5cce98	0.05390796
7	0xbda07b9c	-0.078360766
8	0x3ced1902	0.028942589
9	0xbd95b791	-0.07310403
10	0x3c88650f	0.016649751
11	0xbd722029	-0.0591127
12	0x3c860491	0.0163596
13	0xbd9e4ed2	-0.077298775
14	0x3b32c659	0.002727887
15	0xbdaa12cf	-0.08304369
16	0xbce88f62	-0.028388683
17	0x3cc4a141	0.024002673
18	0xbdbfda58	-0.09367818
19	0x3bfd1345	0.0077232444
20	0xbbdf310a	-0.006811266
21	0xbdcc66b3	-0.09980526
22	0xbc20a2d9	-0.009804451
23	0x3c20a86f	0.009805783
24	0x3c09a7d6	0.008401832
25	0xbdc4d93f	-0.09611749
26	0x3c94cd21	0.01816422
27	0x3b57fbc9	0.0032956472
28	0xbc8e2b17	-0.017354531
29	0x3d523097	0.05131587
30	0x3cdca96f	0.026936261
31	0xbde0a005	-0.10968021
32	0xbda6652e	-0.08124767
33	0xbdc1e7b6	-0.094680235
34	0x3c38b77c	0.011274215
35	0xbd8f5715	-0.069990315
36	0x3cf0be66	0.029387664
37	0x3c169664	0.009191129
38	0xbdea748c	-0.11448011
39	0xbdb04ab4	-0.086079985
40	0x3d2189cd	0.039438058
41	0xbc39ab86	-0.011332398
42	0xbd973c8e	-0.07384597
43	0x3bddb64b	0.006766116
44	0x3c12a1ac	0.008949678
45	0xbc8769b4	-0.016529895
46	0x3ce9f469	0.028558927
47	0xbdac6c93	-0.084191464
48	0xbd80898a	-0.062762335
49	0xbdcd7d82	-0.10033704
50	0x3c76906a	0.015049079
51	0xbda2fb99	-0.07958145
52	0xbd1b1c94	-0.03786905
53	0x3cd63a0e	0.02615073
54	0xbdb93ae4	-0.090444356
55	0x3c41357e	0.011792539
56	0xbd947cb5	-0.072503485
57	0xbc691aaa	-0.014227549
58	0xbd0b2ec0	-0.03398013
59	0x3c1c23c9	0.009530016
60	0x3ba4146a	0.0050073164
61	0x3c49d286	0.012318259
62	0xbde43903	-0.111436866
63	0xbd547e00	-0.051877975
64	0xbdb5fb07	-0.0888577
65	0xbc2e239e	-0.010628609
66	0xbc1fcb0b	-0.009752999
67	0xbd93c3c1	-0.072150715
68	0x3bfcec90	0.00771863
69	0xbd16f7b1	-0.03685731
70	0xbc854c14	-0.016271628
71	0xbc38d210	-0.011280552
72	0x3cfaec42	0.030630235
73	0xbd51883e	-0.05115532
74	0x3b91b13d	0.0044461773
75	0xbda3e791	-0.08003152
76	0xbd8fa5e6	-0.070140645
77	0xbdb48a7d	-0.08815477
78	0xbd6769cd	-0.056497384
79	0xba52bf15	-0.00080393377
80	0x3d3dd3ae	0.04634445
81	0xbd931030	-0.07180822
82	0xbd02353f	-0.03178906
83	0xbc081ff7	-0.008308402
84	0xbda59d92	-0.08086695
85	0xbc2b3573	-0.010449755
86	0xbde75068	-0.11294633
87	0x3c13b6a7	0.009015716
88	0xbd294a67	-0.04133072
89	0xbdd8b0df	-0.105806105
90	0xbd2a6348	-0.04159859
91	0xbd6dbc67	-0.058041003
92	0xbb21612c	-0.002462457
93	0xbd30bc31	-0.043148223
94	0xbd5cebb2	-0.053935714
95	0xbca9dfa2	-0.02073652
96	0xbc23cb60	-0.009997219
97	0xbd6d1eef	-0.05789083
98	0xbda15706	-0.078779265
99	0xbcea2721	-0.028583111
100	0xbd8ca3ab	-0.06867155
101	0xbd6ea807	-0.058265712
102	0xbdba7e9d	-0.09106181
103	0xbcb8a45d	-0.022539312
104	0xbc24bb27	-0.010054386
105	0xbe0b84de	-0.13624904
106	0xbd520690	-0.05127579
107	0xbda682f5	-0.08130447
108	0x3cf37e74	0.029723383
109	0x3b98cfde	0.0046634516
110	0xbcaf6790	-0.021411687
111	0xbc036b99	-0.008021259
112	0xbda7216a	-0.0816067
113	0xbdb2c18e	-0.08728324
114	0xbd85dd79	-0.06536383
115	0xbd9cd359	-0.07657499
116	0xbd43fdf0	-0.047849596
117	0x3cb14707	0.021640314
118	0xbd29d719	-0.0414649
119	0xbdc01b86	-0.0938025
120	0xbd9029fd	-0.07039259
121	0xbd8983e2	-0.06714608
122	0xbc4082d9	-0.0117499465
123	0xbdd8ac46	-0.105797336
124	0xbbd3b5bb	-0.006460873
125	0xbd8ab44d	-0.06772671
126	0xbc99bab7	-0.01876579
127	0x3cd68cce	0.026190188
128	0xbd8a63a9	-0.0675729
129	0xbdc8273a	-0.09773107
130	0xbdbdf05c	-0.092743605
131	0xbdd07536	-0.10178606
132	0xbbd7a1ef	-0.0065805833
133	0x3d49023b	0.049074393
134	0x3c960958	0.018315002
135	0xbbe5d361	-0.0070137237
136	0x3ca974ab	0.020685514
137	0x3c228b17	0.009920857
138	0x3a7676ca	0.0009401856
139	0xbd9cf594	-0.07664028
140	0xbdbaa0f6	-0.09112732
141	0xbd970f62	-0.07375981
142	0xbda1eb23	-0.07906177
143	0xbda5b551	-0.08091224
144	0xbbf6fdd2	-0.007537582
145	0xbd9650a6	-0.07339601
146	0xbda402d1	-0.0800835
147	0xbc7a1d13	-0.015265721
148	0x3c225919	0.009908938
149	0x3c6eaeaa	0.01456801
150	0xbd89d479	-0.06729979
151	0x3baee6e5	0.0053375834
152	0xbc8a9441	-0.016916396
153	0x3cd34e0f	0.025794057
154	0x3b0c82c7	0.0021440254
155	0xbb5d41c7	-0.003376113
156	0x3c8cc60d	0.017184282
157	0xbda112d1	-0.07864917
158	0xbd290c8d	-0.041271735
159	0xbd7f0b4b	-0.06226663
160	0xbdc0094b	-0.093767725
161	0xbda48c3d	-0.08034561
162	0xbd6cc74d	-0.057807256
163	0xbc9f65dd	-0.019457752
164	0xbdf11153	-0.117708825
165	0xbda3e67f	-0.08002948
166	0xbbfa5a37	-0.007640149
167	0x3ccf296a	0.025288302
168	0xbdad0658	-0.084484756
169	0xbdb87607	-0.09006887
170	0x3cd30759	0.02576034
171	0xbda44852	-0.080216065
172	0xbdc9efec	-0.098602146
173	0xbcaeb0f9	-0.021324622
174	0x3d225dfd	0.039640415
175	0x3bdb98b0	0.0067015514
176	0xbdd10a89	-0.102070875
177	0xbdba94bf	-0.09110402
178	0xbdd09595	-0.101847805
179	0xbd8023b8	-0.06256813
180	0xbc81bc99	-0.015837
181	0x3c78c434	0.015183497
182	0xbcc0162a	-0.023448069
183	0xbd448fd1	-0.047988717
184	0xbd405934	-0.04696007
185	0x3af54ac9	0.0018714304
186	0xbde33ef7	-0.11095994
187	0x3c4bf17e	0.012447713
188	0x3c29dd0f	0.010367646
189	0xbda03330	-0.07822263
190	0xbd9c57b6	-0.07633917
191	0x3be20d5c	0.006898565
192	0xbdc53cdd	-0.096307494
193	0xbd93cb84	-0.07216552
194	0xbd867d73	-0.06566896
195	0xbbdeb580	-0.006796539
196	0xbdcbef4a	-0.0995775
197	0xbde11afb	-0.10991474
198	0xbb536eb9	-0.003226204
199	0x3cf77061	0.030204954
200	0xbb934b83	-0.0044950857
201	0x399a689f	0.00029451118
202	0xbd80b98f	-0.062853925
203	0xbdadf189	-0.08493335
204	0x3b3fb346	0.0029251142
205	0x3aa41a30	0.0012520012
206	0xbc0cb8d6	-0.00858899
207	0xbd9ecbf8	-0.07753748
208	0xbdcab67b	-0.09898087
209	0x3c8c4ea1	0.017127337
210	0xbc743b6e	-0.014906747
211	0xbd981479	-0.0742578
212	0x3c0a1ac0	0.008429229
213	0xbd95dfb3	-0.07318058
214	0xbda4cf2c	-0.080473274
215	0x3bca3186	0.0061704544
216	0xbdb4220c	-0.087955564
217	0x3cb43e3d	0.022002334
218	0xbd9d6336	-0.076849386
219	0xbd661f2c	-0.05618207
220	0x3c47fd27	0.012206352
221	0xbdf4cdaa	-0.1195329
222	0xbdf19d52	-0.117975846
223	0x3cc0d198	0.023537442
224	0x3b8a962e	0.0042293286
225	0xbd729ea1	-0.05923331
226	0xbdc0ea7a	-0.09419723
227	0xbdd1e157	-0.10248058
228	0x3c8fbfa6	0.01754744
229	0xbd1536d7	-0.036429252
230	0x3c572af9	0.013132804
231	0x3c430e79	0.011905306
232	0xbc96d147	-0.018410338
233	0xbbef8b52	-0.0073103094
234	0x3b0bf387	0.002135487
235	0xbd5351fb	-0.051591855
236	0xbb4f658f	-0.0031646227
237	0xbccbd425	-0.024881432
238	0x3cc5416f	0.024079053
239	0xbdc2b9b8	-0.09508079
240	0x3cf427fd	0.029804224
241	0xbc102009	-0.0087967
242	0x3cb9f806	0.022701275
243	0xbd73820f	-0.059450205
244	0xbd696fad	-0.056991268
245	0xbd9fa03f	-0.077942364
246	0xbdcf01e0	-0.101077795
247	0xbc7ca5f3	-0.015420425
248	0xbd4d9811	-0.05019385
249	0xbdad22e8	-0.084539235
250	0xbc894c03	-0.016759878
251	0xbcc0768d	-0.02349403
252	0xbd8ef1a0	-0.0697968
253	0x3c69055d	0.01422247
254	0xbdbc3be8	-0.09191114
255	0x3c6e1f94	0.014533896

model.3.bias f4 [320]
0	0xbdd1582f	-0.10221898
1	0xbffe94e9	-1.9889194
2	0xc0172092	-2.361363
3	0xbf58cbae	-0.8468579
4	0xbf3f662e	-0.7476529
5	0xbf05442b	-0.5205714
6	0xbf5729ff	-0.84048456
7	0xbf15050e	-0.5821084
8	0xbf83298d	-1.0247055
9	0xbdb725c4	-0.0894275
10	0xbf0d083d	-0.55090696
11	0xbec6c829	-0.38824585
12	0xbe9af963	-0.30268392
13	0xbfae46d0	-1.361536
14	0xbfc088fe	-1.5041807
15	0xbfc44a25	-1.5335127
16	0xbf05c4c5	-0.5225337
17	0xbf5fc4c7	-0.87409633
18	0xbf27abe1	-0.6549664
19	0xbf950b2e	-1.1644037
20	0xbf215678	-0.63022566
21	0xbf7f1560	-0.9964199
22	0xbe31087e	-0.17288396
23	0xbe8e285f	-0.27765176
24	0xbe21a5b6	-0.1578587
25	0xbe4352eb	-0.190746
26	0xbf694cbf	-0.9113273
27	0xbf8f4123	-1.1191753
28	0xbf707a64	-0.93936753
29	0xbf81cfb3	-1.014151
30	0xbfd3342d	-1.6500298
31	0xbe16f3a8	-0.14741385
32	0xbf9a0d1b	-1.203525
33	0xbf10e94f	-0.56606
34	0xbfb6fd82	-1.4296114
35	0xbf784cba	-0.96992075
36	0xbe586b3a	-0.21134654
37	0xc05be403	-3.4357917
38	0xbf8390e7	-1.0278596
39	0xbf8eaeeb	-1.1147131
40	0xbf241de4	-0.6410811
41	0xbe59cd20	-0.21269655
42	0xbf053d79	-0.52046925
43	0xbf3c2e2d	-0.7350796
44	0xbf92f77d	-1.1481777
45	0xbf1d982f	-0.6156034
46	0xbf9ec83e	-1.2404859
47	0xbefd9998	-0.49531245
48	0xbfced7d2	-1.6159613
49	0xbf138ad2	-0.576337
50	0xbf762834	-0.96155095
51	0xbf516a52	-0.81802857
52	0xbf7a1351	-0.97685724
53	0xc00d4d1e	-2.2078319
54	0xbfa82fc4	-1.3139577
55	0xbe2dd569	-0.16975941
56	0xbf4f4593	-0.80965537
57	0xbf299ff8	-0.6625972
58	0xbf1a6a05	-0.6031802
59	0xbf07fdb1	-0.5312148
60	0xbf9803e7	-1.1876191
61	0xbf03f516	-0.51545846
62	0xbde28cf5	-0.11062042
63	0xbf9768a4	-1.1828809
64	0xbf993ddc	-1.1972003
65	0xbf025a06	-0.50918615
66	0xbeb21878	-0.34784293
67	0xbe609369	-0.21931233
68	0xbf8c4319	-1.0957977
69	0xbf0089d8	-0.5021033
70	0xbef454ad	-0.47720852
71	0xbe924da8	-0.28574872
72	0xbf80f717	-1.0075406
73	0xbf9c8632	-1.2228453
74	0xbfd42a09	-1.6575328
75	0xbf434b7a	-0.76287043
76	0xbe7ef188	-0.24896824
77	0xbfaa553e	-1.3307264
78	0xbf719b3d	-0.943775
79	0xbf92a850	-1.1457615
80	0xbeea7a46	-0.45796412
81	0xbeaf9549	-0.34293583
82	0xbf69ea84	-0.9137347
83	0xbea290a1	-0.31750968
84	0xbfc67238	-1.5503607
85	0xbf35f46e	-0.71076095
86	0xbebc00fa	-0.36719495
87	0xbfd25c4f	-1.643442
88	0xbd94e9e3	-0.07271173
89	0xbf50428b	-0.81351537
90	0xbf939df3	-1.1532577
91	0xbf361dc0	-0.71139145
92	0xbffbbe70	-1.9667492
93	0xbf5446f3	-0.8292076
94	0xc0173911	-2.362858
95	0xc01ecfba	-2.4814286
96	0xbf87a9b8	-1.0598669
97	0xc0023b02	-2.0348516
98	0xbf0081a6	-0.5019783
99	0xbef95831	-0.48700097
100	0xbf151219	-0.5823074
101	0xbe85b505	-0.2611467
102	0xbfa6c803	-1.3029789
103	0xbf86aecf	-1.0522097
104	0xbfaee494	-1.3663507
105	0xc0281f0c	-2.626895
106	0xbf97e2c2	-1.1866076
107	0xbf833fde	-1.0253866
108	0xbf715825	-0.9427512
109	0xbf2b3bc7	-0.6688809
110	0xbf943f40	-1.1581802
111	0xbef42260	-0.47682476
112	0xbf13e0c6	-0.5776485
113	0xbf1fa468	-0.6236024
114	0xbf085423	-0.5325338
115	0xc02c61a6	-2.69346
116	0xbf960680	-1.1720734
117	0xbe5ad220	-0.21369219
118	0xbf44e19f	-0.7690677
119	0xbed59f47	-0.4172308
120	0xc00a40b6	-2.1601996
121	0xbf2c7d3d	-0.673786
122	0xbf3454e3	-0.70442027
123	0xbfb66380	-1.4249115
124	0xbfa57f72	-1.2929518
125	0xbfb30512	-1.3985922
126	0xbf19c989	-0.60073143
127	0xbe7a075c	-0.2441687
128	0xbf7c5dd3	-0.98580664
129	0xbe9836ec	-0.29729402
130	0xbf9c92f7	-1.223235
131	0xbfba0aed	-1.4534584
132	0xc046d1be	-3.1065516
133	0xbe8839d1	-0.2660661
134	0xbe818270	-0.25294828
135	0xbdbfaa8b	-0.093587
136	0xbe9efe2f	-0.31053302
137	0xbf0ad3d1	-0.54229456
138	0xbf345351	-0.7043963
139	0xbf36d336	-0.7141603
140	0xbf6847be	-0.9073447
141	0xbf2a1b69	-0.66448075
142	0xbee1a626	-0.44072074
143	0xbe61c4f2	-0.22047785
144	0xbf08d9c4	-0.53457284
145	0xbf6dcd4b	-0.9289138
146	0xbf0b5c45	-0.5443767
147	0xbf112fa0	-0.56713295
148	0xbf0d83db	-0.5527932
149	0xbf2c6c12	-0.673524
150	0xbf154ff7	-0.5832514
151	0xbf870133	-1.0547241
152	0xbf705300	-0.9387665
153	0xbfa74cfd	-1.307037
154	0xc0093958	-2.144125
155	0xc013447d	-2.3010552
156	0xbe8380a5	-0.25684085
157	0xbed6b455	-0.41934457
158	0xbf42a137	-0.76027244
159	0xbf062b35	-0.5240968
160	0xbea1d6ef	-0.31609294
161	0xc00c2f97	-2.1904047
162	0xbfa520c3	-1.2900623
163	0xbf8188b9	-1.011985
164	0xbf8aca47	-1.084298
165	0xbe376288	-0.1790868
166	0xbf59867d	-0.8497084
167	0xbdbaa28f	-0.09113037
168	0xbf532bf9	-0.8248897
169	0xbf3b0fd1	-0.7307101
170	0xbfd81625	-1.6881758
171	0xbf4cfb95	-0.80071384
172	0xbf3f1cfc	-0.746536
173	0xbf666555	-0.8999837
174	0xbf05ebfa	-0.52313197
175	0xbf14fc1e	-0.581972
176	0xbeef703b	-0.46765313
177	0xbe9ed785	-0.31023803
178	0xbf8d4d8f	-1.1039294
179	0xbef5e065	-0.48022762
180	0xbf1ad3d5	-0.6047948
181	0xbd9b15db	-0.07572528
182	0xbf0a8bc4	-0.54119515
183	0xbf79c582	-0.97567
184	0xbee51043	-0.4473897
185	0xbf10ebd8	-0.5660987
186	0xbf4ee8c5	-0.8082393
187	0xbf962259	-1.1729232
188	0xbf654f00	-0.8957367
189	0xc0153f0e	-2.3319736
190	0xbfb0ff3f	-1.3827895
191	0xbf2a0c3d	-0.66424924
192	0xbe3b9314	-0.18317825
193	0xbda5fc49	-0.0810476
194	0xbe7ba5ef	-0.24575017
195	0xbf05650e	-0.5210732
196	0xbf52bd9f	-0.8232059
197	0xbf27560f	-0.6536569
198	0xbf8df7c5	-1.1091238
199	0xbf9300ce	-1.148462
200	0xbf26f27d	-0.6521376
201	0xbf41ed36	-0.7575258
202	0xbfdd9c3b	-1.7313303
203	0xbeddf3b3	-0.4334999
204	0xbfdc5ed4	-1.7216439
205	0xbfa82fa5	-1.313954
206	0xbed06295	-0.40700212
207	0xbf740995	-0.9532712
208	0xbfa4e0c3	-1.2881092
209	0xbf735f10	-0.9506693
210	0xbf972459	-1.1807967
211	0xbf1326e4	-0.5748122
212	0xbf74e3c5	-0.9566005
213	0xbf5dd535	-0.86653453
214	0xbf127e43	-0.5722391
215	0xbf9c63b4	-1.2217927
216	0xbfc86c21	-1.5657998
217	0xbf312cc1	-0.69208914
218	0xbfa43c0d	-1.2830826
219	0xbf4b4e82	-0.7941667
220	0xbfc10fc8	-1.5082941
221	0xbf673bf9	-0.90325886
222	0xbfc5d82b	-1.5456594
223	0xbfdf5224	-1.7446942
224	0xbfb15404	-1.3853765
225	0xbfc9ec47	-1.5775231
226	0xbf82e0f6	-1.0224903
227	0xbf5b0c1f	-0.8556537
228	0xbf9fe2c8	-1.2491083
229	0xbf4ddcfa	-0.8041531
230	0xbf819acb	-1.0125364
231	0xbe980124	-0.2968837
232	0xbdf9559a	-0.1217453
233	0xbf9543c0	-1.1661301
234	0xbf445ca0	-0.76703835
235	0xbf1d3154	-0.61403394
236	0xbf78d037	-0.9719271
237	0xbeac4f5c	-0.33654296
238	0xbdd97a15	-0.106189884
239	0xbf9c5946	-1.2214744
240	0xbff1587f	-1.8855132
241	0xbf6b91ed	-0.9201954
242	0xbf9a0929	-1.2034045
243	0xbf05b002	-0.5222169
244	0xbf981fdf	-1.1884726
245	0xbfa0b80a	-1.2556164
246	0xbfac54ef	-1.346342
247	0xbef2ea86	-0.47444552
248	0xbf5d3a2f	-0.86416906
249	0xbf945002	-1.1586916
250	0xbfc7770a	-1.5583203
251	0xbf851013	-1.039553
252	0xbe9a6a7b	-0.30159363
253	0xbf3f2285	-0.7466205
254	0xbf6740e5	-0.90333396
255	0xbfb8f37f	-1.4449309

model.6.weight f4 [1, 320]
0	0xbd95ecd2	-0.073205605
1	0x3e3db82a	0.18527284
2	0xbe564b3e	-0.2092714
3	0xbe5959c3	-0.21225648
4	0xbe84b4b4	-0.25919116
5	0xbf4cb3ab	-0.7996165
6	0xbe714e34	-0.23564988
7	0xbef0266d	-0.46904317
8	0xbdb0241f	-0.086006396
9	0xbda38c85	-0.07985786
10	0xbe63a52c	-0.22230977
11	0x393be29c	0.00017918128
12	0x3d8904b5	0.06690351
13	0xbda9b64d	-0.08286724
14	0xbf6d49ca	-0.9269072
15	0x3f0a7586	0.54085577
16	0xbe02080b	-0.1269838
17	0x3e9d1726	0.30681723
18	0xbd66b67d	-0.056326378
19	0xbf714682	-0.9424821
20	0xbfab7b8d	-1.339708
21	0x3dd55a6c	0.10417637
22	0x3e24512d	0.16046591
23	0x3d6d8e29	0.057996903
24	0x3f57ad71	0.84249026
25	0x3e14b8b9	0.14523591
26	0xbe834873	-0.25641212
27	0x3ed51951	0.41620877
28	0x3e775af2	0.24155787
29	0x3f2149f8	0.6300349
30	0xbe3534e7	-0.17695962
31	0xbdd3bb45	-0.10338453
32	0x3f82268b	1.0168012
33	0xbc9c54e8	-0.019083455
34	0x3f8a8fcd	1.0825135
35	0xbf5a9c96	-0.8539518
36	0xbd53c2ac	-0.051699325
37	0x3f2b32de	0.6687449
38	0x3e43cd6e	0.19121334
39	0x3d06e67f	0.032934662
40	0xbf076dac	-0.5290172
41	0x3d8c0309	0.068365164
42	0xbee0a259	-0.4387386
43	0x3f48f2e2	0.7849561
44	0x3f7f426f	0.99710745
45	0xbf803c8c	-1.0018477
46	0xbcc1af05	-0.023643026
47	0x3efd4e75	0.4947392
48	0xbf119180	-0.5686264
49	0xbdab3385	-0.08359436
50	0x3e95268a	0.29130965
51	0xbecfe225	-0.40602222
52	0x3ec721e1	0.38893035
53	0x3f94872a	1.1603749
54	0xbf226085	-0.6342853
55	0x3ded0312	0.11572851
56	0xbf02219b	-0.5083253
57	0xbf9d8b32	-1.2308104
58	0xbf16a9b0	-0.5885267
59	0x3e34b049	0.17645372
60	0xbe18d376	-0.14924416
61	0xbda79755	-0.08183161
62	0x3d5fed4e	0.05466967
63	0x3f820678	1.0158224
64	0x3f8003b4	1.000113
65	0xbf37a754	-0.717397
66	0x3d9dc850	0.07704222
67	0xbd34716c	-0.04405348
68	0x3ec5459f	0.3852968
69	0x3b6997d3	0.0035643473
70	0xbda9f96e	-0.08299528
71	0xbdd3bde7	-0.103389554
72	0x3f4ee677	0.8082041
73	0xbeae56e4	-0.34050667
74	0xbe61ae60	-0.22039175
75	0x3f3394e2	0.7014905
76	0x3a5c4dac	0.0008403908
77	0x3f81d212	1.0142233
78	0x3b90b74f	0.0044163833
79	0x3f8406d6	1.0314586
80	0xbf37d92f	-0.7181577
81	0xbeab1501	-0.33414462
82	0x3f84f4b0	1.0387173
83	0xbf12f0d2	-0.5739871
84	0xbf77e6d3	-0.96836585
85	0xbf364cf5	-0.7121118
86	0x3d5e1b08	0.054224998
87	0x3e2e9417	0.1704868
88	0xbd75c8b4	-0.06000586
89	0x3f17c95b	0.5929162
90	0x3f85cc4f	1.0452975
91	0xbf115aa0	-0.5677891
92	0xbf051ae4	-0.51994157
93	0xbf0e2515	-0.5552533
94	0xbe46085a	-0.19339123
95	0x3f5066eb	0.8140704
96	0x3ebe09b8	0.3711679
97	0x3f1f7a46	0.6229595
98	0xbf883431	-1.0640928
99	0xbe926dc4	-0.2859937
100	0xbda68f70	-0.08132827
101	0x3d447bc0	0.04796958
102	0x3f79530f	0.9739236
103	0x3c7e9369	0.015538075
104	0xbdeac9a0	-0.11464238
105	0xbf270a9d	-0.6525057
106	0x3f862739	1.048072
107	0x3dfe6b3a	0.124227956
108	0x3e6d998c	0.23203105
109	0xbd030704	-0.031989112
110	0x3f7c4b69	0.98552567
111	0x3cf142ea	0.029450852
112	0xbd3871cc	-0.0450304
113	0xbed7ca83	-0.42146692
114	0xbec4c21b	-0.3842934
115	0xbf6d2536	-0.92634904
116	0x3f1e0494	0.61725736
117	0xbe153164	-0.14569622
118	0x3f805c57	1.002818
119	0xbcc6178c	-0.02418115
120	0x3e1f5452	0.1555951
121	0xbf8ce33f	-1.100685
122	0x3f894d00	1.0726624
123	0xbf53ba7f	-0.82706445
124	0x3f2e60c6	0.68116415
125	0x3f6cdf30	0.9252806
126	0xbd6fe727	-0.058570053
127	0x3b374954	0.002796729
128	0xbf45e4ea	-0.7730242
129	0x3d985750	0.074385285
130	0x3f2306dd	0.6368235
131	0xbf2255a6	-0.6341194
132	0xbf11d369	-0.5696321
133	0xbe262e2e	-0.16228554
134	0xbc34c46e	-0.011033161
135	0x3d8c2575	0.06843082
136	0xbd055844	-0.03255488
137	0x3b9eb91d	0.0048438446
138	0xbf05a849	-0.5220991
139	0xbd015414	-0.031574324
140	0xbd955a2e	-0.07292591
141	0xbbfb0815	-0.0076608756
142	0xbf0d5f2d	-0.5522335
143	0xbd472eae	-0.0486285
144	0x3c85cb9b	0.016332438
145	0xbf981f1b	-1.1884493
146	0x3e0c7004	0.13714606
147	0x3f333e3e	0.7001685
148	0xbea10907	-0.314522
149	0xbde18693	-0.11011996
150	0xbeae2d29	-0.3401883
151	0xbef211ed	-0.472793
152	0xbdfd3616	-0.12363832
153	0x3ea74ee1	0.32677367
154	0xbf55fe38	-0.8359103
155	0x3f4fc967	0.8116669
156	0x3d8d2f86	0.0689383
157	0xbf42369d	-0.75864583
158	0xbe1c562d	-0.15267248
159	0xbf64ab57	-0.89323944
160	0xbba04eb7	-0.004892196
161	0x3f997c7e	1.1991117
162	0x3f5d783e	0.865116
163	0x3ee13b85	0.43990722
164	0x3f1aae3c	0.6042211
165	0xbd3d299d	-0.046182264
166	0xbf753290	-0.9578028
167	0xbd118c22	-0.03553403
168	0x3c6f48f4	0.014604796
169	0xbf16e957	-0.589498
170	0x3f278f2f	0.65452856
171	0x3f8417b8	1.0319738
172	0x3d888d93	0.06667628
173	0x3e115680	0.14193153
174	0x3c198e3b	0.009372289
175	0xbef1a743	-0.47197923
176	0x3d90572c	0.07047877
177	0x3e3b21b1	0.18274571
178	0x3f7834df	0.96955675
179	0xbecc442d	-0.39895764
180	0x3d1a9da9	0.037748013
181	0xbba7eb78	-0.0051245056
182	0x3f5de8a5	0.8668311
183	0xbc236e94	-0.009975094
184	0x3ebfad10	0.37436724
185	0xbf5061fb	-0.81399506
186	0x3f86e256	1.0537822
187	0x3f819b32	1.0125487
188	0xbece126a	-0.40248424
189	0xbf1e8739	-0.61925083
190	0xbeb23363	-0.3480483
191	0x3f88101d	1.0629917
192	0xbc58e390	-0.013237849
193	0x3d9d4eba	0.076810315
194	0x3da876ef	0.0822581
195	0xbcc1d269	-0.023659902
196	0xbf78cf3c	-0.97191215
197	0x3e5e7e0c	0.2172777
198	0xbe4d35ba	-0.20040026
199	0xbf6ad719	-0.9173446
200	0xbf051eb3	-0.5199997
201	0x3f4a45a0	0.7901249
202	0xbf11200b	-0.5668952
203	0xbe0441dc	-0.12915748
204	0xbf4247fb	-0.75891083
205	0xbf92108b	-1.1411299
206	0x3dc4be46	0.09606604
207	0x3ebc314a	0.36756355
208	0xbeef5006	-0.4674074
209	0xbea9b4f2	-0.33145863
210	0x3e0d6acf	0.13810275
211	0x3f85bda6	1.0448501
212	0xbf080c3c	-0.5314367
213	0xbee27b0f	-0.4423451
214	0xbc2fa5a6	-0.010720646
215	0xbf855468	-1.0416384
216	0x3f70617f	0.9389877
217	0xbf04ddab	-0.5190074
218	0x3dc11b76	0.09429066
219	0xbc179fe8	-0.009254433
220	0x3f45d210	0.77273655
221	0xbe39ca14	-0.18143493
222	0x3e46e1db	0.19422095
223	0x3f458bb1	0.7716628
224	0x3e13f892	0.14450291
225	0xbf27da57	-0.65567535
226	0x3e68e88e	0.22744963
227	0x3f02a685	0.5103534
228	0x3dbe877c	0.09303185
229	0x3f86e957	1.053996
230	0x3f82f2c1	1.0230333
231	0x3c07175d	0.008245316
232	0x3da6feea	0.0815409
233	0x3f7a1389	0.9768606
234	0xbdf62543	-0.12018826
235	0xbdbe9332	-0.09305419
236	0xbc9f9847	-0.019481791
237	0x3e9437a3	0.28948697
238	0x3d1c131f	0.038104173
239	0x3f13b147	0.5769238
240	0x3ea25f6d	0.3171343
241	0xbe879e30	-0.26487875
242	0x3f82d78e	1.0222032
243	0xbc71b74b	-0.014753173
244	0x3f81d443	1.0142902
245	0x3bf47508	0.0074602403
246	0xbf28fd9c	-0.6601198
247	0xbd1fbdbd	-0.038999308
248	0xbe657a7f	-0.2241001
249	0x3f01e8cd	0.5074585
250	0xbf3d89b1	-0.74038225
251	0xbefbe7d1	-0.492003
252	0x3dcc7c6f	0.09984671
253	0x3e89ee17	0.2693946
254	0x3f854e20	1.0414467
255	0x3eba0ac0	0.36336327
