code/seed3/cGAN_generator.pth (torch, 672590 bytes, 6 tensors)

model.0.weight f4 [256, 111]
-0.01141831 -0.09925725 -0.0520292 0.0974563 -0.19606632 -0.009962643 -0.040637087 -0.07116669
0.029878356 -0.033301942 -0.08310867 0.06918289 0.002625603 0.05928922 0.08054407 0.1628318
0.18811125 -0.21774563 0.16182357 0.12574385 0.10720747 -0.13202403 0.11853579 0.09301532
-0.05394105 -0.17548583 0.104646705 -0.012461202 0.11539283 0.10856744 0.04310896 -0.0060150228
-0.052972615 -0.10816276 -0.3652858 -0.0760069 -0.015100926 -0.0715307 -0.0060960352 -0.084414594
-0.012547451 -0.2160451 0.06484412 0.006943385 0.024841428 0.10286232 0.097499326 -0.006062475
-0.13737158 -0.22262433 0.0130823655 0.01693219 0.028651016 -0.08904021 -0.019039951 0.022976294
0.1795059 -0.052677836 -0.0960222 -0.037620775 0.09926461 0.19454746 -0.114275455 9.3972005e-05
0.065212525 -0.15826285 -0.11668057 0.0357057 -0.015503301 0.06370844 -0.02936684 -0.11102335
0.028330695 0.060506415 -0.06910673 -0.07314039 0.15059109 -0.09307941 0.16658242 -0.07533897
0.002596074 0.0397728 0.0029276167 0.038125854 -0.1372335 0.04841017 0.09209188 -0.0780684
-0.091277756 -0.12325218 0.14745097 0.050619658 0.054555554 0.033538982 -0.06568398 -0.089682765
-0.09404921 -0.0066950405 0.0305541 -0.096378766 0.0031131885 -0.06303962 0.21331537 -0.0726916
0.05883843 0.0065072714 0.11333841 -0.09278683 -0.04414255 -0.104248516 -0.13778923 0.20164181
0.07581117 -0.014849408 0.22135639 0.17195946 -0.1660796 0.008377542 -0.012743404 0.017686434
0.02911179 -0.08331241 0.07441034 -0.14581537 0.045994364 0.056013744 -0.017588679 0.09106732
-0.023256091 0.18193164 -0.012881486 0.028446274 0.1884297 0.25798824 -0.12265345 -0.072197296
-0.15300895 0.17414874 -0.057326082 0.16529444 -0.07267114 -0.07106743 -0.035367798 -0.00388929
-0.01677775 -0.10044987 -0.09615743 -0.11395845 0.002695751 0.08688063 0.029866695 0.00725215
0.120405145 -0.021754907 -0.104856774 0.062909454 0.07818227 -0.14681551 -0.056494888 0.19134144
0.017222509 -0.13216047 -0.09434202 -0.010698698 -0.019271484 -0.037418574 0.14898847 -0.1009381
-0.2007384 0.04819387 0.056066614 -0.052795105 0.026291253 -0.1146784 -0.014067468 0.0338695
-0.08470171 0.054891817 -0.0029289462 -0.186392 0.14901234 -0.12585852 -0.13919505 0.0053024446
0.16651507 0.02015422 -0.11544438 0.022511063 -0.17186442 -0.07108967 -0.10744788 -0.056812234
-0.029713139 -0.043028135 0.11355481 -0.07896523 0.15056542 0.08751566 -0.08698766 0.042841572
-0.121891536 0.080658026 -0.050209004 0.2107952 0.1784459 -0.10887591 0.041050766 -0.09068048
0.14776681 0.058286667 0.08748579 0.0699192 -0.07085199 0.22614266 0.061003804 0.072931886
-0.052343596 -0.045453917 -0.13249575 0.051604472 -0.053715836 -0.04545952 0.117700696 -0.1208581
-0.09078558 0.18655057 0.22158064 0.027025856 0.13437591 0.068716325 0.16066733 -0.1445044
0.055796154 -0.15216784 -0.11695805 0.05272404 -0.053310636 -0.02779516 -0.05043086 -0.22509824
0.062993996 -0.02960065 0.13773973 0.2047929 0.12036983 -0.06799598 0.13494988 0.011613106
-0.034618605 0.082745984 0.18505709 0.05115255 -0.07938936 -0.12406135 -0.13783355 0.2287813
00000000: dd13 3bbc 6347 cbbd 921c 55bd 2b97 c73d
00000010: 9cc5 48be 5a3a 23bc 1373 26bd d7bf 91bd
00000020: 74c3 f43c 9e67 08bd e134 aabd c2af 8d3d
00000030: 4f12 2c3b 41d9 723d 4af4 a43d 61bd 263e
00000040: 3ca0 403e b6f8 5ebe 14b5 253e ffc2 003e
00000050: 978f db3d 4f31 07be e4c2 f23d d17e be3d
00000060: 4af1 5cbd 8fb2 33be 0351 d63d 122a 4cbc
00000070: 1353 ec3d 9b58 de3d 0593 303d ab19 c5bb
00000080: d0f9 58bd 7084 ddbd be06 bbbe 81a9 9bbd
00000090: e069 77bc b07e 92bd 40c1 c7bb 8fe1 acbd
000000a0: d393 4dbc ed3a 5dbe fecc 843d 5685 e33b
000000b0: 4080 cb3c 7ba9 d23d baad c73d baa7 c6bb
000000c0: 23ab 0cbe a2f7 63be 6b57 563c 60b5 8a3c
000000d0: 89b5 ea3c b75a b6bd acf9 9bbc c838 bc3c
000000e0: 65d0 373e b7c4 57bd 4aa7 c4bd 3e18 1abd
000000f0: 3e4b cb3d 7337 473e 4009 eabd d612 c538
00000100: 258e 853d a80f 22be 39f6 eebd 2440 123d
00000110: 8f01 7ebc 9279 823d ba92 f0bc 3660 e3bd
00000120: c615 e83c 93d5 773d d487 8dbd a1ca 95bd
00000130: 8d34 1a3e 6ba0 bebd 9594 2a3e 514b 9abd
00000140: e522 2a3b cee8 223d 42dd 3f3b db29 1c3d
00000150: f086 0cbe be49 463d ab9a bc3d 53e2 9fbd
00000160: d5ef babd a46b fcbd 63fd 163e 8f56 4f3d
00000170: a575 5f3d 2c60 093d 5385 86bd 99ab b7bd
00000180: df9c c0bd 1262 dbbb 984c fa3c 3b62 c5bd
00000190: a306 4c3b eb1a 81bd 586f 5a3e 55df 94bd
000001a0: 9100 713d f33a d53b f81d e83d 0607 bebd
000001b0: d2ce 34bd 3f80 d5bd 9f18 0dbe 317b 4e3e
000001c0: e342 9b3d ee4a 73bc 40ab 623e 2416 303e
000001d0: c510 2abe f541 093c b6c9 50bc 24e3 903c
000001e0: d97b ee3c b29f aabd 7364 983d a050 15be
000001f0: 9664 3c3d ab6e 653d 2216 90bc 8181 ba3d
00000200: 8f83 bebc 4a4c 3a3e de0c 53bc 2908 e93c
00000210: b7f3 403e 0917 843e bb31 fbbd 2ddc 93bd
00000220: 61ae 1cbe 0c54 323e c1ce 6abd f242 293e
00000230: 9bd4 94bd cd8b 91bd d3dd 10bd 75e3 7ebb
00000240: 7e71 89bc a9b8 cdbd 30ee c4bd 0c63 e9bd
00000250: 32ab 303b 79ee b13d 00ab f43c 72a3 ed3b
00000260: f996 f63d 5937 b2bc 26bf d6bd acd6 803d
00000270: 071e a03d ce56 16be 2f67 67bd 03ef 433e
00000280: 3816 8d3c 1355 07be 6436 c1bd 9849 2fbc
00000290: 3bdf 9dbc 3844 19bd 6f90 183e a2b8 cebd
000002a0: 5e8e 4dbe ef66 453d 1ba6 653d ae3f 58bd
000002b0: c160 d73c 82dc eabd 3d7b 66bc bfba 0a3d
000002c0: 1778 adbd 3ed6 603d 90f3 3fbb 8bdd 3ebe
000002d0: b196 183e 0ee1 00be 2689 0ebe 21c0 ad3b
000002e0: ed82 2a3e 761a a53c 1a6e ecbd 1f69 b83c
000002f0: 3afd 2fbe 7697 91bd a20d dcbd f2b3 68bd
00000300: f868 f3bc 453e 30bd 6d8f e83d 86b8 a1bd
00000310: d22d 1a3e 693b b33d 9626 b2bd a57a 2f3d
00000320: 45a2 f9bd 0930 a53d f5a7 4dbd b2da 573e
00000330: 86ba 363e 55fa debd d924 283d b0b6 b9bd
00000340: 2f50 173e 00be 6e3d c02b b33d cc31 8f3d
00000350: d91a 91bd f191 673e 20df 793d 505d 953d
00000360: 3d66 56bd e32d 3abd f7ac 07be 365f 533d
00000370: 2305 5cbd c333 3abd 100d f13d 7484 f7bd
00000380: caed b9bd 1d07 3f3e 09e6 623e 5465 dd3c
00000390: d799 093e 25bb 8c3d fa85 243e f6f8 13be
000003a0: 828a 643d e3d1 1bbe b487 efbd 2af5 573d
000003b0: 415c 5abd adb2 e3bc 9790 4ebd 2780 66be
000003c0: ff02 813d 107d f2bc a50b 0d3e 3bb5 513e
000003d0: 7584 f63d 7a41 8bbd 4d30 0a3e e644 3e3c
000003e0: 3dcc 0dbd ba76 a93d 9b7f 3d3e 5685 513d
000003f0: e496 a2bd e113 febd 3d24 0dbe a545 6a3e

model.0.bias f4 [256]
-0.02040373 -0.07220673 -0.046546135 -0.08263245 -0.055395633 -0.11660623 -0.014279204 -0.05492945
-0.121796444 -0.19071539 -0.14504236 -0.112843595 -0.24383593 -0.114333645 -0.14026149 -0.18104325
-0.14792867 -0.08851574 -0.15082039 -0.028908143 0.027335642 -0.024700189 -0.1894867 -0.22056606
-0.05926287 0.012373605 0.011918171 -0.038280003 -0.12255243 -0.23896919 -0.13088843 -0.20147753
-0.07019769 -0.109592274 -0.13482459 -0.028171273 0.04171881 -0.1465385 -0.07060047 -0.0980996
-0.011922847 -0.017985467 -0.098029815 0.019320829 0.024056433 -0.17273104 -0.21131591 -0.043275166
-0.18975629 -0.025361896 -0.15269214 -0.069056265 -0.04257084 -0.0051958663 0.0049654273 -0.119143516
-0.08353494 -0.18088144 -0.111683376 -0.04831377 -0.10555829 -0.12792778 0.010524705 -0.113695905
0.0042378493 -0.10718801 -0.23642525 -0.17425956 -0.14129737 -0.10039632 0.013934084 -0.11729925
0.0077926083 -0.112605825 -0.18099058 -0.11367479 -0.2057672 -0.043201014 -0.113590255 -0.18510176
-0.086800955 -0.15968989 -0.11499147 -0.12982519 -0.20934461 -0.15151145 -0.16729318 -0.26949358
-0.23919417 -0.10621635 -0.091957405 -0.13314907 -0.15466247 -0.12226319 -0.06889992 -0.14550146
-0.33655527 -0.1069023 -0.026599808 -0.10239933 -0.14948934 -0.09375357 -0.11304562 0.112373926
-0.08847376 -0.1233985 0.00029452392 -0.23512611 -0.041369274 -0.23175517 -0.061567746 -0.098881535
-0.13826811 -0.070015945 0.054351255 -0.023024019 -0.14233133 -0.054664962 -0.15382116 -0.056676853
-0.105567425 0.019200828 -0.13876955 -0.14753254 -0.08097899 -0.12682666 -0.12946236 -0.14629202
-0.2071144 -0.035736877 -0.13216446 -0.119247094 -0.073437415 -0.08004137 -0.3405603 -0.06041536
-0.24080634 -0.04637855 -0.16322652 -0.045180637 -0.038520835 -0.03502219 -0.032019045 -0.14006214
-0.028105933 -0.035136428 -0.15325537 -0.12788028 -0.26019573 -0.021765292 -0.09492759 -0.100234926
-0.22949284 -0.2381036 -0.048750706 -0.067150064 -0.06140901 -0.19308712 -0.1824577 -0.21065126
-0.058034662 -0.04870474 0.00824577 -0.18465117 -0.15309674 -0.12809263 -0.25994954 -0.16403267
0.0555319 -0.03331824 -0.11637579 -0.18183604 -0.106931254 -0.15824497 0.03481899 0.010398174
-0.28525352 -0.19822165 -0.14776832 -0.18777202 -0.108279675 -0.14700502 -0.11901436 -0.0655313
-0.067258984 -0.0931144 -0.13164961 -0.13947581 -0.19100527 -0.08153918 -0.14751269 -0.2101248
-0.22597559 -0.23531389 -0.06139983 -0.19013481 -0.13298261 -0.0094169695 -0.15768296 -0.08910478
-0.068616025 -0.01710983 -0.24137022 -0.07888724 0.0053959386 -0.20410612 -0.101180114 -0.022140188
-0.13511522 -0.2557881 -0.05275027 -0.14218059 0.007912581 -0.012013839 -0.003186747 -0.07040033
-0.17497517 -0.17430612 -0.02900841 0.047913626 -0.1702229 -0.009083182 -0.14275466 -0.33573487
-0.24131338 -0.21594168 -0.029059712 -0.22681192 -0.119523324 -0.17736496 -0.0012288946 -0.18471223
-0.17113282 -0.19369239 -0.0019265398 -0.22225341 -0.04536764 -0.012619603 -0.17349125 -0.08002951
-0.005622783 -0.15638728 -0.07585225 -0.08426344 -0.089711756 -0.17291887 -0.18521132 -0.3079723
-0.08042821 -0.00048236683 -0.13577846 0.003731535 -0.121350706 -0.045794528 -0.18844989 -0.23541026
00000000: b925 a7bc 1fe1 93bd 29a7 3ebd 343b a9bd
00000010: 88e6 62bd 3fcf eebd 53f3 69bc b4fd 60bd
00000020: 6a70 f9bd e54a 43be fc85 14be 8b1a e7bd
00000030: 20b0 79be c227 eabd b5a0 0fbe 6763 39be
00000040: 9d7a 17be be47 b5bd a970 1abe c5d0 ecbc
00000050: ffee df3c 0d58 cabc cd08 42be 12dc 61be
00000060: a0bd 72bd a9ba 4a3c 6f44 433c 7ecb 1cbd
00000070: c5fc fabd 57b4 74be 9e07 06be 2050 4ebe
00000080: cec3 8fbd ea71 e0bd 750f 0abe 71c7 e6bc
00000090: 58e1 2a3d 300e 16be fb96 90bd 71e8 c8bd
000000a0: 0b58 43bc 4256 93bc dbc3 c8bd b746 9e3c
000000b0: ff11 c53c 68e0 30be 3363 58be 4d41 31bd
000000c0: 794f 42be c0c3 cfbc 545b 1cbe 5f6d 8dbd
000000d0: c35e 2ebd 1642 aabb 06b5 a23b 8401 f4bd
000000e0: 5e14 abbd fc38 39be 41ba e4bd a9e4 45bd
000000f0: f22e d8bd 80ff 02be d06f 2c3c 66d9 e8bd
00000100: a8dd 8a3b 6385 dbbd 7619 72be 1971 32be
00000110: 42b0 10be 969c cdbd c94b 643c 973a f0bd
00000120: 2359 ff3b e29d e6bd 9855 39be 54ce e8bd
00000130: a3b4 52be 8cf3 30bd 02a2 e8bd 518b 3dbe
00000140: b3c4 b1bd bf85 23be a680 ebbd e5f0 04be
00000150: 6f5e 56be d125 1bbe e74e 2bbe 10fb 89be
00000160: 51ef 74be f587 d9bd 2a54 bcbd 3b58 08be
00000170: d75f 1ebe 2065 fabd 671b 8dbd 56fe 14be
00000180: f950 acbe 98ef dabd d7e7 d9bc bdb6 d1bd
00000190: bc13 19be df01 c0bd 7684 e7bd 4d24 e63d
000001a0: bb31 b5bd 5ab8 fcbd 556a 9a39 e6c4 70be
000001b0: d472 29bd 3a51 6dbe 762e 7cbd 6782 cabd
000001c0: 2896 0dbe 8564 8fbd 6c9f 5e3d de9c bcbc
000001d0: 4ebf 11be 5ee8 5fbd 4b83 1dbe fd25 68bd
000001e0: bc33 d8bd 0e4b 9d3c 9b19 0ebe c512 17be
000001f0: 50d8 a5bd d9de 01be c891 04be 93cd 15be
00000200: cc15 54be d560 12bd 1f56 07be d237 f4bd
00000210: 5b66 96bd bbec a3bd eb5d aebe 1976 77bd
00000220: f095 76be 6ff7 3dbd da24 27be 550f 39bd
00000230: 06c8 1dbd 6e73 0fbd 6726 03bd 736c 0fbe
00000240: 6a3e e6bc 37eb 0fbd faee 1cbe 0cf3 02be
00000250: 6038 85be 204d b2bc 6569 c2bd f847 cdbd
00000260: 2c00 6bbe 6ed1 73be d2ae 47bd f985 89bd
00000270: 0488 7bbd a1b8 45be 31d6 3abe f7b4 57be
00000280: c1b5 6dbd 9f7e 47bd 4419 073c 3215 3dbe
00000290: 64c5 1cbe b72a 03be 1b18 85be 2ef8 27be
000002a0: 6b75 633d b578 08bd 6e56 eebd 3a33 3abe
000002b0: c6fe dabd f80a 22be 5b9e 0e3d 1a5d 2a3c
000002c0: c00c 92be 9efa 4abe 9450 17be 4f47 40be
000002d0: bcc1 ddbd 7c88 16be cdbd f3bd 4635 86bd
000002e0: 14bf 89bd c3b2 bebd 28cf 06be bfd2 0ebe
000002f0: e396 43be 03fe a6bd 910d 17be f52a 57be
00000300: 2566 67be 20f6 70be 637e 7bbd b3b2 42be
00000310: 982c 08be a249 1abc a477 21be 917c b6bd
00000320: 8f86 8cbd ea29 8cbc c129 77be a28f a1bd
00000330: 6ad0 b03b 3201 51be 8537 cfbd 575f b5bc
00000340: a55b 0abe a8f6 82be ab10 58bd ca97 11be
00000350: c5a3 013c b1d5 44bc bed8 50bb 0c2e 90bd
00000360: b12c 33be 4e7d 32be 0ca3 edbc 1441 443d
00000370: e94e 2ebe a0d1 14bc 472e 12be 71e5 abbe
00000380: db1a 77be d11f 5dbe a20e eebc 6241 68be
00000390: a5c8 f4bd 299f 35be dc12 a1ba 3425 3dbe
000003a0: 713d 2fbe 4c57 46be f383 fcba 6696 63be
000003b0: 6bd3 39bd 74c2 4ebc b1a7 31be 83e6 a3bd
000003c0: 533f b8bb fd23 20be 6d58 9bbd 4f92 acbd
000003d0: ccba b7bd a511 31be 09a8 3dbe 8cae 9dbe
000003e0: 8cb7 a4bd 2ee6 fcb9 8209 0bbe c58c 743b
000003f0: b886 f8bd 0b93 3bbd 02f9 40be 630f 71be

model.3.weight f4 [512, 256]
-0.0020435243 -0.037658926 -0.014910607 0.005929838 -0.052642614 0.017940514 0.008794718 -0.019822633
-0.04021643 -0.027600244 -0.028173938 -0.0066913674 -0.00030950655 0.0049973186 -0.023222066 -0.011081182
-0.0044701854 0.041239712 -0.028900333 -0.00710422 -0.035947043 -0.04657241 -0.008801137 0.013890495
-0.003977721 -0.008887427 -0.035988964 -0.012600223 -0.0059574298 -0.0025323723 0.030869583 0.009620011
-0.008589594 0.014027888 0.006321287 -0.01533221 -0.006713426 -0.051090196 0.020201677 -0.006803143
-0.00831518 0.01953208 0.00428685 -0.024043605 -0.0011647457 -0.017566707 -0.032613143 -0.0047932127
-0.050638992 0.011524482 -0.03529584 -6.8535875e-05 0.008559331 0.0025009175 -0.023922589 0.007215841
-0.023150863 -0.002766052 -0.0130982725 -0.00238077 -0.019638468 -0.037507735 -0.017695388 -0.005829697
-0.039981283 0.024748508 -0.009999284 -0.021414896 0.004897233 -0.005229256 0.030075355 -0.006025453
-0.046036445 0.00071881735 -0.008875852 0.011606194 -0.04710185 9.837772e-05 0.028178027 -0.026658224
0.008873998 -0.023399428 0.0031507458 -0.016236795 -0.0042600795 -0.026537113 -0.012756831 -0.0023177867
0.0021102498 -0.018002348 0.011489985 -0.021713743 -0.0032726228 -0.00354102 -0.011428415 0.021733366
0.01518222 -0.030583529 0.029124163 -0.051584594 0.0025187184 -0.021799156 0.011996244 -0.008469654
-0.032113645 -0.02209407 -0.007633314 -0.04285682 -0.02805933 -0.015621477 -0.017284205 -0.011018745
0.007625004 0.015939204 0.007287914 0.0018999404 -0.02001415 0.0066388114 0.00022495065 0.011965606
0.0153518915 -0.0021973879 0.0074041123 -0.006779708 0.0016889478 0.010017523 -0.04618305 0.006926244
-0.02588525 -0.023967853 0.034520004 -0.019049326 -0.032062426 -0.024382332 -0.0073281513 -0.030354505
-0.007956981 0.024883175 -0.01023395 0.0029511175 -0.007192557 0.006532067 -0.034753613 -0.022841914
-0.004989241 -0.018169815 -0.004869077 -0.010861788 -0.0033001406 -0.027904056 -0.012175891 -0.060009975
0.0034090797 -0.021209646 -0.0012939257 -0.0122891385 -0.0008676002 0.0133086955 -0.0064007468 -0.047523774
-0.036149763 -0.054485895 -0.015590701 -0.011183468 0.0053908825 -0.006654728 -0.014923198 -0.009636163
-0.04231079 -0.02793126 -0.026007973 -0.033667937 -0.001981344 0.027510941 0.020712815 -0.029314283
-0.035486847 -0.025057785 -0.02268186 0.013807097 -0.005648744 -0.003547087 -0.0094000995 -0.0017073213
-0.003101067 -0.05091924 -0.011605784 -0.015028795 0.0054492657 0.010402019 0.02078661 -0.009853021
0.033567917 -0.04169992 0.005602824 -0.03159632 0.0026611234 -0.02288378 -0.024897596 -4.552375e-05
0.0019656343 -0.02099743 0.034965433 -0.021259194 -0.012055118 0.004538607 0.010797364 -0.011276443
-0.02866998 -0.029537136 -0.043966804 0.004386228 -0.0011399247 -0.007282203 0.024479143 -0.024097223
0.011424019 -0.004126453 -0.029382752 0.0004897986 -0.022068473 -0.06045078 0.011151656 -0.008503789
-0.01373713 0.010271657 0.029431418 -0.0049048453 -0.0053640134 -0.005767966 -0.022179779 -0.011454586
0.015352605 -0.06414963 0.03839051 0.0011178704 -0.02203876 0.014857052 -0.015412877 0.014220674
0.021468682 -0.0022942533 -0.014542492 -0.029096093 0.0007106887 -0.008040811 -0.042270854 0.013854804
-0.015430001 0.013478306 -0.069025025 0.0011988885 -0.027017955 0.001049162 -0.019677818 -0.03172391
00000000: a6ec 05bb 3f40 1abd 9e4b 74bc 164f c23b
00000010: c89f 57bd fcf7 923c b917 103c 1363 a2bc
00000020: fcb9 24bd e819 e2bc 08cd e6bc 4243 dbbb
00000030: 4445 a2b9 8cc0 a33b 343c bebc d98d 35bc
00000040: a27a 92bb f9ea 283d 64c0 ecbc 84ca e8bb
00000050: 353d 13bd b6c2 3ebd a532 10bc f594 633c
00000060: 8b57 82bb 929c 11bc 2a69 13bd 2a71 4ebc
00000070: 8b36 c3bb 28f6 25bb 35e2 fc3c 409d 1d3c
00000080: 5ebb 0cbc 3ad5 653c cc22 cf3b f333 7bbc
00000090: 4dfc dbbb f443 51bd fd7d a53c e6ec debb
000000a0: 653c 08bc be01 a03c b478 8c3b 18f7 c4bc
000000b0: 61aa 98ba 0ee8 8fbc 5c95 05bd 6210 9dbb
000000c0: d56a 4fbd 2ed1 3c3c 5f92 10bd ebba 8fb8
000000d0: 703c 0c3c 6fe6 233b 4ef9 c3bc dd72 ec3b
000000e0: e1a6 bdbc a746 35bb 239a 56bc b106 1cbb
000000f0: dae0 a0bc b6a1 19bd ebf5 90bc 0b07 bfbb
00000100: 6ac3 23bd 62bd ca3c 09d4 23bc 4b6e afbc
00000110: f878 a03b 2e5a abbb 9760 f63c 2a71 c5bb
00000120: b690 3cbd 046f 3c3a 066c 11bc e827 3e3c
00000130: dfed 40bd 2350 ce38 9bd5 e63c 5962 dabc
00000140: 3f64 113c 28b0 bfbc be7c 4e3b 0703 85bc
00000150: 2398 8bbb 5c64 d9bc 0702 51bc 02e6 17bb
00000160: 1e4c 0a3b a979 93bc 7d40 3c3c 05e1 b1bc
00000170: 8079 56bb 7510 68bb 3f3e 3bbc 2c0a b23c
00000180: d9be 783c 4f8a fabc cc95 ee3c 5e4a 53bd
00000190: 1511 253b 2594 b2bc e58b 443c 4ec4 0abc
000001a0: 9989 03bd a0fe b4bc e120 fabb a28a 2fbd
000001b0: aedc e5bc 39f1 7fbc 9b97 8dbc f787 34bc
000001c0: 2bdb f93b ef92 823c 74cf ee3b 6c07 f93a
000001d0: b7f4 a3bc 638a d93b bbe0 6b39 640b 443c
000001e0: 8086 7b3c 0d02 10bb 329e f23b 5028 debb
000001f0: af5f dd3a 8920 243c 702a 3dbd 8cf5 e23b
00000200: 4e0d d4bc 3b58 c4bc d964 0d3d 550d 9cbc
00000210: e453 03bd 75bd c7bc fd20 f0bb 03aa f8bc
00000220: ff5d 02bc cdd7 cb3c 4cac 27bc 8967 413b
00000230: 8baf ebbb f30a d63b ce59 0ebd f71e bbbc
00000240: c97c a3bb ddd8 94bc c78c 9fbb a4f5 31bc
00000250: 2c47 58bb 0c97 e4bc 637d 47bc 05cd 75bd
00000260: de6a 5f3b dabf adbc f198 a9ba 6258 49bc
00000270: aa6f 63ba b70c 5a3c 5bbd d1bb 4aa8 42bd
00000280: c611 14bd 9a2c 5fbd 2470 7fbc dd3a 37bc
00000290: 00a6 b03b e80f dabb 6e80 74bc ffe0 1dbc
000002a0: 144e 2dbd 19d0 e4bc ac0e d5bc 64e7 09bd
000002b0: 70d9 01bb a05e e13c ecad a93c 8224 f0bc
000002c0: a85a 11bd fc45 cdbc 4fcf b9bc 2a37 623c
000002d0: 1919 b9bb 3f76 68bb e002 1abc 32c8 dfba
000002e0: 453b 4bbb b190 50bd 3026 3ebc 563b 76bc
000002f0: c18f b23b 3b6d 2a3c ae48 aa3c 916e 21bc
00000300: 837e 093d 89cd 2abd e597 b73b 256b 01bd
00000310: 3e66 2e3b c476 bbbc 0bf6 cbbc c1f0 3eb8
00000320: dfd1 003b cd02 acbc ea37 0f3d c327 aebc
00000330: d482 45bc 98b8 943b 6de7 303c d4c0 38bc
00000340: 4edd eabc ddf7 f1bc 8916 34bd 59ba 8f3b
00000350: 8769 95ba 8c9f eebb 7c88 c83c 8a67 c5bc
00000360: cf2b 3b3c 3237 87bb 19b4 f0bc d465 003a
00000370: f1c8 b4bc 3d9b 77bd 6fb5 363c 7a53 0bbc
00000380: b311 61bc 744a 283c 281a f13c d3b8 a0bb
00000390: 9bc4 afbb 3501 bdbb 5eb2 b5bc 04ac 3bbc
000003a0: 7e89 7b3c e260 83bd 5e3f 1d3d 8285 923a
000003b0: a18a b4bc fe6a 733c 4b86 7cbc d4fd 683c
000003c0: 17df af3c 2f5b 16bb a243 6ebc ee5a eebc
000003d0: 834d 3a3a 9bbd 03bc 3424 2dbd 43ff 623c
000003e0: 1dce 7cbc 1dd4 5c3c fe5c 8dbd 0624 9d3a
000003f0: c254 ddbc 0984 893a 6033 a1bc eef0 01bd

model.3.bias f4 [512]
-0.038985737 0.010099757 -0.07979989 0.052825104 0.004545322 -0.005459952 -0.1371404 0.095135085
0.10087628 -0.05988689 -0.05450103 -0.037065446 0.00017320339 -0.0684443 -0.062130347 -0.0658167
0.022797994 -0.010553032 -0.042152904 0.08260506 -0.05201678 0.13226184 -0.06336876 -0.05719811
-0.07651899 -0.044520512 -0.04324881 -0.016792778 -0.04747701 -0.036088135 -0.05544297 -0.04393525
-0.05409948 -0.038947504 -0.010635047 -0.040603396 -0.093096085 -0.049568146 -0.052380744 -0.020292956
0.074071035 0.0241598 -0.05728847 0.0075064213 -0.045773044 -0.03472501 -0.07517667 -0.058330685
-0.020370334 -0.029894313 -0.05196841 0.0016439431 -0.06713335 -0.01041971 -0.14025342 0.0059876544
0.011254649 0.073801905 -0.050841838 -0.055170596 -0.022027235 0.021442879 -0.04116138 0.006117949
-0.06831322 -0.06979759 0.18502337 0.047387734 0.15576792 -0.02271134 -0.1742562 -0.004284465
-0.06642468 -0.06254351 -0.01301265 -0.038593307 0.04330025 -0.015175492 -0.19163023 0.008861043
-0.033923883 0.16258682 -0.07716602 0.008987326 -0.023991777 -0.055338353 -0.060491122 -0.024008272
-0.054152366 -0.056384277 0.01660077 -0.07393864 -0.045230493 -0.06789294 0.03288523 -0.009843447
0.04568517 0.02728432 -0.014455993 -0.04490593 -0.0110615725 0.16836223 -0.041325465 -0.004901335
-0.07565452 -0.06419214 -0.041682962 0.02573373 0.01076531 -0.02104799 -0.19509982 -0.03640527
0.02465511 -0.030597469 -0.21885195 -0.02576849 0.020424534 -0.04818856 -0.04802298 0.119668685
-0.0111371735 -0.1351672 -0.028195554 -0.06372836 0.007358479 -0.012527487 0.0063950657 -0.039623138
-0.018656407 -0.07237699 -0.029462453 -0.1895812 -0.057423897 -0.027595872 0.019904489 -0.020511085
-0.16811283 -0.027571129 -0.058810275 0.038407426 -0.12452047 0.1685149 -0.15166225 -0.028040266
-0.018377528 0.065877184 -0.07308503 -0.011569494 -0.059330918 0.00981047 -0.03843321 0.029723907
-0.03314006 -0.08240138 0.032545887 -0.16536328 -0.04485069 -0.022613954 0.0038829367 0.272886
0.004069239 0.04444266 -0.026521487 -0.008634663 -0.018980188 -0.029178288 -0.060887165 -0.03334492
-0.017865684 -0.05058302 0.012192275 0.15730992 -0.041668005 -0.0022149736 0.021308634 -0.0086587975
0.15299377 0.0057225055 0.009279541 -0.025151717 0.036369327 -0.026249276 -0.010974771 -0.16412632
-0.057109844 0.05446792 -0.058705773 -0.068461575 -0.046585403 0.03640656 -0.025301445 -0.0072179143
0.043952756 0.05244152 -0.1418981 -0.023086961 0.016081342 -0.070953466 -0.01449746 -0.03326526
-0.038827006 -0.050541274 -0.1264849 -0.045580007 -0.031935427 -0.057564046 0.058178116 -0.028386673
-0.06220942 -0.017714677 0.03766295 0.024336247 0.20118338 0.07646104 -0.044927347 -0.03625725
-0.03199594 -0.022777881 -0.055562567 0.023933817 -0.017912155 -0.012117951 -0.20721985 -0.03454775
0.13226591 -0.08644183 0.0114782145 -0.05413385 -0.012446059 -0.049512073 -0.010902418 0.019845322
-0.033064548 -0.01477488 -0.028367544 0.03932587 -0.11093401 -0.03962184 -0.011515758 -0.06619619
-0.05746243 -0.098913595 -0.02328738 -0.06549923 -0.053161085 -0.012639834 -0.025129486 0.01813432
-0.06466607 0.015268181 -0.05321672 0.017870294 -0.0891868 0.0030474777 -0.011055989 -0.17749038
00000000: 82af 1fbd 7479 253c 206e a3bd 235f 583d
00000010: edf0 943b 66e9 b2bb 886e 0cbe 2fd6 c23d
00000020: 3998 ce3d f54b 75bd 793c 5fbd f0d1 17bd
00000030: ee9d 3539 862c 8cbd 647c 7ebd e8ca 86bd
00000040: dcc2 ba3c a0e6 2cbc 86a8 2cbd d72c a93d
00000050: 8c0f 55bd a66f 073e 7bc7 81bd 9148 6abd
00000060: fdb5 9cbd 245b 36bd aa25 31bd 0291 89bc
00000070: 4177 42bd 27d1 13bd 2b18 63bd 73f5 33bd
00000080: 6b97 5dbd 6b87 1fbd 9f3e 2ebc bf4f 26bd
00000090: 29a9 bebd f807 4bbd 318d 56bd 6a3d a6bc
000000a0: 8eb2 973d c6ea c53c 51a7 6abd 6df8 f53b
000000b0: 847c 3bbd d03b 0ebd 3af6 99bd 28ec 6ebd
000000c0: b0df a6bc ebe4 f4bc d4dc 54bd 9479 d73a
000000d0: 367d 89bd 6eb7 2abc 989e 0fbe 1634 c43b
000000e0: 6b65 383c 7425 973d 883f 50bd 90fa 61bd
000000f0: 7672 b4bc faa8 af3c d698 28bd 1379 c83b
00000100: cde7 8bbd 0af2 8ebd c476 3d3e a419 423d
00000110: a081 1f3e 220d babc 3870 32be b364 8cbb
00000120: aa09 88bd d016 80bd 0333 55bc 0414 1ebd
00000130: 9a5b 313d a0a2 78bc b73a 44be e82d 113c
00000140: c5f3 0abd 297d 263e 3809 9ebd 943f 133c
00000150: 678a c4bc 78aa 62bd 8ac5 77bd ffac c4bc
00000160: dfce 5dbd 33f3 66bd 57fe 873c 246d 97bd
00000170: 9c43 39bd 740b 8bbd aab2 063d 6946 21bc
00000180: 5f20 3b3d 5e83 df3c d4d8 6cbc 48ef 37bd
00000190: 993b 35bc 2667 2c3e e444 29bd 619b a0bb
000001a0: c2f0 9abd 2b77 83bd c1bb 2abd 8bcf d23c
000001b0: fc60 303c d66c acbc 3fc8 47be b11d 15bd
000001c0: 83f9 c93c 8ba7 fabc ba1a 60be 7118 d3bc
000001d0: 5a51 a73c 5e61 45bd bfb3 44bd db14 f53d
000001e0: b178 36bc 4569 0abe 5dfa e6bc 0484 82bd
000001f0: 651f f13b 1740 4dbc b38d d13b df4b 22bd
00000200: 52d5 98bc 633a 94bd 3e5b f1bc 9321 42be
00000210: 5235 6bbd bd10 e2bc bd0e a33c dd06 a8bc
00000220: c525 2cbe d9dc e1bc 0be3 70bd 1b51 1d3d
00000230: 9704 ffbd 2c8f 2c3e 594d 1bbe b3b4 e5bc
00000240: 788c 96bc 9eea 863d 9bad 95bd fa8d 3dbc
00000250: fa04 73bd 18bc 203c 246c 1dbd 8d7f f33c
00000260: dfbd 07bd 0ec2 a8bd d64e 053d fe54 29be
00000270: 5bb5 37bd e640 b9bc de78 7e3b b7b7 8b3e
00000280: 4057 853b 8209 363d 9743 d9bc 6778 0dbc
00000290: 577c 9bbc 4e07 efbc d264 79bd af94 08bd
000002a0: 0e5b 92bc 2430 4fbd 1cc2 473c da15 213e
000002b0: 12ac 2abd 1729 11bb 728f ae3c a1dd 0dbc
000002c0: 66aa 1c3e db83 bb3b 3709 183c f90a cebc
000002d0: 01f8 143d b908 d7bc 87cf 33bc bb10 28be
000002e0: 03ec 69bd c119 5f3d 7775 70bd 9535 8cbd
000002f0: 56d0 3ebd 0c1f 153d fa44 cfbc 4184 ecbb
00000300: ce07 343d ebcc 563d bc4d 11be de20 bdbc
00000310: 05bd 833c 0d50 91bd c186 6dbc 2741 08bd
00000320: 1109 1fbd 5e04 4fbd 4285 01be 1ab2 3abd
00000330: b9ce 02bd 47c8 6bbd 2d4c 6e3d 2b8b e8bc
00000340: 4ecf 7ebd 5f1e 91bc 7744 1a3d cf5c c73c
00000350: 0403 4e3e 9b97 9c3d bd05 38bd 7b82 14bd
00000360: 2d0e 03bd ae98 babc 9395 63bd da10 c43c
00000370: 83bc 92bc 5f8a 46bc 7131 54be f181 0dbd
00000380: b770 073e 6a08 b1bd 1f0f 3c3c 75bb 5dbd
00000390: 8eea 4bbc 2ccd 4abd 0ea0 32bc a892 a23c
000003a0: b16e 07bd 5712 72bc 0d63 e8bc 2a14 213d
000003b0: 5f31 e3bd 834a 22bd 97ac 3cbc de91 87bd
000003c0: ba5d 6bbd 3693 cabd 2dc5 bebc 7624 86bd
000003d0: 70bf 59bd 4e17 4fbc 5adc cdbc 6d8e 943c
000003e0: a56f 84bd 6527 7a3c c7f9 59bd b964 923c
000003f0: 92a7 b6bd 31b8 473b 2e24 35bc 0ac0 35be

model.6.weight f4 [14, 512]
-0.047298435 0.01991601 0.029699862 -0.015387284 -0.0015028168 0.01850119 -0.066825785 -0.113207065
-0.15785502 -0.011354724 -0.017493762 -0.013459447 0.009786306 0.00998183 0.022385025 0.04978209
0.0021966523 -0.040996745 -0.020490972 -0.12294134 0.02392386 -0.109371 0.009714188 -0.01575138
-0.009503623 -0.01077907 -0.026723118 -0.01724604 -0.009555769 -0.017838154 -0.05120642 0.046282385
-0.020616911 -0.050009694 0.002072569 0.027757527 0.005573675 -0.045188207 0.0027490733 0.030845337
-0.061027177 -0.0030727205 -0.0031399017 0.029194701 0.0758435 -0.015702832 -0.012550821 -0.009873316
-0.08593263 -0.03202118 0.00513937 0.00275507 0.033795297 0.017701192 0.041143186 -0.041821323
0.008557027 -0.07225771 0.069722444 -0.012073449 -0.008961225 0.02825163 -0.017441336 -0.014622027
-0.027848195 0.01813034 -0.10233106 -0.002820359 -0.13828596 -0.011470952 0.006979424 0.002223588
0.014142149 0.0019069562 0.037443873 0.014880959 -0.022616781 -0.042390715 -0.12838136 -0.033573907
0.020513384 -0.12683854 0.06458539 0.018265879 0.02622495 0.00017778286 0.009368478 0.025836786
-0.045998275 -0.0030813485 0.0037005953 0.0053587547 0.053116478 -0.0057509984 0.004404994 0.01520171
-0.053891126 -0.005061098 0.03508127 0.013436494 -0.004101653 -0.1022139 0.0027905763 0.019136975
0.00020672021 -0.018660298 -0.006655816 -0.03201152 -0.013362727 -0.014131731 0.12855028 0.003464965
-0.008860833 -0.034299612 -0.1264073 -0.00464835 0.0073762336 0.04350551 0.0033240637 -0.0795676
-0.043329727 0.02314618 0.02025861 0.010940519 -0.0046643023 0.08131731 -0.074294925 0.008718914
0.009180046 0.1047715 0.03894965 -0.032873683 0.0067654788 -0.010786048 0.015244462 0.004594975
0.14083146 0.032604616 -0.015613953 -0.015548608 -0.006617395 -0.09521159 0.059738155 -0.011962275
-0.018827049 -0.10431516 -0.03785988 -0.03376134 0.037297938 0.009295603 -0.015284018 0.023839008
-0.03036833 0.074937336 -0.029221259 -0.097278394 0.041203115 -0.0015902893 -0.015369618 -0.17688207
0.020030795 -0.009689756 0.031813152 -0.0076613855 -0.01045405 0.011154973 0.022175917 0.01727888
0.008244362 0.014980557 -0.043639466 -0.14879353 -0.0025849487 0.010115769 -0.0062761917 0.0069590234
-0.058159698 0.004959842 0.014909229 -0.03364885 0.00040494534 -0.0030558975 0.020193666 0.15025759
0.02911266 -0.07210041 0.011418952 0.001410508 0.0041688057 0.0017254793 0.007019762 -0.03184583
-0.007653096 0.021081679 0.020581732 0.0064791166 0.037530586 0.030101826 -0.023148103 3.982445e-05
-0.002831028 0.041883476 0.007118079 -0.0008781522 -0.020518225 0.003965082 -0.09672708 -0.26732484
-0.011355964 -0.011013161 -0.004233618 0.012002083 -0.22857952 -0.10197995 0.04299779 -0.0032176848
-0.019451082 -0.013423436 -0.029889269 0.010379433 -0.01751372 0.006043525 0.09001638 0.0015340484
-0.24857508 -0.0679367 0.03546276 -0.035459954 0.027024593 -0.01648665 0.05505252 0.033637404
-0.008893023 -0.0028035578 -0.03900467 -0.042490073 -0.054002024 0.026180899 -0.024593765 -0.02369098
0.016080337 -0.09948896 -0.006927899 0.019413002 0.0232009 0.017828498 0.023376385 0.019855108
-0.022094728 0.016690806 -0.02529244 0.08030257 -0.11695237 -0.0135838445 -0.009046857 0.10812718
00000000: 01bc 41bd e626 a33c 204d f33c f21a 7cbc
00000010: 2afa c4ba cf8f 973c f5db 88bd 1bd9 e7bd
00000020: bfa4 21be 2a09 3abc 144f 8fbc 0385 5cbc
00000030: be56 203c d48a 233c cd60 b73c 4ee8 4b3d
00000040: b6f5 0f3b 34ec 27bd afdc a7bc abc8 fbbd
00000050: f9fb c33c e7fd dfbd 4228 1f3c 0a09 81bc
00000060: 15b5 1bbc b29a 30bc 71ea dabc 9147 8dbc
00000070: cd8f 1cbc 5221 92bc d3bd 51bd 9992 3d3d
00000080: cce4 a8bc f7d6 4cbd f0d3 073b c163 e33c
00000090: 60a3 b63b 4517 39bd cc29 343b 5caf fc3c
000000a0: a2f7 79bd b25f 49bb cfc6 4dbb ba29 ef3c
000000b0: d653 9b3d 3aa3 80bc f5a1 4dbc b0c3 21bc
000000c0: 72fd afbd a428 03bd 2968 a83b 688e 343b
000000d0: f06c 0a3d 1702 913c c285 283d d64c 2bbd
000000e0: c632 0c3c dafb 93bd a4ca 8e3d b7cf 45bc
000000f0: 1ad2 12bc f66f e73c 22e1 8ebc 3a91 6fbc
00000100: e621 e4bc 1486 943c f292 d1bd c6d5 38bb
00000110: d69a 0dbe a9f0 3bbc a7b3 e43b 9eb9 113b
00000120: 79b4 673c d5f2 f93a bf5e 193d 44cf 733c
00000130: d446 b9bc e3a1 2dbd 6776 03be cb84 09bd
00000140: af0b a83c f6e1 01be 5845 843d 53a2 953c
00000150: b5d5 d63c 396b 3a39 3f7e 193c aba7 d33c
00000160: b068 3cbd 73f0 49bb b085 723b 7e98 af3b
00000170: aa90 593d df72 bcbb c557 903b 9810 793c
00000180: f1bc 5cbd 91d7 a5bb 61b1 0f3d be24 5c3c
00000190: 2967 86bb 8555 d1bd 1ae2 363b 25c5 9c3c
000001a0: 09c3 5839 7bdd 98bc 0819 dabb 831e 03bd
000001b0: 57ef 5abc c788 67bc afa2 033e 7714 633b
000001c0: 072d 11bc c07d 0cbd ea70 01be 3051 98bb
000001d0: 55b4 f13b d532 323d 89d8 593b 56f4 a2bd
000001e0: 837a 31bd 0f9d bd3c 62f5 a53c dd3f 333c
000001f0: 01d7 98bb b189 a63d f027 98bd c7d9 0e3c
00000200: e767 163c 7192 d63d ab89 1f3d 8ea6 06bd
00000210: f3b0 dd3b f7b7 30bc e8c3 793c 7291 963b
00000220: 1f36 103e 6b8c 053d aad1 7fbc 97bf 7ebc
00000230: bcd6 d8bb 4bfe c2bd ffaf 743d 6bfd 43bc
00000240: 2f3b 9abc 30a3 d5bd f612 1bbd 5549 0abd
00000250: b9c5 183d 964c 183c d169 7abc 064a c33c
00000260: 01c7 f8bc bf78 993d 6c61 efbc e539 c7bd
00000270: 99c4 283d 4171 d0ba dad0 7bbc 9320 35be
00000280: 9f17 a43c c8c1 1ebc 824e 023d 5c0c fbbb
00000290: 7747 2bbc 59c3 363c 45aa b53c 708c 8d3c
000002a0: 5c13 073c 0371 753c 4cbf 32bd 555d 18be
000002b0: 3e68 29bb 9cbc 253c 83a8 cdbb 8508 e43b
000002c0: dd38 6ebd 2c86 a23b d745 743c 60d3 09bd
000002d0: d84e d439 7445 48bb 306d a53c 20dd 193e
000002e0: ac7d ee3c 61a9 93bd 8e16 3b3c cbe0 b83a
000002f0: 7a9a 883b 7a29 e23a 0806 e63b c670 02bd
00000300: d3c6 fabb 7cb3 ac3c 059b a83c c54e d43b
00000310: acb9 193d 1b98 f63c 17a1 bdbc 2d09 2738
00000320: c588 39bb 028e 2b3d c63e e93b cc33 66ba
00000330: d615 a8bc 85ed 813b d918 c6bd cdde 88be
00000340: 5d0e 3abc 8c70 34bc 29ba 8abb 62a4 443c
00000350: c010 6abe ddda d0bd 731e 303d cbdf 52bb
00000360: e057 9fbc f9ed 5bbc 57da f4bc 7f0e 2a3c
00000370: ef78 8fbc c308 c63b 825a b83d 1f12 c93a
00000380: 778a 7ebe 6622 8bbd 6641 113d 753e 11bd
00000390: ae62 dd3c 030f 87bc c07e 613d 60c7 093d
000003a0: 0bb4 11bc e5bb 37bb 5cc3 1fbd 120a 2ebd
000003b0: 3a31 5dbd 5379 d63c dd78 c9bc 9613 c2bc
000003c0: e9ba 833c dec0 cbbd 6e03 e3bb 0408 9f3c
000003d0: d00f be3c 120d 923c d57f bf3c 2ea7 a23c
000003e0: 0100 b5bc 28bb 883c 1732 cfbc ac75 a43d
000003f0: b984 efbd c68e 5ebc 4539 14bc c871 dd3d

model.6.bias f4 [14]
-0.16567443 -0.109775744 -0.115509324 -0.09086969 -0.08759112 -0.156557 -0.17177363 -0.059533942
0.06587309 -0.06473898 -0.13837363 -0.11997615 -0.013055947 0.019151062
00000000: 8fa6 29be 1bd2 e0bd 2790 ecbd e319 babd
00000010: f962 b3bd 7a50 20be 6de5 2fbe ddd9 73bd
00000020: 78e8 863d df95 84bd d1b1 0dbe 0eb6 f5bd
00000030: 9ce8 55bc b0e2 9c3c
