code/seed3/cGAN_discriminator.pth (torch, 564086 bytes, 5 tensors)

model.0.weight f4 [512, 16]
00000000: f239 04be 4f30 eebd bac9 e2bd ab88 13be
00000010: 927a 08be b97d ecbd 0ee2 ccbd 0ecf e0bd
00000020: e253 fabd 5942 05be 73e4 a3bc f898 e4bd
00000030: 15bd e3bd a04d dabd bd48 66bc 3e48 e5bd
00000040: 209c c03c 1834 3cbc ee14 e13c 0a61 c9bc
00000050: c096 873c 0bf8 9a3b 97ae bebc d891 213d
00000060: 54ab 82ba d75e d338 2d9a 8f3b 22f7 3b3b
00000070: 783c a7bc 5831 08bc d2c6 043d 106d 303c
00000080: d059 793c 82fa d2bc 3bde 8ab9 4a4a bd3b
00000090: 1c7d b73a 0000 6cbc e2f2 bfbc f9f4 2eb9
000000a0: 9745 14bd cb22 8e3b 5f26 91bb 5ffb 893c
000000b0: c933 1c3d b99a f83b 9245 8b3b b44b 0aba
000000c0: bc75 8cbe 4faf acbb a483 99be 1125 39bc
000000d0: b76a 2ebd 3a4b 41be 9e7d 2fbd bf2e 68be
000000e0: 838e 583c b46f d9bc e9d5 9cbe 325b 91be
000000f0: 2ff6 3dbe 6be4 403c 9634 1fbd 7d89 80bd
00000100: 3a7c 98bd f68c 94bd ca26 41bd afc7 58be
00000110: 3b1f 8abd 265f 98bd 59f6 42bd ba65 01bd
00000120: 6edb 36be d748 31be 2723 2ebd abb4 40bd
00000130: 7b75 1dbd 6eaa f6bd cfe3 e7bc f920 55bd
00000140: e4cf 2cbb 0354 91bc 2e54 cdbb e21d 0dbd
00000150: 7712 0abc e660 55bc 67c2 dfbb dd40 d5bb
00000160: d776 d6bb 4a2d db3c 593e 543d 9bec fbba
00000170: 72ac f0bb 2237 213d 2f47 843c c030 e63b
00000180: abda 3dbd cf0d b6bd e7ef 4bbd b97d 27be
00000190: 8248 36be 73c4 a5bd 03fc 9abd 1e1f 2bbd
000001a0: cccb 12be 6fa0 43be b8fa 92bd 015c 6dbd
000001b0: 0de3 5abd b3e5 39be b47b 42be 1428 0bbd
000001c0: 4f26 afbd 71b0 44be 7ffc 96bd db4d 57be
000001d0: 2049 3fbe 7c53 28be 75ae 50be 736d 98bd
000001e0: 214b 53be d425 16be 081f 14bc 7618 06bd
000001f0: 196e 9fbd 6b80 3fbe 9429 4fbe e2e0 07be
00000200: 6521 4cbe 9eea ffbc f20f a1be 6292 eebc
00000210: b82c 18bd ffd5 1fbe d430 b8bc 2afb 8abe
00000220: 6116 873c 99da 60bc e0f3 a7be fb44 b2be
00000230: 083d 4cbe c631 0f3d ff80 0ebd aa55 2aba
00000240: 9150 84bd f880 8ebd 2dd3 64bd 614c 2dbe
00000250: 3d88 39be 8d44 80bd d309 84bd e8ca 86bd
00000260: fb56 52be 23c7 57be f059 b1bd 9915 97bd
00000270: 27c8 85bd 3eb3 3bbe 0b79 78bd 34c2 4bbe
00000280: e555 1abf bfda 97bf 42ee 58bf afd7 9ebf
00000290: 0757 93bf 32bc 55bf e171 9bbf a507 6ebf
000002a0: d3ee adbf b200 97bf c424 a7be 515c d5be
000002b0: 86f9 04bf b41b acbf 1b6f 65bf a431 183f
000002c0: e5db 9dbd a33d 73bd 5755 88bd cce0 d9bd
000002d0: c148 9bbd 8e84 f4bd 2c28 92bd a6e1 afbd
000002e0: a9f2 08be 9ab8 a0bd 88e5 c2bd c3d9 5cbd
000002f0: 78fe b9bd 5ce8 d2bd d544 c0bd 33d8 27be
00000300: 4c58 45be fcb1 04be 1316 45be 7e3b 833b
00000310: 9664 f7bd f403 12be 5c18 13be 5a27 58be
00000320: 2fe4 76bc 69bd 903c 39f0 0bbe e413 40be
00000330: 97e9 3dbe 3023 27bc 9472 80be 7118 babc
00000340: 383a 29bc bf7c fbbd 8128 863c 0546 92bd
00000350: f1b0 b9bd 036f ebbd 8a9b a9bd a0a5 61bd
00000360: c9c9 c6bd dddf afbd 112d e93c 8108 c23c
00000370: ec37 27bd e5d2 51bd 1c01 e2bd 4f28 d6bd
00000380: 77ff 873c f2ca 02bd 2786 713c d82e 4f3c
00000390: 973b 243d d9e8 d63a 87e8 c6bc b598 e7bc
000003a0: 1bcd 0dbd 228a 9f3c 845d 063a 89b0 4d3b
000003b0: 5554 e3bc 20f2 e43c 9c1c d63b 59dd a8bc
000003c0: 6072 9bbd 82f6 bdbd dd08 47be 2834 c3bd
000003d0: 5f5f ccbd 3ed0 e0bd ff63 f5bd 2762 1fbe
000003e0: 4bb6 c3bd 3e83 c8bd bfae 16be 1503 36be
000003f0: 0f3a d1bd 3cb8 c4bd 65f3 dabd 451b dcbd
-0.1291273 -0.11630308 -0.110736325 -0.14407603 -0.13328007 -0.11547417 -0.10004054 -0.109769925
-0.122230306 -0.13013591 -0.020006394 -0.11161989 -0.11120049 -0.10659337 -0.014055428 -0.1119542
0.023511946 -0.0114870295 0.0274758 -0.024582405 0.016551375 0.004729276 -0.02327661 0.039445728
-0.0009969273 0.00010078929 0.004382393 0.0028681238 -0.020414576 -0.008312546 0.032416172 0.01076819
0.015219167 -0.025754217 -0.00026486986 0.005776678 0.0013999077 -0.014404297 -0.023431245 -0.00016685193
-0.03619918 0.0043376437 -0.004429623 0.016843496 0.038135324 0.0075868038 0.004250237 -0.0005275563
-0.27433574 -0.005269922 -0.29983246 -0.011300341 -0.04258224 -0.18876353 -0.042844407 -0.22674082
0.013217571 -0.026542522 -0.3063195 -0.2838989 -0.18550943 0.011773209 -0.03886851 -0.06276224
-0.07445569 -0.07253449 -0.047156133 -0.21169923 -0.06744238 -0.07440023 -0.047598217 -0.031591155
-0.17857143 -0.17312942 -0.042513993 -0.0470473 -0.038442116 -0.12044226 -0.02830687 -0.0520334
-0.002636903 -0.017740255 -0.0062661385 -0.034452327 -0.008427254 -0.013023591 -0.0068285945 -0.0065079764
-0.0065449285 0.026754994 0.05181727 -0.0019220294 -0.007344776 0.03935922 0.016147224 0.0070248544
-0.046351116 -0.088893525 -0.049789336 -0.16356553 -0.17801097 -0.0809411 -0.07567599 -0.041777723
-0.14335555 -0.1910417 -0.07176727 -0.05794907 -0.05343919 -0.1815403 -0.18992501 -0.03397377
-0.08552229 -0.19207932 -0.073723786 -0.21025793 -0.18680239 -0.16438097 -0.2037905 -0.07442751
-0.20634128 -0.14662868 -0.009040602 -0.03273817 -0.07784671 -0.18701331 -0.20230705 -0.1326938
-0.19934614 -0.031239804 -0.31457478 -0.029122535 -0.037152022 -0.15608977 -0.02248422 -0.27144748
0.016490163 -0.013723993 -0.3280325 -0.34818253 -0.19945157 0.034959577 -0.03479099 -0.00064977503
-0.06460679 -0.069581926 -0.055865455 -0.16923667 -0.18118377 -0.06263075 -0.06447186 -0.0658167
-0.20540993 -0.21072058 -0.08659732 -0.07377166 -0.06532317 -0.18330094 -0.06066231 -0.19898301
-0.60287315 -1.1863631 -0.8473855 -1.2409571 -1.1510934 -0.8349029 -1.2144128 -0.92980415
-1.3588508 -1.1797087 -0.32645237 -0.41671994 -0.5194324 -1.3445954 -0.8962266 0.59450746
-0.07707957 -0.059384953 -0.06656902 -0.1063858 -0.07582236 -0.11939345 -0.071365684 -0.08587961
-0.13373818 -0.0784771 -0.09516436 -0.05391861 -0.09081739 -0.10298225 -0.09388129 -0.16391067
-0.19271964 -0.1295852 -0.19246702 0.0040048948 -0.12079732 -0.1425932 -0.14364761 -0.21108761
-0.015069052 0.017668443 -0.13665856 -0.18757588 -0.18546139 -0.01020126 -0.25087416 -0.022716733
-0.010328822 -0.12279653 0.016376736 -0.071422614 -0.09066952 -0.11495783 -0.0828162 -0.055089593
-0.09706456 -0.085876204 0.028463872 0.023685696 -0.040824816 -0.051226515 -0.11035368 -0.10456907
0.016601307 -0.031931825 0.014741457 0.012645446 0.04009589 0.0016396298 -0.0242808 -0.028271059
-0.034619432 0.019475047 0.0005125629 0.003138574 -0.027750174 0.027947485 0.006534172 -0.02061336
-0.07590175 -0.09275533 -0.19436975 -0.095314324 -0.09979128 -0.10977219 -0.11981963 -0.15564786
-0.09556254 -0.097906575 -0.14715098 -0.17774613 -0.10216152 -0.096054524 -0.10690955 -0.10747389

model.0.bias f4 [512]
00000000: 4f45 21be a655 17be 4411 c9bd ef80 6f3d
00000010: f645 81bc 08d2 19be 6466 6fbd 3e67 473d
00000020: a3b9 d53d 87d8 a43c e855 56bf 8382 20be
00000030: 10b5 e3bd eebb afbd b811 16be c1d8 aebd
00000040: 184a 78be 5322 fd3d 1edb 19be 91ee 4abc
00000050: f8d4 363d 2841 b03d bea1 3cbd a800 1fbe
00000060: f668 c2bd a6c2 01bf 823c 02be 84a2 0dbe
00000070: 449f 77be c0b5 6cbe 9a16 75be ae4c 34be
00000080: c809 e7bd 10e1 fdbd 0990 12be b725 60be
00000090: 5b62 53be b547 eebc 3ae9 16be 91ec 28be
000000a0: 642c 4ebe 6674 d33d f5cf 113d dcdd 013e
000000b0: fe8e 54be 4021 1e3d e47f 6abe 1741 d03c
000000c0: 5308 83be 5cb7 aebc 31b0 d2bd 6536 6ebd
000000d0: 62cf 803d 04af d4bd 65f4 613d 4e5b 5ebe
000000e0: 10fd 88bd 348e 6d3d e86d 98bd 3866 6abe
000000f0: e428 23be 6077 30be 3682 05be c1fa 713b
00000100: 3ea5 62be 21fa d33d 3c6e 5bbe 3e2e fb3d
00000110: 1494 ca3c 6616 3bbe fc69 21be c0cf 92bf
00000120: ad7d d8bd cefb 35be 4455 1dbe 2273 2cbe
00000130: fe64 61be 9c96 833c 7cfc 47be ac65 d03d
00000140: 27aa d0be b014 66be ecf9 3bbf ff1f c03d
00000150: cc20 9a3d e230 65be fa08 0bbe 16dc 8a3c
00000160: d692 46be 02dd 31be 9877 d1bd bf07 7bbf
00000170: ce2e d3bc 64ea bfbd d8ff 47be e168 203c
00000180: ebd1 b33d d46c 65bd 76f6 2ebe 6c13 d6bd
00000190: 58c1 1abe fcd7 56be 928e 2fbe f19d e63d
000001a0: b299 1fbe 8bbd 5cbd a7c3 15bd b613 53bd
000001b0: b2d0 a0bd d6a1 dbbe 3696 08be a2b0 48be
000001c0: 5208 27be efe6 85bd c78f 36bf e0f2 70be
000001d0: 7291 513c 3be9 f73d d5d6 a9bd b015 aebd
000001e0: df54 c6bc e26c d23d ca78 5e3d ebc4 1b3d
000001f0: 5c2b 9ebd 0c97 cfbd a0be d83b c892 5ebe
00000200: 2b9d 6bbd d79d 73bf c473 4bbe 6058 e6bd
00000210: c41b f53b dcf4 5ebe 68cd b5bd 4e20 ce3c
00000220: 0678 4cbe 425e 6abf f639 11be 322d 06bd
00000230: e007 1fbe 8edd e13d b102 953d ec0e 42bf
00000240: 21de a53d deb5 aabc 1a9b 69be dee6 3cbc
00000250: 4550 dfbd e364 06be 07b7 12be ba1a 65be
00000260: acc0 683d 4c4c dabd 2e9c 70be 9602 de3a
00000270: 3a6b 42be eb3b 88bd 8d39 d53d 21a6 5dbd
00000280: 76e0 44be 1dfb 16be 0063 3ebe fda0 82bd
00000290: d649 69bc aa17 68be ff94 65bd 303b a1bd
000002a0: 524b 9b3d 9d30 17bd 52a1 a73c 7037 b1be
000002b0: 3235 5fbe 047d 753d cca0 efbd 7669 2abe
000002c0: 22da 78be 7b3a d4bd 7cff a7bd c75d 563b
000002d0: 0080 f637 da0e 74be 44fd f8bd e4cb f8bd
000002e0: e3df cfbd 8391 16be 2cae 52be ac7b 87bd
000002f0: b8ca f23d 8226 d63c b087 17be 4009 cbbd
00000300: ac42 16be 7a79 7fbe 8b36 62ba 31f5 5abe
00000310: e393 943d 5132 21be c013 12bd 3097 6bbe
00000320: c75c 4e3d 06c9 2bbe 5bce 1ebf 44d8 48be
00000330: c8b8 04be 3047 07bd cbb8 7a3d 818c 20bd
00000340: 8429 9cbd c0fb a8bd 641f fdbd 60a7 f3bd
00000350: 1849 a3bd d045 c6bd dd03 76bd 3520 81bd
00000360: 04bb 66bd f51d b2bd b1bf d9bd 0894 42be
00000370: 1197 023e 35fb e7bd d98d 8e3a a613 2dbe
00000380: ce4e 4a3d 95d6 70be 5be0 cebf f447 62be
00000390: 1c41 ccbc c53f c5bd b410 64be 2d87 2dbf
000003a0: f404 55be 3854 61be 7401 823d 0863 4bbd
000003b0: 88dc 54be e8bf 66be e8cc 64bd d121 613d
000003c0: bd54 39bd c5f0 cf3d 3f69 dbbd 7e22 3bbe
000003d0: e8e1 33bc ff4f 46bf 9528 8d3d 6c1c b8bd
000003e0: 5c38 38be 248e 0d3d 282e 26be 6b3a 20be
000003f0: 243b ffbd ef87 85bd 1783 11bd c5df f63d
-0.15749095 -0.14778766 -0.09817746 0.05847257 -0.01578043 -0.15021527 -0.058447257 0.048682444
0.10435798 0.02012278 -0.8372483 -0.15674786 -0.11118519 -0.085807666 -0.14655197 -0.08537436
-0.24247015 0.123600625 -0.15024993 -0.01238598 0.044636697 0.086061776 -0.046052687 -0.15527594
-0.09492676 -0.50687635 -0.12718394 -0.13831526 -0.24181849 -0.23116207 -0.23934403 -0.17607376
-0.112811625 -0.12396443 -0.14312758 -0.21889387 -0.20642988 -0.029086927 -0.14737406 -0.16496493
-0.20134121 0.103249356 0.035598714 0.12682289 -0.20757672 0.03860593 -0.22900349 0.025421662
-0.25592288 -0.021327667 -0.10287512 -0.058157343 0.06289555 -0.10384944 0.055164713 -0.21714517
-0.06688893 0.057996944 -0.07442838 -0.22890556 -0.15933567 -0.17233038 -0.13037953 0.0036923143
-0.22133347 0.10350443 -0.2142877 0.12264679 0.024728812 -0.18270263 -0.15763086 -1.146965
-0.10570846 -0.17771837 -0.15364558 -0.16840795 -0.22011182 0.016063027 -0.19529909 0.10175642
-0.40754816 -0.22468829 -0.73428226 0.09381103 0.07525787 -0.22381929 -0.13577643 0.016950648
-0.19391951 -0.17369464 -0.10227889 -0.98058695 -0.025779154 -0.09370878 -0.1953119 0.00979063
0.08780273 -0.05601199 -0.17086205 -0.10452923 -0.15112817 -0.20980829 -0.1714423 0.11260594
-0.15585974 -0.0538917 -0.03656354 -0.05153247 -0.078523055 -0.4289691 -0.13338551 -0.1959863
-0.16311768 -0.06538188 -0.71313137 -0.2353015 0.0127910245 0.12105032 -0.08292929 -0.0850023
-0.024210392 0.10274674 0.054314412 0.038029592 -0.07723114 -0.10136232 0.006614521 -0.2173568
-0.057522934 -0.9516272 -0.1986838 -0.11247325 0.0074801166 -0.21773094 -0.08877069 0.025161888
-0.1996766 -0.91550076 -0.14182267 -0.032757945 -0.15530348 0.11028586 0.07275904 -0.7580402
0.08099008 -0.020838674 -0.22813073 -0.011529652 -0.10903982 -0.13124423 -0.14327632 -0.22373477
0.05682437 -0.10659084 -0.23497078 0.0016938027 -0.18986216 -0.066520534 0.104113676 -0.05411351
-0.1922625 -0.1474423 -0.18592453 -0.06378362 -0.014238795 -0.22665277 -0.056050297 -0.07872617
0.075827256 -0.036911596 0.020462666 -0.34612608 -0.21797636 0.059933677 -0.117005914 -0.16641793
-0.24301961 -0.10362717 -0.08203027 0.0032709704 2.938509e-05 -0.2383379 -0.121576816 -0.12148264
-0.10150125 -0.14703946 -0.20574254 -0.066153854 0.11855072 0.026141409 -0.14797854 -0.09913874
-0.14673871 -0.24948683 -0.00086293434 -0.21382596 0.0725477 -0.1574185 -0.035663366 -0.23006892
0.050381448 -0.16775903 -0.62033623 -0.19613749 -0.12961113 -0.033026874 0.06121139 -0.039196495
-0.07625106 -0.082511425 -0.12359503 -0.118971586 -0.07972926 -0.096812844 -0.060062278 -0.06304971
-0.056330696 -0.0869712 -0.10632265 -0.19001782 0.1275294 -0.11327211 0.0010876014 -0.16902027
0.04939156 -0.23519357 -1.6162218 -0.2209776 -0.02493339 -0.09631304 -0.22271997 -0.67784387
-0.2080267 -0.22004783 0.063479334 -0.04965499 -0.20787251 -0.22534144 -0.055859476 0.05496389
-0.04524683 0.10153345 -0.107134335 -0.18274876 -0.010979153 -0.77465814 0.06892506 -0.08989796
-0.1799025 0.034559384 -0.16228545 -0.15647285 -0.12462452 -0.06520068 -0.035525408 0.120543994

model.3.weight f4 [256, 512]
00000000: ce90 123d 0908 ed3c 0753 2b3d bb66 47be
00000010: f232 8cbd e26f c53a 78d4 92bd ef83 22be
00000020: 8c90 2abe 59cd ebbc d148 adbf 0b35 88bd
00000030: 3b86 12be dead 24be f0d1 b6bb 3ecc 41bd
00000040: 4dd9 97bc b3f1 adbd 18e5 31ba 3832 08bd
00000050: 9287 d1bc 2a8e 60bd 223d 0fbd 6176 a73c
00000060: 6122 33be 4296 aebc dcdf 68bd a1b8 b5bc
00000070: 8dca c6bc df11 9cbb c1a6 e9bc b322 9239
00000080: 7b64 3dbc cbb9 d5b8 f47a f63d c48e 4d3c
00000090: 1d33 b33d f67a 0fbe 7070 15bc 7bba b7bd
000000a0: bb34 0ebd 6d1e 9abd e2cb f33d 86a2 3abe
000000b0: 523a ad3b 08cb 40bd 5423 ecbb 3757 a7bd
000000c0: f57d 973d df71 e5bd ffc6 193e 1fb0 5cbd
000000d0: c957 a2bd 784b c53c c1aa 3bbe 3b1e 4e3c
000000e0: d929 943b 4568 85bd 6d78 9bbc 1dad b8bc
000000f0: 3c98 ca3c ac90 e8bc cbcb f8bb 9542 67bd
00000100: 464e 493c 5390 90bd e70c 753c 8ab4 31be
00000110: 4e77 d8bd 61c6 d93b 4f56 333c 4ae7 8bbf
00000120: a6bb 22be 3474 03bd 0050 1a3e ae83 f1bc
00000130: e1d2 c6bc 3b4c dabd 14b2 763b 169e 3cbd
00000140: cc51 17be c6f9 31bc 0ac8 90bf 5796 40be
00000150: 2df5 86bd 949e 813c 9116 2abe 622c 59bd
00000160: 1cf4 293e 0985 deba a85c 213b 1fcd 92bf
00000170: ac09 27be db1a b33b 4e51 d3bc 5c42 a5bc
00000180: bc9b 35be d34f a5bd 8786 18bd 984a 1fbe
00000190: 3dd4 5c3b c174 31be 452f 43bd f330 15bd
000001a0: f06b 08bc 2b68 d4bc ce12 09bd d5ab 91bc
000001b0: 92a8 953d b88c 373c 573f d6bb c879 08bb
000001c0: 5b86 cfbc ccb6 a4bd a7d3 dabd 0768 bfbb
000001d0: 8686 dabd 2b0a 5bbd df7e 91bd a75b b6bc
000001e0: 59f9 19bd 1008 d33d d32a 24be 8d18 51be
000001f0: 53ea 453c eb7b 163d 465f febc 0fce 8e3b
00000200: 66d5 87bd e0ec 1dbe a61b babb abe0 9d39
00000210: 3a85 fbbc 66f3 e1bc 1e63 363c d4b0 56be
00000220: 6b8c d6bc 1a5f afbf 37d6 0dbe 0499 23bd
00000230: 3e6a 76bb 69a9 34be da7d 20bd 95bc 90bf
00000240: e14d fabd 3121 103e 1eb0 223d a7df 21bd
00000250: 5eb5 ce3d 1f28 d73d 701e c73d fcaa 83bc
00000260: d523 003e 1e73 b1bc a4ba 933c b551 9bbd
00000270: 8b6a 883c 7134 ef3d 5cac 24be ddc3 bcbd
00000280: e6a7 1bbd cec0 0d3d c9f8 32bd 046e 55bc
00000290: b6bc f2bc 65f6 75bd 7775 f63d 6b65 19be
000002a0: 4288 10bd 0726 4bbd 5fa4 cd3d 2a4d 0fbd
000002b0: f75f 7bbc 66ec 44be 480c 2bbd 1207 c6bc
000002c0: 589b 29bc 0d18 e03d 00de 89bc 2b94 0fbd
000002d0: 244c 093d 3cd7 31bc cd44 e43d c2d1 06bd
000002e0: cf1a ec3d 0fdb ccbc fb98 2d3d e1f0 03be
000002f0: 086a 28be 4d5b 4cbe 714f 1f3c 45e5 473d
00000300: 491b 7f3d a49c 9239 6f2d c0bd c940 80bd
00000310: ef18 31be 4e50 33be 30d3 70bd 14fd 2f3c
00000320: 8408 30be 52ea 83bc 0650 32bc 10c7 1b3b
00000330: adc1 133e 3510 c6bc ceab 91bd 8023 9abc
00000340: b9e0 61bd 1af4 d1bd 45c4 803c 2008 b6bc
00000350: 39db 91bd 0d62 0e3d c913 77bd dd03 1cbd
00000360: 9727 92bd d83f e9bc 3231 19be e7ee 46bc
00000370: 06ef ed3d eca5 dcbd 5787 a2bd f5fa e5bd
00000380: 46d5 febc 6f81 a63b fe8a 90be 2f88 ee3b
00000390: 179c 57bd 48f8 d63d d9a9 933c 9b65 63be
000003a0: 61a9 cdba 0b49 d93a c7d4 30bd 479f 16bb
000003b0: 23b8 193d bb9a bdba 4167 a83c 1bc0 14be
000003c0: 0abd 2cbe 69cd 97bd 2b77 e83d 2d0c 38bb
000003d0: 4c89 bcbc 165b 8fbf 8089 7bbd db3f 2fbe
000003e0: 59d0 673c f540 63bd afeb 6b3c b797 1cbd
000003f0: 2928 cc3c 8631 ecbd 4a12 25be 2d00 06be
0.035782628 0.028934496 0.041827228 -0.19472782 -0.068456545 0.0015063251 -0.071694314 -0.15870641
-0.16656703 -0.02878444 -1.3537847 -0.06650742 -0.14309017 -0.1608195 -0.0055792257 -0.04731392
-0.018536234 -0.08493366 -0.0006786152 -0.033251017 -0.02557734 -0.05482308 -0.03497041 0.02044219
-0.17493583 -0.021311883 -0.056854114 -0.022182764 -0.024266506 -0.0047628726 -0.028521897 0.00027873143
-0.011559601 -0.00010191238 0.1203517 0.012546245 0.087499835 -0.1401175 -0.0091210455 -0.08971115
-0.034718256 -0.075253345 0.11904122 -0.1822606 0.0052864933 -0.047068626 -0.00720636 -0.08170932
0.07397071 -0.1120336 0.15017317 -0.0538789 -0.079269 0.024083838 -0.18326856 0.01258045
0.00452159 -0.065140285 -0.018978322 -0.022543484 0.024730794 -0.028389297 -0.0075926534 -0.056459982
0.012286728 -0.07058778 0.014956689 -0.17354026 -0.105696306 0.006645963 0.010945871 -1.0929959
-0.15891895 -0.03209324 0.1506958 -0.029481735 -0.024270477 -0.10659071 0.0037642764 -0.0460492
-0.14777297 -0.010862773 -1.1311047 -0.1880735 -0.06589732 0.015822686 -0.16610171 -0.053020842
0.16597027 -0.0016976903 0.0024621878 -1.1468848 -0.16312283 0.005465848 -0.025795605 -0.020173244
-0.17735189 -0.08071866 -0.03723767 -0.15555799 0.003369584 -0.17329694 -0.0476525 -0.036423635
-0.008326516 -0.025928577 -0.0334652 -0.017782131 0.07307543 0.011202984 -0.0065383124 -0.002082454
-0.02533262 -0.08042678 -0.10684901 -0.0058412584 -0.106701896 -0.053476494 -0.07104277 -0.0222605
-0.037591312 0.10304272 -0.16031961 -0.20419522 0.012079793 0.03673927 -0.03105129 0.00435806
-0.066324994 -0.15422392 -0.0056795655 0.00030112764 -0.030703176 -0.027581882 0.01113203 -0.20965892
-0.026190003 -1.3700898 -0.13851248 -0.03994085 -0.0037599946 -0.1764275 -0.03918252 -1.1307551
-0.122218855 0.14075162 0.03971874 -0.039519932 0.10093187 0.10505699 0.09722602 -0.016072743
0.12513669 -0.021661337 0.018033333 -0.07583944 0.016652366 0.11679924 -0.16081375 -0.092170455
-0.038001917 0.0346077 -0.04369429 -0.013026718 -0.029631 -0.060049433 0.120341234 -0.14980094
-0.035286196 -0.049596813 0.10041117 -0.0349857 -0.015342704 -0.19230804 -0.04175976 -0.024173293
-0.010351978 0.10942087 -0.01682949 -0.035053413 0.03351988 -0.0108545385 0.11145935 -0.032914884
0.11528551 -0.025006799 0.04238222 -0.12884857 -0.16446698 -0.19956703 0.00972353 0.048802633
0.06228188 0.00027963996 -0.09383666 -0.06262357 -0.17294668 -0.17511103 -0.058795154 0.010741491
-0.17190748 -0.016102944 -0.010883337 0.0023769774 0.1442935 -0.02417765 -0.07112847 -0.018815756
-0.055145953 -0.10251637 0.015718589 -0.022220671 -0.071218915 0.034761477 -0.060321603 -0.03808962
-0.071364574 -0.028472826 -0.14960173 -0.01214192 0.11617856 -0.107738346 -0.0793597 -0.11229507
-0.031107556 0.0050813477 -0.28231043 0.007279418 -0.052639093 0.10496575 0.018025326 -0.22206728
-0.0015690738 0.0016577555 -0.04317167 -0.002298312 0.037529122 -0.0014465669 0.020557048 -0.14526407
-0.16868988 -0.07412226 0.113508545 -0.002808343 -0.023014687 -1.1199672 -0.061410427 -0.17114203
0.014148795 -0.05548187 0.014399453 -0.038230624 0.024921494 -0.11532883 -0.16120258 -0.13086005

model.3.bias f4 [256]
00000000: 2534 dabf eda2 57be 2e55 e2be 26ae 22bf
00000010: a143 6abf f1a9 91be 42b5 79bf d010 f9be
00000020: 8b01 73bf ff92 4dbe dbc8 b4be e843 c6be
00000030: d516 1bbf 4381 d6be d77b 26be 129b abbf
00000040: 174a 20be cc19 afbd 361e 04be a926 cfbf
00000050: 7fb8 71bf 7b7e 19bf 4112 4ebf b5d5 28bf
00000060: b66b bcbf 460d b0bf 9b49 90bf 49b6 a2bf
00000070: 30cf bebf 71b4 06be d3cc 30be 7a4a 15bf
00000080: ead8 13be 3015 fabe 682a 3ebf 242e c0bf
00000090: 4c4c d4bd 93b1 45bf 1d3b 5fbe b1c8 28be
000000a0: 5843 79be 6ff5 5cbe 5ea1 79bf c098 a9be
000000b0: b0be d7be 2e42 39bf 8b31 9cbf 9bd1 8fbe
000000c0: 9db7 d3be 4924 eebe 0f19 3ebf a157 5ebe
000000d0: 2d4b 82bf fc17 99bf 7695 16bf f3db 29bf
000000e0: 2ddf d6bf 9187 d5be 3066 f3be 97b8 89bf
000000f0: f2a4 bcbe 7c18 a7bf 02bb e9bd 97d7 56bf
00000100: e9b7 1fbe 9d7e a7bf 52f1 43be 01a0 9ebf
00000110: fd8d 3cbe fa66 71bf b492 e1bd e8b6 0ebf
00000120: 3443 febe 9fff 48be 31e7 94be 2e68 13be
00000130: e2e0 43bf 16f1 2ebf 5326 c4be db1b 41bf
00000140: 7702 dcbf 81f1 20bf be65 d2bf a40c 0bbe
00000150: 1126 91bf 1a68 0ebe 91b1 9cbe fc84 c2bf
00000160: 876c bdbe 584f 81bd 42f7 03be d49e 5ebe
00000170: aec5 ddbe 33ec a7bf 2979 c7bf 4ba9 f3be
00000180: 844d 89bf 6d4b 04be da89 b9bf 5f88 07bf
00000190: 8678 a0be 3c2b 99bf 8285 adbf 1586 19be
000001a0: 7a9d 1bbf 6bde 99be 3f03 04bf d5fb 24bf
000001b0: 5fb2 7abe 133e 92bf 6ac2 33be 2b97 bfbe
000001c0: fa78 b1be 289f babf a5f1 44bf 9e31 6ebf
000001d0: ac35 d3bf 2b2c 3abf ced9 e5be 0e8c 37bf
000001e0: 3f44 87bf 340d 11be 199b 1abf 4923 76bf
000001f0: 55a9 55be c700 5fbf 8b11 14bf f74f d6bf
00000200: baab 04bf c6d7 70bf 1dbb 33bf 14b1 9cbe
00000210: ee71 c3bf d000 7cbf f0b3 bdbe 106d 14bf
00000220: e906 e8be 8721 f7bd 94fd b8bf 0e84 82bf
00000230: 49f6 cfbf da84 9bbe b3bd 6cbf a576 6fbf
00000240: 9418 b8bd cabd cfbe 71eb 4bbe 2f94 72be
00000250: 40a0 3bbe d491 33bf 9471 87bf 4dbd 09bf
00000260: 15ee 6ebf f702 37bf 8410 98be 64c4 1fbe
00000270: 153d a5bf 1778 4ebf 23f9 90bf 95b1 cfbf
00000280: 1c8a 95bf e6eb 67bf e624 78bf 788e 4ebf
00000290: ffd9 3ebf 16e8 cebd 72aa b1bf 4950 b4be
000002a0: ece0 fbbe cbf1 9bbf 4118 f4bd 8707 cabf
000002b0: 6787 6bbe db93 52bf af81 0abe 263f 53be
000002c0: 5d13 91be df0f b0bd 0d42 64be cbdb 03bf
000002d0: 6759 3fbf 70c4 13bf 469e adbf c1e0 2ebe
000002e0: b174 8abf b329 d0bf a316 1fbe 2e1f 40bf
000002f0: 4369 8cbf 53b2 fbbd c35e 88bf 881c 4bbf
00000300: 7b02 99bf b8d8 29bf 034b cbbe 3b27 d8be
00000310: 19c7 58bf 153d 6bbe 6328 84be f4a5 cabe
00000320: f39e 11be b7c7 6bbf 3c31 28bf 106d 9cbf
00000330: 7ec2 08bf 5fce 6dbe ac91 d5bd 66f5 17bf
00000340: 45e8 5bbe 6572 d0be 1c51 b9bf e111 61bf
00000350: 981e 0cbf 2936 4abf d4e1 aabf 8d66 23be
00000360: 27ef 5abf c285 58bf da4f eebe ea05 6abf
00000370: 60da 7cbf a187 37bf 9386 37bf df34 5bbe
00000380: cb4b d4be 811d 93bf efdc 49be f575 67bf
00000390: 2e9e 2ebe d4d4 59bf 2e44 e2be 5dab bcbf
000003a0: 4e5b c8bf f327 1ebe 10de 9bbf 372e 09bf
000003b0: 1ebd 9cbf 0fe9 dcbe 091b 07be a144 18bf
000003c0: 662f 18be 3940 e9be 6dc4 57bf 35ad c1bf
000003d0: 0224 10be d25c debd e2c0 dabf 482b 0dbf
000003e0: 436e 60bf 28d2 d6be ea0c 0dbf 3cc8 22bf
000003f0: 49bd 44be def5 c4be f87f 20bf 0576 3fbf
-1.7047163 -0.21058245 -0.44205612 -0.6354698 -0.91509444 -0.28449968 -0.975422 -0.4864564
-0.9492423 -0.20075606 -0.3530949 -0.38723683 -0.60581714 -0.41895494 -0.16258179 -1.3406699
-0.15653263 -0.08549842 -0.1290215 -1.6183673 -0.94422144 -0.5995862 -0.80496603 -0.6595109
-1.4720371 -1.3754051 -1.1272463 -1.2711879 -1.4906979 -0.1315477 -0.17265634 -0.5831677
-0.14438215 -0.4884429 -0.74283457 -1.5014081 -0.10366115 -0.7722408 -0.21799894 -0.16482808
-0.24342096 -0.21578 -0.9751185 -0.33124352 -0.4213767 -0.7236661 -1.2202619 -0.28089604
-0.41351023 -0.46512058 -0.74256986 -0.21713115 -1.0179192 -1.1960444 -0.5882181 -0.6635124
-1.6786858 -0.4170499 -0.475389 -1.0759457 -0.36844593 -1.3054347 -0.11412622 -0.83922714
-0.155975 -1.3085514 -0.19135025 -1.2392579 -0.18413539 -0.94297755 -0.110143095 -0.5574784
-0.49660647 -0.19628762 -0.29082635 -0.1439521 -0.7651502 -0.6833662 -0.3831049 -0.7543313
-1.7188252 -0.62868506 -1.6437299 -0.13579041 -1.1339742 -0.13906899 -0.30604222 -1.5196834
-0.36996862 -0.06313962 -0.1288729 -0.21740276 -0.4331488 -1.3118957 -1.558385 -0.47590098
-1.0726781 -0.12919398 -1.4495194 -0.5294246 -0.31341952 -1.1966319 -1.3556368 -0.14992554
-0.60787165 -0.30052504 -0.51567453 -0.64446765 -0.24482106 -1.1425194 -0.17554632 -0.3742002
-0.3466261 -1.4579821 -0.7693122 -0.9304446 -1.6500754 -0.72723645 -0.44892734 -0.7169808
-1.0567702 -0.14165193 -0.6039291 -0.9614759 -0.20865376 -0.8711056 -0.5783927 -1.6743153
-0.51824534 -0.94079244 -0.7020739 -0.3060385 -1.5269144 -0.9843874 -0.37051344 -0.57978916
-0.45317772 -0.12066942 -1.4452386 -1.019655 -1.6247035 -0.30374795 -0.9247696 -0.9354041
-0.08989063 -0.40574485 -0.19914033 -0.2368934 -0.1832285 -0.7014439 -1.0581536 -0.53804475
-0.93332034 -0.714889 -0.297001 -0.15602261 -1.2909266 -0.8065199 -1.132603 -1.6226069
-1.1682773 -0.9059433 -0.969313 -0.8068614 -0.74551386 -0.10102861 -1.3880141 -0.35217503
-0.4919504 -1.2183164 -0.119186886 -1.5783547 -0.2300087 -0.8225686 -0.13526033 -0.20629558
-0.28335086 -0.08596777 -0.22290821 -0.5150725 -0.7474579 -0.57721615 -1.3563926 -0.17077924
-1.0816861 -1.6262726 -0.15535979 -0.75047576 -1.0969623 -0.12289872 -1.0653919 -0.7934041
-1.1953882 -0.6634631 -0.39705667 -0.4221743 -0.846788 -0.2297252 -0.25812063 -0.39579737
-0.1422079 -0.92101616 -0.65700126 -1.2220783 -0.5342177 -0.23223256 -0.10428175 -0.59358823
-0.21475323 -0.40712276 -1.4477878 -0.87917906 -0.5473418 -0.7898889 -1.3350167 -0.15957089
-0.8552117 -0.845791 -0.46545297 -0.91415274 -0.98770714 -0.7169133 -0.7168972 -0.21406887
-0.41464075 -1.1493379 -0.19713186 -0.90414363 -0.17052528 -0.85090375 -0.44192642 -1.4739796
-1.5652864 -0.15444927 -1.2177143 -0.53586143 -1.2245214 -0.4314656 -0.13193907 -0.5947972
-0.14861831 -0.4555681 -0.84284097 -1.5130984 -0.14076236 -0.10857548 -1.7090113 -0.55144167
-0.87668246 -0.41957211 -0.5509783 -0.63586783 -0.19212832 -0.38468832 -0.62695265 -0.7478946

model.6.weight f4 [1, 256]
00000000: 34c6 063f 23d0 f0bc 7fac 8b3e 5160 82bf
00000010: 854b 86bf 2002 e2bd b722 273e cf7c 733d
00000020: 5020 c63e d4ae 8c3b 347d 25bf 7e79 71be
00000030: abf7 d83e c792 063e fa66 6d3d de84 8d3f
00000040: 06a7 553e 2ccd 363e fdbf bbbd c774 083f
00000050: 7a15 adbe 6790 573f a178 1c3e 3b7e 1abc
00000060: 6102 0b3f 9b06 933f 0c1b 1e3f 11a5 6f3e
00000070: dd5a 9c3e 26e1 ce3e dfae ae3d e218 05be
00000080: cc78 cabd d046 003e 3325 a13d 28ab 853e
00000090: 1d14 4a3f 0d1a 693f b35b 82bd 2036 53bd
000000a0: 33e4 563e 2f5f d0bc 6130 973f 326f 41bc
000000b0: d50f eb3e 0d90 3e3f 635d 513f 9a9d bbbd
000000c0: 3c05 a9bd 1f66 d43e 0f53 983f 5408 9a3c
000000d0: 0a9c 0b3f 8bb4 04bd a86f f73e b565 ad3f
000000e0: 81cd 7abf 7824 37be 589e 97bf e818 15bf
000000f0: 02d4 6a3e c629 613f 87b6 c5bc ad2e d93e
00000100: 1222 a53d 58b5 e03d db72 113c 1e03 0cbf
00000110: ac41 34bc 8c94 113f 4491 e6be 5d35 f33c
00000120: 261b 0f3f 969d 16bd b541 7bbd 891f e9bd
00000130: 3b07 43bd 3dd0 1a3f a568 533e de47 61bf
00000140: 09b6 283f 7cda 703e c695 c43e 8473 dfbd
00000150: 0912 953f 84ab c83d 98f7 ddbd c3f5 353f
00000160: deb3 933e 697c 6c3d b970 da3d c971 89bd
00000170: 1363 5c3e 2c41 563f 44ff ac3e 55d0 8dbf
00000180: dad6 64bd ca36 e1bd f6ea d13e ff40 0ebe
00000190: ed0c 47be f913 2b3e c9c3 8d3f 0f08 bcbd
000001a0: cbb9 483c 1437 213e 40f6 3e3c f038 e23e
000001b0: e020 e7bd f350 8dbf 9789 94bd aa5c 8a3e
000001c0: 98da 443f e21c b33e 6704 323f d876 b33e
000001d0: 97de 163f 09fa 8b3e 9c22 fdbc 4eaa 333f
000001e0: d137 003f fdec 4fbd 3c64 a7be fb2d d63e
000001f0: 6fbd aabe dba8 ce3e ee40 8f3e 7491 443e
00000200: 3383 ba3d 296c 1fbd 9624 873e 3b02 2fbd
00000210: 3d94 553e 74a6 673f 35a2 6bbc 7d06 383f
00000220: 1ddb 483f 7115 e0bd 1c0c 623f aa24 1a3f
00000230: 3763 66bf 80d6 413f a7d3 5f3f 6e8f 46bf
00000240: 7797 3b3e 993b 023f fb71 09bd b279 8dbd
00000250: a1fc 713e 4eca 8abd bce2 863f 4d20 24bf
00000260: ba80 833f 8d17 73bc 5af1 66bc 1bae bb3d
00000270: 4460 85bf 78d4 a93d 923a 3f3f 9c5b c63f
00000280: b069 333e 13b9 bebc c430 3e3f 9b11 4e3f
00000290: ad89 393f 3bc9 d2bd 7926 0e3e 72fc 0f3f
000002a0: 7b96 673f 782b 8ebf 494d d7bd a0d5 3fbf
000002b0: 293b 3ebd fa32 8b3e e27f d7bd e00d 543b
000002c0: 4688 2a3e 1b64 d6bd 2474 1bbe 0b2a d73e
000002d0: 3d12 0bba 4ff0 203f 045d 21be 43f6 2bbd
000002e0: 4a43 b43e 476f 8cbf 5233 d73d 63c0 5d3f
000002f0: d802 653f d3df e13d 2e68 453f a99c 113f
00000300: 8ee4 80bf b710 b53e d4ae 11bd 854a 93bc
00000310: 36a6 403f 9943 55bb 66d9 d8bb 7f25 373e
00000320: ee53 3a3f 5f49 293f 4e19 503e 7910 953f
00000330: f76f 463f 7fa0 bb3e 8187 ad3d badf eebe
00000340: e899 55bd e499 003e 6651 8f3e b062 d93d
00000350: 5302 9f3d a43f de3e f5cb 38bf fe8b cebd
00000360: fe10 a83d 3480 483f a475 523f 81ca 3f3f
00000370: 5d75 ac3e 5aed 89be 3d61 753f f1e5 56be
00000380: ff36 353e df07 edbd 8374 c5bd fad6 353f
00000390: d62c 65bc 1707 48bf 7511 6d3e a688 123f
000003a0: 763e e43e c9bc 013a 9904 9e3e 9836 00be
000003b0: 1fc9 483e 56f0 4f3e 5d65 c2bd 04e6 eb3e
000003c0: ba71 70bc 5a33 353e a76f 4f3e f059 bd3d
000003d0: 0b39 d0bd 06db a33d eeb3 4bbf 0cb7 3a3e
000003e0: 1413 26bf 4a79 acbd 67fa 293f 8b55 be3f
000003f0: b178 973c 846c 773e 66af 613f 4b24 1c3f
0.52646184 -0.029396122 0.27280042 -1.0185643 -1.0491797 -0.110355616 0.16321836 0.0594452
0.38696527 0.004293302 -0.6464417 -0.23581502 0.42376456 0.13141929 0.057959534 1.1056173
0.20864496 0.17851704 -0.09167478 0.5330319 -0.33805448 0.84204715 0.15280391 -0.00942951
0.54300505 1.1486391 0.6176002 0.23402812 0.30538073 0.4040615 0.08529448 -0.12997773
-0.098863214 0.12527013 0.07868423 0.26107144 0.7893694 0.91055375 -0.063651465 -0.05156529
0.20985489 -0.025436012 1.1811639 -0.011806296 0.45910516 0.74438554 0.8178312 -0.091609195
-0.082529515 0.41484162 1.1900347 0.0188028 0.5453497 -0.03239874 0.48327374 1.3546664
-0.97969824 -0.17885005 -1.1845198 -0.5824113 0.22932437 0.87954366 -0.024134887 0.42418423
0.08063139 0.109720886 0.008877481 -0.54692256 -0.0110019855 0.5686729 -0.45032704 0.029688532
0.559008 -0.03677138 -0.06134196 -0.11382968 -0.047614317 0.60473996 0.20645387 -0.88000286
0.65902764 0.23520845 0.38395518 -0.10910705 1.1646129 0.09798339 -0.108382404 0.7107813
0.28848165 0.057735834 0.106660314 -0.06711156 0.21522169 0.83693194 0.33788502 -1.1079203
-0.05586896 -0.10996778 0.40999573 -0.13891982 -0.19438525 0.16706838 1.1075374 -0.091812246
0.012251328 0.15743667 0.01165539 0.44184065 -0.11285567 -1.1040329 -0.07252806 0.27023822
0.7689605 0.34982973 0.6953797 0.35051608 0.58933395 0.273392 -0.030900292 0.7018174
0.5008517 -0.05076312 -0.3269366 0.41831955 -0.3334765 0.40363201 0.27979225 0.19196111
0.091070555 -0.03892151 0.263951 -0.042726737 0.2085733 0.9048836 -0.014381935 0.718849
0.7845934 -0.109415896 0.8829973 0.60212195 -0.8999514 0.75717926 0.8743233 -0.77562606
0.18319498 0.5087219 -0.033555966 -0.06907977 0.23631527 -0.06776868 1.0537944 -0.6411179
1.0273659 -0.014837158 -0.014095629 0.09164067 -1.0420003 0.08292478 0.74698746 1.5496707
0.17520785 -0.02328161 0.7429316 0.80495614 0.724757 -0.10292288 0.13881864 0.56244576
0.9046399 -1.1107016 -0.10512788 -0.7493534 -0.04644314 0.2718733 -0.105224386 0.0032356903
0.16653547 -0.10468312 -0.15181023 0.42024264 -0.0005305147 0.6286668 -0.15758139 -0.0419829
0.35207587 -1.0971459 0.105078354 0.86621684 0.89457464 0.11029019 0.7711209 0.5687967
-1.0069749 0.35364315 -0.03556712 -0.01797987 0.7525362 -0.0032541512 -0.006617713 0.17885397
0.72784317 0.6612758 0.20322153 1.1645652 0.77514595 0.36645886 0.08473111 -0.46655065
-0.05214873 0.12558705 0.2799179 0.10614526 0.07764115 0.4340793 -0.72186214 -0.10085295
0.08206366 0.7832062 0.82210755 0.7491837 0.3368329 -0.26938897 0.958515 -0.20986153
0.1769676 -0.11573767 -0.096413635 0.71031153 -0.0139877405 -0.7813582 0.2315119 0.5723976
0.44578904 0.00049490907 0.30862883 -0.12520826 0.19607972 0.20306525 -0.0949199 0.46073925
-0.014675552 0.1769537 0.20257436 0.0924567 -0.1016713 0.0800076 -0.79571426 0.1823389
-0.6487286 -0.084215716 0.6639771 1.4869856 0.018490167 0.24162489 0.8815826 0.6099288
