code/seed3/GAN_generator.pth (torch, 411870 bytes, 14 tensors)

0.weight f4 [192, 102]
0	0xbd0ec3fb	-0.03485487
1	0x3c9af176	0.018913966
2	0x3c2dacf1	0.0106003145
3	0x3a846ad3	0.0010102637
4	0x3c9fcf2b	0.019507965
5	0xbdb5a861	-0.08870006
6	0xbd06b208	-0.032884628
7	0x3cbf63c3	0.023363
8	0x3cff52cb	0.031167408
9	0xbc3bdc58	-0.011466108
10	0xbce2c164	-0.027680106
11	0xbd1de82a	-0.038551487
12	0x3cb3d9b5	0.021954397
13	0xbd2ccddc	-0.04218851
14	0x3c93ae29	0.018027382
15	0xbd94d9a1	-0.07268072
16	0x3c476519	0.0121701
17	0x3ce3de85	0.027816067
18	0x3d28eb18	0.041239828
19	0x3d4d8a25	0.050180573
20	0xbd8fa7a1	-0.070143946
21	0xbc6d277f	-0.014474749
22	0xbd473013	-0.04862983
23	0x3d1cf369	0.03831807
24	0xbdb332f5	-0.08749954
25	0xbd6115d0	-0.054952443
26	0xbcbfaded	-0.023398364
27	0xbd68ca64	-0.05683364
28	0xbcd3ca46	-0.025853287
29	0x3ce0a91e	0.027424391
30	0x3c0eefd9	0.008724176
31	0xbd21ee6f	-0.03953403
32	0xbcf04f58	-0.029334709
33	0x3d856caf	0.065148704
34	0xbc855892	-0.016277585
35	0x3ae1323f	0.0017181112
36	0xbbcd94c6	-0.0062738387
37	0x3c6a8288	0.014313348
38	0x3c3feef4	0.011714686
39	0x3ca793b8	0.02045618
40	0x3d914d70	0.07094848
41	0xbca9b6e5	-0.020717094
42	0xbccafc9e	-0.02477866
43	0x3bfab01a	0.0076503875
44	0x3ca84875	0.020542363
45	0x3d569681	0.052389625
46	0x3d058927	0.0326015
47	0xbd0d1730	-0.03444594
48	0xbd28674c	-0.041114137
49	0xbce41878	-0.027843699
50	0xbcdf42f1	-0.0272536
51	0xbb920f3e	-0.0044573834
52	0xbbba3439	-0.005682495
53	0x3a15669b	0.00056991883
54	0x3cc96fd4	0.024589457
55	0x3cace889	0.021106975
56	0x3c8025dc	0.015643053
57	0x3d8194ce	0.0632721
58	0x3d67f1f0	0.056627214
59	0xbb3a8c7a	-0.0028465078
60	0xbcfd6ef7	-0.030936701
61	0x3d27095e	0.040780418
62	0x3d2b7849	0.04186276
63	0xbd093692	-0.033499308
64	0xbbd46f8b	-0.0064830235
65	0xbd7fd14b	-0.062455457
66	0x3cf56cb4	0.02995906
67	0xbd3be940	-0.04587674
68	0x3ce8be19	0.028410958
69	0xbb95f3f0	-0.0045761988
70	0x3c18a4f6	0.0093166735
71	0xbd9809dc	-0.074237555
72	0xbd4b806c	-0.04968302
73	0x3c1ee1bd	0.009697375
74	0x38e859a0	0.00011079316
75	0xbcf74b89	-0.030187385
76	0x3cbbb051	0.022911223
77	0xbd84e750	-0.06489432
78	0x3cbe0596	0.023196023
79	0xbcce6982	-0.025196794
80	0x3d83c47c	0.06433961
81	0xbd8f21fe	-0.06988905
82	0xbc826c7b	-0.015920868
83	0x3d019a36	0.031641208
84	0x3ce1cab8	0.027562484
85	0xbd8da19b	-0.069155894
86	0x3d1a4bd4	0.03766997
87	0x3c3116e1	0.010808677
88	0xbbf60926	-0.007508415
89	0x3b2391cd	0.002495873
90	0x3d604f8a	0.054763354
91	0x3c28e94b	0.010309528
92	0xbbcbba64	-0.006217288
93	0x3d80879e	0.06275867
94	0x3c87e1ee	0.016587224
95	0x3ccc358a	0.024927873
96	0xbd745966	-0.05965557
97	0xbd619a8e	-0.055079035
98	0xbcddd791	-0.02708033
99	0xbc669167	-0.014072753
100	0xb84a0ea7	-4.81742e-05
101	0x3c83ed1f	0.01610428
102	0xbce1504d	-0.02750411
103	0xbc655f2e	-0.013999743
104	0x3d2957db	0.04134355
105	0xbd9a0eaf	-0.07522332
106	0xbb8f28b2	-0.004368865
107	0x3c81d9df	0.01585096
108	0xbdcf68f6	-0.101274416
109	0xbd2a5ac5	-0.04159047
110	0x3d8bcf31	0.06826628
111	0x3d9a8c94	0.075463444
112	0x3d85ca56	0.06532733
113	0xbd44f86c	-0.048088476
114	0x3d100447	0.03516033
115	0xbd95a8bc	-0.07307574
116	0x3d59765f	0.053091403
117	0x3d172c6f	0.03690761
118	0xbc70ccb1	-0.01469724
119	0x3ba581bd	0.0050508664
120	0xbca21a2c	-0.01978787
121	0xbd19e933	-0.03757591
122	0xbd4f46bf	-0.050604578
123	0x3da560a3	0.080750726
124	0x3bd0182a	0.006350537
125	0xbc3be116	-0.011467239
126	0xbd88341f	-0.06650566
127	0x3c305062	0.010761352
128	0xbc0b92d2	-0.008518891
129	0xbba6ef6b	-0.005094459
130	0xbd12d190	-0.035844386
131	0x3c9299d1	0.017895611
132	0x3cdf4a49	0.027257102
133	0x3c69cbce	0.014269782
134	0x3d21e72d	0.039527107
135	0x3ce7f6c5	0.028315911
136	0xbcafb762	-0.021449748
137	0x3d6ceb17	0.057841387
138	0x3c81a707	0.015826715
139	0xbd1e14d0	-0.038594067
140	0xbd1d6ebc	-0.038435683
141	0x3d096b74	0.03354974
142	0x3d749556	0.05971273
143	0xbc970e49	-0.018439429
144	0xbbd1b074	-0.0063992087
145	0xbb620039	-0.0034484996
146	0xbc6b7649	-0.014371463
147	0x3d24c23b	0.040224295
148	0xbbe37ef4	-0.006942624
149	0x3cf7b43b	0.030237308
150	0xbd0d7b39	-0.034541342
151	0x3d0440ec	0.032288477
152	0x3cbb279b	0.022846034
153	0x3cdae612	0.026721034
154	0x3c533d4c	0.012893032
155	0x3d1a7f05	0.03771879
156	0xbd0d300d	-0.034469653
157	0x3d4a0287	0.049318817
158	0xbd68f4e6	-0.05687418
159	0xbd19a3d2	-0.037509747
160	0x3c347c8e	0.011016024
161	0x3b42a2bf	0.0029699055
162	0x3d05825a	0.032595016
163	0xbc737151	-0.01485856
164	0x3cd706a4	0.026248284
165	0xbd01b6c8	-0.031668454
166	0x3cc7cc5e	0.024389442
167	0x3cfb9969	0.0307128
168	0xbd43468c	-0.0476747
169	0xbb8e33e3	-0.0043396815
170	0x3d8919db	0.06694385
171	0xbcd6b32d	-0.026208485
172	0x3cb12c65	0.021627614
173	0xbd86b7b5	-0.06578008
174	0xbd6800be	-0.056641333
175	0xbcc751e2	-0.024331037
176	0x3bbb1a1f	0.005709901
177	0xbce56557	-0.028002424
178	0x3d5b7fd5	0.053588707
179	0xbab2b8b7	-0.0013635372
180	0x3d252c50	0.040325463
181	0x3cea1d3c	0.028578393
182	0x3b028d4e	0.001992065
183	0xbd884393	-0.06653514
184	0xbcff2d36	-0.031149488
185	0x3d9c2c39	0.07625622
186	0x3d064fea	0.032791056
187	0xbc6dc34e	-0.014511896
188	0xbcdb70e1	-0.026787223
189	0xbd148d78	-0.036267728
190	0xbaa049f1	-0.0012229068
191	0x3a754672	0.00093565055
192	0xbada695f	-0.0016663483
193	0x3c192ce5	0.009349083
194	0xbc8aa628	-0.016924933
195	0x3c4c8814	0.012483615
196	0x3cc2e5d5	0.023791233
197	0x3cd5ce74	0.026099421
198	0x3d31276e	0.043250494
199	0xbd100d38	-0.035168856
200	0xbca6e2a8	-0.02037175
201	0xbd124eab	-0.035719555
202	0xbcb5af40	-0.022178292
203	0x3d8ddcad	0.06926856
204	0xbce07057	-0.027397318
205	0xbca2c0c0	-0.019867301
206	0x3d5b9b47	0.05361488
207	0xbd1f8d5f	-0.03895318
208	0xbd06a3fe	-0.03287124
209	0xbd93ecbf	-0.0722289
210	0xbc6264b1	-0.013817952
211	0xbb8d2484	-0.0043073315
212	0x3ceb7752	0.02874342
213	0x3d0736a3	0.03301109
214	0xbdc2ced1	-0.09512103
215	0xbc0368e5	-0.008020614
216	0xbd6020cd	-0.05471878
217	0x3ca1d91b	0.019756844
218	0x3b87d58d	0.0041453303
219	0x3cbcaeab	0.023032507
220	0xbd4e95cb	-0.050435822
221	0xbc95c267	-0.018281175
222	0x3c3f99f0	0.011694416
223	0xbd4a77da	-0.049430706
224	0x3c31c53d	0.010850248
225	0xbcec2632	-0.028826807
226	0x3d683c15	0.056697924
227	0x3c0dfc54	0.008666117
228	0xbca7d170	-0.02048561
229	0x3c054071	0.00813304
230	0x3cf1c26c	0.029511653
231	0xbd73b44b	-0.059498113
232	0xbc041cfa	-0.008063549
233	0x3de19639	0.11014981
234	0x3d313e03	0.04327203
235	0xbcc6bc62	-0.02425975
236	0xbd15dbfa	-0.03658674
237	0xbb6bf521	-0.0036004263
238	0x3d57c9d9	0.05268273
239	0xbc2e4241	-0.010635913
240	0xbd78bec3	-0.0607288
241	0x3bb1763a	0.005415705
242	0x3ce77ae6	0.028256845
243	0x3d016b88	0.03159669
244	0xbd23252a	-0.039830364
245	0xbcdba3d0	-0.02681151
246	0x3b3e4929	0.0029035306
247	0x3bf6e44c	0.0075345393
248	0x3dd9de6a	0.10638125
249	0x3c8078a8	0.015682533
250	0x3c0a723c	0.008450087
251	0x3cba3b60	0.02273339
252	0x3c2da812	0.010599153
253	0xbb81c538	-0.003960278
254	0xbc4f7696	-0.01266255
255	0xbd5f5c5d	-0.054531444

0.bias f4 [192]
0	0x3c2e1f6c	0.010627609
1	0x3d51c898	0.05121669
2	0x3da6f990	0.08153069
3	0xbd72db0e	-0.059290938
4	0x3dd15a08	0.1022225
5	0xbd5a2b70	-0.05326408
6	0xbd158a81	-0.03650904
7	0x3d65b9e5	0.056085486
8	0x3d2d7e14	0.042356566
9	0xbcbeb47d	-0.023279423
10	0x3d1c8577	0.03821322
11	0xbda4d606	-0.08048634
12	0xbd85b0df	-0.06527876
13	0xbcd0ca4e	-0.025487091
14	0xbc2aac11	-0.010417
15	0xbd8b07cd	-0.06788597
16	0xbd111a49	-0.035425458
17	0x3ca00d22	0.019537512
18	0xbba98927	-0.0051738205
19	0xbd01046c	-0.031498358
20	0xbd98fc8f	-0.07470047
21	0x3d6444d5	0.055729706
22	0xbcd66b80	-0.026174307
23	0x3d98d17a	0.074618295
24	0x3c5e6a39	0.01357513
25	0x3d471963	0.048608195
26	0x3c7415b2	0.014897751
27	0xbd99b9b1	-0.07506121
28	0x3db1cb9f	0.08681416
29	0x3c0c6070	0.008567914
30	0xbdb2fd66	-0.08739738
31	0x3d915d8b	0.0709792
32	0xbd8c8da7	-0.068629555
33	0x3ca742b7	0.020417554
34	0x3c837544	0.016047128
35	0xbbd4e6c8	-0.006497238
36	0xbda3b339	-0.079931684
37	0xbd8c7c82	-0.068596855
38	0xbd190da7	-0.037366536
39	0xbc810f7b	-0.015754452
40	0xbbb72635	-0.0055892714
41	0xbc2b0103	-0.010437253
42	0x3cea4269	0.02859612
43	0xbcb5a988	-0.022175565
44	0x3c8b2f89	0.01699044
45	0xbc94886c	-0.018131457
46	0x3db5c6c3	0.088758014
47	0x3d7ffa61	0.06249464
48	0x3d7d9162	0.061906226
49	0xbd36df89	-0.044646773
50	0xbd6257bc	-0.05525945
51	0x3bf513b6	0.0074791564
52	0x3d346cc2	0.044049032
53	0x3d4a9f4d	0.049468327
54	0x3d8619fc	0.06547925
55	0x39bf85ba	0.00036529993
56	0xbd5616c9	-0.052267823
57	0xbd3d9677	-0.046286073
58	0x3c689332	0.01419525
59	0xbbdf205a	-0.0068092765
60	0x3d9863af	0.07440888
61	0xbc671fee	-0.014106734
62	0x3d15f617	0.036611643
63	0x3b3e2459	0.0029013364
64	0x3daf358f	0.08555137
65	0x3d44ec72	0.048077054
66	0x3d708478	0.058720082
67	0xbd54bf07	-0.05193999
68	0xbd051b39	-0.032496665
69	0x3cd3ebd9	0.025869297
70	0xbc8d422e	-0.017243471
71	0x3da59b0e	0.08086215
72	0x3d9d275d	0.076735236
73	0xbd25b710	-0.040457785
74	0x3cea44f7	0.028597338
75	0xbc895668	-0.016764835
76	0x3d2dd948	0.042443544
77	0x3a900ca1	0.0010990092
78	0x3db66766	0.089064404
79	0xbd613766	-0.054984473
80	0xbdb96870	-0.09053123
81	0xbdb8cb34	-0.09023133
82	0x3d83ba59	0.06432027
83	0x3d54e767	0.051978495
84	0x3d520e99	0.051283453
85	0xbd5cb7b5	-0.053886134
86	0x3d70665a	0.05869136
87	0xbda7bf32	-0.081907645
88	0xbda35d61	-0.07976795
89	0x3cd035f8	0.02541636
90	0x3da5b2fd	0.0809078
91	0x3dd0ffff	0.102050774
92	0x3a7288e8	0.0009251968
93	0x3d252f84	0.040328518
94	0xbd356e7b	-0.044294816
95	0xbd004946	-0.03131988
96	0x3daa8221	0.08325601
97	0x3cbeda48	0.023297444
98	0x3dc36c55	0.09542147
99	0x3d582012	0.05276496
100	0xbdab5ec9	-0.08367688
101	0x3dc885ae	0.097911224
102	0xbd02943f	-0.03187966
103	0xbba64307	-0.0050739083
104	0xbd8e43f6	-0.06946556
105	0x3c1ce6cd	0.009576512
106	0x3bb68191	0.0055696447
107	0xbd95f5eb	-0.07322296
108	0x3d868ade	0.065694556
109	0xbcf56025	-0.029953072
110	0x3d458469	0.04822198
111	0x3d8507b3	0.06495609
112	0xba943b39	-0.0011309154
113	0x3d8160bc	0.06317279
114	0x3d9ecd5c	0.07754013
115	0xbd4617b3	-0.048362445
116	0xbdaba161	-0.0838039
117	0x3d812bb7	0.06307166
118	0x3da56ccb	0.08077391
119	0xbd7845de	-0.060613506
120	0x3d8f798b	0.07005604
121	0xbd69ad11	-0.057049815
122	0x3d91ece7	0.07125264
123	0xbc771e4b	-0.015082906
124	0x3d896946	0.067095324
125	0x3ca457e3	0.020061439
126	0x3d6fc963	0.058541667
127	0x3d878135	0.06616441
128	0x3d68d53a	0.056843974
129	0x3da6571b	0.08122083
130	0x3d267191	0.04063565
131	0x3dce53f0	0.100746036
132	0x3d72549f	0.059162732
133	0xbc1b99f8	-0.009497158
134	0x3d328fd4	0.043594196
135	0x3da01ee2	0.078183904
136	0xbda6923f	-0.08133363
137	0xbd1a411c	-0.03765975
138	0x3db8b5e6	0.090190694
139	0x3dad52bf	0.08463048
140	0xbd9c3c06	-0.07628636
141	0x3ceef363	0.02916879
142	0x3d84f139	0.06491322
143	0xbcda9c7e	-0.02668595
144	0xbd3c19a1	-0.04592288
145	0xbd9041ea	-0.07043822
146	0x3dac07f2	0.08399953
147	0xbd408c53	-0.047008824
148	0x3ca97c17	0.020689053
149	0x3da6a8a0	0.081376314
150	0x3d00d761	0.0314554
151	0xbd47e2c5	-0.04880025
152	0xbc2889e0	-0.010286778
153	0xbdbe01b6	-0.0927767
154	0xbd7b338b	-0.061328452
155	0x3d9708e4	0.073747426
156	0xbd591351	-0.052996937
157	0xbd50df94	-0.05099447
158	0xbd1e4ef0	-0.0386495
159	0x3d8e1363	0.069372915
160	0xbc922475	-0.01783965
161	0x3db9f021	0.09079004
162	0x3d81ec62	0.063439146
163	0xbd40aa61	-0.047037486
164	0x3d73c4f4	0.059514
165	0xbcec3dc2	-0.028838042
166	0x3d73970e	0.05947023
167	0x3d7ef479	0.062244866
168	0x3ce63763	0.028102582
169	0xbdad4a4f	-0.08461439
170	0xbd1b75a4	-0.037953988
171	0xbd2fe766	-0.042945288
172	0x3d816e86	0.06319909
173	0x3c5adb3a	0.013357932
174	0xbd1e79da	-0.038690425
175	0xbdc60372	-0.09668626
176	0xbdb17fc0	-0.086669445
177	0xbdb6cb85	-0.08925537
178	0x3d4f03eb	0.050540846
179	0xbc051860	-0.008123487
180	0xbd8fb636	-0.07017176
181	0xbd4bb11e	-0.04972946
182	0xbbcd47ed	-0.0062646777
183	0x3d92562f	0.071453445
184	0x3db2ed34	0.08736649
185	0x3c57d36b	0.013172965
186	0xbd57789a	-0.05260525
187	0x3dd39547	0.10331207
188	0x3d3560c6	0.044281743
189	0x3d46e379	0.04855678
190	0x3cc42813	0.02394489
191	0xbb39286c	-0.0028252853

1.weight f4 [192]
0	0x3f6cf79a	0.9256531
1	0x3f7d867e	0.99033344
2	0x3f732a0e	0.94986045
3	0x3f5882af	0.8457441
4	0x3f6ee351	0.9331561
5	0x3f5e6468	0.8687196
6	0x3f534232	0.8252288
7	0x3f757339	0.9587894
8	0x3f83b9e9	1.029111
9	0x3f52c2a4	0.8232825
10	0x3f712365	0.9419463
11	0x3f73b8ce	0.95203865
12	0x3f583b76	0.8446573
13	0x3f80028b	1.0000776
14	0x3f3a1866	0.7269348
15	0x3f5c1790	0.85973454
16	0x3f357a9e	0.70890224
17	0x3f6f4e1c	0.9347856
18	0x3f872a6d	1.0559822
19	0x3f3c7e7d	0.73630506
20	0x3f5f0799	0.8712097
21	0x3f688b54	0.908376
22	0x3f3e8b23	0.74431056
23	0x3f498290	0.7871485
24	0x3f70b18b	0.9402091
25	0x3f4a8aa8	0.7911782
26	0x3f87ac56	1.0599468
27	0x3f4773be	0.77910984
28	0x3f6f44e5	0.934645
29	0x3f814ca2	1.0101511
30	0x3f723853	0.94617194
31	0x3f563762	0.8367826
32	0x3f67a607	0.9048771
33	0x3f3a9008	0.72876024
34	0x3f349134	0.7053406
35	0x3f338b1a	0.7013413
36	0x3f35cb5a	0.71013415
37	0x3f54fdf9	0.8320003
38	0x3f7e0d6d	0.99239236
39	0x3f5419b8	0.82851744
40	0x3f5dc8d0	0.8663454
41	0x3f86c8b8	1.0530005
42	0x3f41a283	0.756386
43	0x3f5ecd5d	0.8703211
44	0x3f8765eb	1.0577978
45	0x3f7daed7	0.9909491
46	0x3f3f5c24	0.7474997
47	0x3f2046d1	0.6260806
48	0x3f554911	0.83314615
49	0x3f8054b9	1.0025855
50	0x3f89d4eb	1.0768102
51	0x3f382a9d	0.7194002
52	0x3f7ed8fc	0.9954984
53	0x3f6c4b8a	0.92302763
54	0x3f851567	1.0397156
55	0x3f60ab1f	0.8776111
56	0x3f76a9bf	0.9635276
57	0x3f3bb101	0.7331696
58	0x3f6f0ecf	0.9338197
59	0x3f7c1436	0.9846834
60	0x3f69550a	0.91145384
61	0x3f65ee8a	0.89817107
62	0x3f7d04e6	0.988356
63	0x3f6ca088	0.9243245
64	0x3f878f72	1.0590651
65	0x3f74f1c8	0.9568143
66	0x3f3d2159	0.7387901
67	0x3f74e7e7	0.95666355
68	0x3f4effb2	0.8085891
69	0x3f750043	0.95703524
70	0x3f640a61	0.89078337
71	0x3f83e370	1.0303783
72	0x3f74ccca	0.95624983
73	0x3f46590d	0.7747963
74	0x3f3a2ad7	0.7272162
75	0x3f5e3935	0.8680604
76	0x3f6bdd93	0.9213497
77	0x3f8052ec	1.0025306
78	0x3f640d4f	0.8908281
79	0x3f78498d	0.9698723
80	0x3f7e3bb7	0.9930987
81	0x3f41db86	0.7572559
82	0x3f5d80aa	0.8652445
83	0x3f6bbcbd	0.92084867
84	0x3f5d5caa	0.8646952
85	0x3f8b1eff	1.0868834
86	0x3f64809a	0.8925873
87	0x3f6ea648	0.93222475
88	0x3f71bda6	0.94430006
89	0x3f5af353	0.85527533
90	0x3f833c06	1.0252693
91	0x3f3f40d1	0.74708277
92	0x3f526b8c	0.82195354
93	0x3f8ebbfa	1.1151116
94	0x3f5f46e0	0.8721752
95	0x3f7f434b	0.99712056
96	0x3f4b3d59	0.79390484
97	0x3f725878	0.9466624
98	0x3f7e93ad	0.99444085
99	0x3f6144b2	0.87995446
100	0x3f672244	0.9028666
101	0x3f8713d4	1.0552926
102	0x3f89c2fe	1.0762632
103	0x3f5ae00c	0.8549812
104	0x3f45a424	0.77203584
105	0x3f716c70	0.9430609
106	0x3f7a31b6	0.977321
107	0x3f49bc5e	0.7880305
108	0x3f47c6c3	0.7803766
109	0x3f606afa	0.87663233
110	0x3f6459fd	0.8919981
111	0x3f43bd10	0.7646036
112	0x3f6c4e9d	0.92307454
113	0x3f55a886	0.8346027
114	0x3f5df6fd	0.86705
115	0x3f8573ed	1.0426003
116	0x3f75fb74	0.9608681
117	0x3f4aed0a	0.7926794
118	0x3f73570c	0.950547
119	0x3f7d8c2a	0.99042
120	0x3f2ef237	0.6833834
121	0x3f53fe9e	0.8281039
122	0x3f695a67	0.9115357
123	0x3f6b4237	0.9189791
124	0x3f592f71	0.84838015
125	0x3f5bdb3d	0.85881406
126	0x3f2c9e26	0.67428815
127	0x3f871253	1.0552467
128	0x3f5e76f3	0.8690025
129	0x3f5af556	0.855306
130	0x3f5ecb96	0.870294
131	0x3f399eae	0.7250775
132	0x3f6f655e	0.9351405
133	0x3f6c91ab	0.9240977
134	0x3f826313	1.0186485
135	0x3f844e33	1.0336365
136	0x3f78a193	0.9712154
137	0x3f834e6e	1.025831
138	0x3f7ae01c	0.97998214
139	0x3f88d0ea	1.0688756
140	0x3f83b01a	1.0288117
141	0x3f4f8b55	0.8107198
142	0x3f5fa1e6	0.8735641
143	0x3f82e577	1.0226277
144	0x3f66006a	0.8984438
145	0x3f88026c	1.0625739
146	0x3f5e836e	0.86919296
147	0x3f811c90	1.0086842
148	0x3f46ae7a	0.7760998
149	0x3f685696	0.9075712
150	0x3f59fc1f	0.8515033
151	0x3f5add4a	0.8549391
152	0x3f69b50e	0.9129189
153	0x3f7a9db9	0.97896916
154	0x3f6f8d3e	0.93574893
155	0x3f62e969	0.88637406
156	0x3f61612e	0.8803891
157	0x3f6fc860	0.93665123
158	0x3f3f2856	0.7467092
159	0x3f665d03	0.89985675
160	0x3f4e8d7d	0.80684644
161	0x3f612a25	0.8795493
162	0x3f67fb32	0.9061767
163	0x3f42c818	0.7608657
164	0x3f4a8eec	0.7912433
165	0x3f86321a	1.048404
166	0x3f5c6903	0.86097735
167	0x3f50d27d	0.8157118
168	0x3f62d810	0.88610935
169	0x3f4b2b4b	0.79362935
170	0x3f73f7d5	0.95300037
171	0x3f8e117f	1.1099089
172	0x3f7c2ebb	0.98508805
173	0x3f51410e	0.8173989
174	0x3f81794b	1.0115141
175	0x3f653631	0.89535815
176	0x3f896f8a	1.0737164
177	0x3f2cebab	0.675471
178	0x3f5ef022	0.87085164
179	0x3f4c93d0	0.79913044
180	0x3f86f645	1.0543905
181	0x3f73de84	0.95261407
182	0x3f462403	0.773987
183	0x3f675959	0.9037071
184	0x3f5d8d25	0.86543494
185	0x3f5eca9f	0.87027925
186	0x3f871cf8	1.0555716
187	0x3f6b6641	0.919529
188	0x3f49a009	0.7875982
189	0x3f5b7f47	0.85741085
190	0x3f84c00f	1.0371112
191	0x3f5f8d38	0.8732486

1.bias f4 [192]
0	0x3d39abee	0.04532998
1	0xbea41a32	-0.32051235
2	0xbe38685e	-0.18008563
3	0xbe2a9ee0	-0.16662169
4	0xbeb8468b	-0.3599132
5	0xbf73665e	-0.95078075
6	0xbe6e5969	-0.23276295
7	0xbd00068d	-0.031256247
8	0xbe570954	-0.20999652
9	0xbf2f1b5f	-0.6840114
10	0xbeba9b33	-0.36446533
11	0x3dc2bedf	0.09509062
12	0xbe75b1cd	-0.23993607
13	0xbdfc7dc3	-0.12328675
14	0xbee5bb3c	-0.4486941
15	0xbe64fe79	-0.22362699
16	0xbf73708b	-0.950936
17	0xbddae13a	-0.1068749
18	0xbe9a8a6b	-0.3018373
19	0xbf558785	-0.8340991
20	0xbe2e08d3	-0.16995554
21	0xbf818014	-1.0117211
22	0xbf30d77f	-0.6907882
23	0xbe102fcb	-0.14080732
24	0xbd425e29	-0.04745308
25	0xbeba6c93	-0.3641096
26	0xbc3d24c3	-0.011544409
27	0xbf840a09	-1.0315562
28	0xbd026202	-0.03183175
29	0x3c88e700	0.016711712
30	0xbe13c7e2	-0.14431718
31	0xbe66975d	-0.22518678
32	0xbdebaaef	-0.11507212
33	0xbf567cee	-0.8378438
34	0xbf473e29	-0.77829224
35	0xbf6d43ee	-0.9268178
36	0xbf45dd23	-0.7729055
37	0xbf1f505a	-0.6223198
38	0xbd78cd7a	-0.060742833
39	0xbf150e44	-0.5822489
40	0xbd184240	-0.037172556
41	0xbd57c918	-0.052682012
42	0xbf186117	-0.5952315
43	0xbf76cf8d	-0.9641045
44	0xbde8983a	-0.1135716
45	0xbeb22178	-0.3479116
46	0xbf5a6f37	-0.8532595
47	0xbf1fd9b7	-0.6244158
48	0xbe452a80	-0.19254494
49	0xbe07e5b5	-0.1327122
50	0xbd70d0a2	-0.058792718
51	0xbf54fed5	-0.8320134
52	0x3bd4944d	0.0064874054
53	0xbe7104f8	-0.23537052
54	0xbeadbe8f	-0.33934447
55	0xbe4384ea	-0.19093671
56	0xbe3617f8	-0.17782581
57	0xbed90e78	-0.4239385
58	0xbe8164d4	-0.25272238
59	0xbd5e937e	-0.05433988
60	0xbe97699b	-0.29572758
61	0xbdc08a15	-0.09401337
62	0xbe129514	-0.14314681
63	0xbe6e9bf2	-0.23301676
64	0xbe96577e	-0.29363626
65	0xbe43eaad	-0.1913249
66	0xbeae6850	-0.3406396
67	0xbe45f511	-0.19331767
68	0xbf827239	-1.0191108
69	0xbf7ebf78	-0.9951091
70	0xbd2294d3	-0.03969271
71	0xbebce5ba	-0.36894017
72	0xbe31f494	-0.17378455
73	0xbea98530	-0.33109426
74	0xbef51b38	-0.4787233
75	0xbe79c255	-0.24390538
76	0xbe20d85a	-0.15707532
77	0xbddea485	-0.10871223
78	0xbe3c3f4b	-0.1838352
79	0xbea8b26f	-0.32948634
80	0xbe42e700	-0.19033432
81	0xbee09cb1	-0.43869546
82	0xbe3bfe80	-0.18358803
83	0x3d3c6088	0.045990497
84	0xbf823d29	-1.0174915
85	0xbd962153	-0.07330575
86	0xbe7aba46	-0.2448512
87	0xbe330bf6	-0.17485031
88	0xbe02a568	-0.1275841
89	0xbdbcf863	-0.092270635
90	0xbca9aff0	-0.020713776
91	0xbf81249d	-1.0089298
92	0xbe9066f2	-0.2820354
93	0xbea1e47b	-0.3161963
94	0xbdd6460c	-0.10462579
95	0xbd32d3e7	-0.043659117
96	0xbe2ff61a	-0.17183724
97	0xbebd82b7	-0.3701379
98	0xbd0edce4	-0.034878626
99	0xbdeab6e9	-0.114606686
100	0xbd883e6b	-0.0665253
101	0xbde59116	-0.112093136
102	0x3dfd4581	0.123667724
103	0xbe99f2cd	-0.30068055
104	0xbf0ed87e	-0.5579909
105	0xbe465572	-0.19368532
106	0xbcf79723	-0.030223435
107	0xbec0974b	-0.37615427
108	0xbe371cca	-0.17882076
109	0xbe2644b9	-0.16237153
110	0xbde88b6a	-0.11354716
111	0xbf7d6bbd	-0.9899252
112	0xbd1abd7a	-0.037778355
113	0xbe3045ae	-0.1721408
114	0xbea4d9bb	-0.32197365
115	0xbce86711	-0.028369458
116	0xbe0c1b17	-0.13682209
117	0xbe9e20d8	-0.30884433
118	0xbe065951	-0.13120009
119	0x3deee79d	0.116652705
120	0xbf37bf6f	-0.7177648
121	0xbe76c47b	-0.24098389
122	0xbe704b98	-0.23466337
123	0xbd513e89	-0.05108503
124	0xbefb033c	-0.49025905
125	0xbe127e4f	-0.14305995
126	0xbf39a1fd	-0.725128
127	0x3da38fca	0.0798641
128	0xbf81a633	-1.0128845
129	0xbec49968	-0.3839829
130	0xbb392cdd	-0.00282555
131	0xbf74b88c	-0.95594096
132	0xbe0c1dc7	-0.13683234
133	0xbd6a6790	-0.05722767
134	0xbe1db731	-0.15401913
135	0xbead2034	-0.33813632
136	0xbe22bf85	-0.15893371
137	0xbd54a324	-0.051913396
138	0xbec0f760	-0.37688732
139	0xbea4b33c	-0.32167995
140	0xbf8043fc	-1.0020747
141	0xbe5d736d	-0.21626063
142	0xbe0d4d69	-0.13799061
143	0xbea4b694	-0.32170546
144	0xbce33287	-0.027734054
145	0x3d564544	0.05231215
146	0xbf7973ef	-0.97442526
147	0xbe479c90	-0.19493318
148	0xbe9e0d78	-0.3086965
149	0xbe458c99	-0.19291915
150	0xbe265b2c	-0.16245717
151	0xbf8969b2	-1.0735381
152	0xbf435658	-0.76303625
153	0x3db837e8	0.08995038
154	0xbd7ca894	-0.061684206
155	0xbebb7b3b	-0.36617455
156	0xbe3c307b	-0.18377869
157	0xbf7cfeac	-0.988261
158	0xbf76f540	-0.9646797
159	0xbe152686	-0.14565477
160	0xbe85ceff	-0.26134488
161	0xbd98913e	-0.07449578
162	0xbe81eb41	-0.25374797
163	0xbe459073	-0.19293384
164	0xbe87c60e	-0.2651829
165	0xbe2e0f57	-0.16998039
166	0xbd55623c	-0.052095637
167	0xbe8c4ccd	-0.27402344
168	0x3c90e854	0.017688908
169	0xbe0d04f8	-0.13771427
170	0xbeb2dab0	-0.3493247
171	0xbea3f083	-0.32019433
172	0x3d71618c	0.05893092
173	0xbeaf3558	-0.34220386
174	0xbe3f0083	-0.18652539
175	0xbe1ad792	-0.15121296
176	0xbcf11ca3	-0.0294326
177	0xbf663ec7	-0.8993954
178	0xbd89bf6e	-0.067259654
179	0xbe9c25b2	-0.3049751
180	0xbe281271	-0.16413285
181	0xbf682a91	-0.9068995
182	0xbf80c578	-1.0060263
183	0xbf847fb4	-1.0351472
184	0xbe8a8eca	-0.27062064
185	0xbe040c9b	-0.12895434
186	0xbe029cd3	-0.12755136
187	0xbf7d05f2	-0.98837197
188	0xbdf7909c	-0.12088129
189	0xbe63eb7e	-0.22257802
190	0xbe2a8028	-0.1665045
191	0xbddc36b9	-0.10752625

1.running_mean f4 [192]
0	0x3b36d727	0.0027899237
1	0x3d4a7277	0.04942557
2	0x3db02855	0.08601443
3	0xbd4c95cb	-0.04994754
4	0x3dce0e1e	0.100612864
5	0xbd5a744c	-0.053333566
6	0xbd146fd2	-0.036239453
7	0x3d75f412	0.060047217
8	0x3d2477d4	0.04015334
9	0xbcc8ea05	-0.024525652
10	0x3d14605e	0.036224715
11	0xbda4d43e	-0.080482945
12	0xbd79e863	-0.061012637
13	0xbcf7f0e5	-0.030266235
14	0xbc3936aa	-0.011304537
15	0xbd865a41	-0.06560183
16	0xbd0a2168	-0.033723265
17	0x3ca9f594	0.020746984
18	0xbc61ff82	-0.013793828
19	0xbcee57c8	-0.029094592
20	0xbd934a3b	-0.07191893
21	0x3d65030c	0.05591111
22	0xbce62b1a	-0.028096724
23	0x3d8ebd39	0.06969685
24	0x3c944c47	0.018102778
25	0x3d76c5a3	0.060247075
26	0x3c967879	0.018367993
27	0xbd97496b	-0.0738705
28	0x3da38133	0.07983627
29	0x3c25a9a7	0.010111249
30	0xbdb8658d	-0.09003744
31	0x3d8f34cf	0.06992494
32	0xbd7ae839	-0.06125662
33	0x3cb9532d	0.02262267
34	0x3c541031	0.012943313
35	0xbba1e050	-0.00494007
36	0xbda31e62	-0.079647794
37	0xbd8c569e	-0.068524584
38	0xbcf54699	-0.02994089
39	0xbc2db948	-0.0106032565
40	0x3b6a554a	0.0035756403
41	0xbc024366	-0.007950639
42	0x3ce126d0	0.027484328
43	0xbcaa12af	-0.020760862
44	0x3c9d46af	0.019198744
45	0xbca2772d	-0.019832218
46	0x3db91310	0.09036839
47	0x3d813f7f	0.06310939
48	0x3d59ac6d	0.053142954
49	0xbd58a20c	-0.052888915
50	0xbd7da42a	-0.061924137
51	0x3c12d6a9	0.008962312
52	0x3d0f39df	0.0349673
53	0x3d2f11c8	0.042741567
54	0x3d8304a8	0.063973725
55	0xbc774465	-0.01509199
56	0xbd407fd1	-0.046996895
57	0xbd14ff7a	-0.036376454
58	0x3c6ba6ce	0.014383031
59	0xbc1b42e8	-0.009476401
60	0x3d958d7e	0.07302378
61	0xbc528473	-0.012848961
62	0x3d231da9	0.039823208
63	0x3b3ddf33	0.0028972148
64	0x3daaf028	0.083465874
65	0x3d5361ba	0.05160687
66	0x3d82e815	0.063919224
67	0xbd5429e5	-0.051797766
68	0xbd01236b	-0.031527918
69	0x3cef2328	0.029191568
70	0xbc8e405d	-0.017364675
71	0x3da228e8	0.079179585
72	0x3da55e94	0.0807468
73	0xbd0e9743	-0.034812223
74	0x3cf3871d	0.029727513
75	0xbc216733	-0.009851265
76	0x3d3189d5	0.043344337
77	0xbaafc4f6	-0.0013410139
78	0x3dc63c83	0.096795104
79	0xbd67eb22	-0.056620724
80	0xbdbad896	-0.09123342
81	0xbdb064b9	-0.08612961
82	0x3d918795	0.07105938
83	0x3d788696	0.060675226
84	0x3d503f07	0.050841358
85	0xbd6bbb1b	-0.057551485
86	0x3d6f3aa0	0.05840552
87	0xbda0fc15	-0.07860581
88	0xbd901515	-0.07035271
89	0x3caa8392	0.02081469
90	0x3da00864	0.078141004
91	0x3dd3b6ce	0.103376016
92	0xbb6f04ad	-0.0036471293
93	0x3d1d538c	0.038409755
94	0xbd297dd2	-0.041379757
95	0xbd280557	-0.041020717
96	0x3da9cf31	0.08291472
97	0x3cb7eb20	0.022450984
98	0x3db0839e	0.08618854
99	0x3d67fd24	0.056637898
100	0xbda50afc	-0.08058736
101	0x3dc97669	0.09837038
102	0xbd00b747	-0.031424787
103	0xbc0ab27b	-0.008465405
104	0xbd8e7f3b	-0.06957861
105	0x3c64b1d0	0.013958409
106	0x3bfb5520	0.00767006
107	0xbd9ffa98	-0.07811469
108	0x3d87f50f	0.06638538
109	0xbcba6239	-0.022751914
110	0x3d4590a8	0.048233658
111	0x3d881bad	0.06645904
112	0x3ac350d3	0.0014901407
113	0x3d80e938	0.06294483
114	0x3dadd2ec	0.08487496
115	0xbd48d57d	-0.049031723
116	0xbdae29b9	-0.08504052
117	0x3d8fe3f5	0.07025901
118	0x3d92ffd3	0.07177701
119	0xbd65bb39	-0.056086753
120	0x3d95720d	0.07297144
121	0xbd4afb2a	-0.049555935
122	0x3d9ef439	0.077614255
123	0xbc1abc33	-0.009444284
124	0x3d8aed34	0.06783524
125	0x3cd3339d	0.025781447
126	0x3d741b56	0.059596382
127	0x3d878ec2	0.06619026
128	0x3d67fb9d	0.05663644
129	0x3d9dab11	0.07698644
130	0x3d37e6f8	0.044898003
131	0x3dd13f31	0.10217131
132	0x3d6a12bd	0.057146776
133	0xbc2c3fed	-0.010513288
134	0x3d325ac9	0.04354361
135	0x3d9cfe2e	0.076656684
136	0xbd9b13ca	-0.07572134
137	0xbce64db2	-0.02811322
138	0x3db62b49	0.08894975
139	0x3dab25ff	0.083568566
140	0xbd97d411	-0.07413495
141	0x3cebf33d	0.028802508
142	0x3d832783	0.06404021
143	0xbce6f9fb	-0.028195372
144	0xbd45d7ba	-0.048301436
145	0xbd8192f9	-0.06326861
146	0x3daa9a3a	0.08330198
147	0xbd6bfd05	-0.057614345
148	0x3cc005c8	0.023440257
149	0x3da0333c	0.07822272
150	0x3ce09fe5	0.027419994
151	0xbd41c298	-0.04730472
152	0xbc23b622	-0.009992154
153	0xbdb1dfaa	-0.08685239
154	0xbd814724	-0.06312397
155	0x3d984de5	0.07436732
156	0xbd604bdd	-0.05475985
157	0xbd4a2c13	-0.04935844
158	0xbd1b2b52	-0.03788311
159	0x3d95d7e8	0.073165715
160	0xbcbfb4e6	-0.023401689
161	0x3dbbe66d	0.091748096
162	0x3d96fa57	0.07371967
163	0xbd3f7b70	-0.04674858
164	0x3d86d130	0.06582868
165	0xbd23445f	-0.039860126
166	0x3d63aad5	0.05558284
167	0x3d999a00	0.07500076
168	0x3d1987f6	0.037483178
169	0xbda2e066	-0.07952957
170	0xbd21be32	-0.039488025
171	0xbd363efe	-0.044493668
172	0x3d84526a	0.06461032
173	0x3c78a942	0.015177073
174	0xbd3773b8	-0.044788092
175	0xbdd5d848	-0.10441643
176	0xbd9a5736	-0.075361654
177	0xbdb0ccfc	-0.08632848
178	0x3d51b656	0.05119928
179	0xbbf711e0	-0.0075399727
180	0xbd8649e0	-0.06557059
181	0xbd470104	-0.048584953
182	0xbbadb7ad	-0.005301437
183	0x3d932d56	0.071863815
184	0x3dcae505	0.09906963
185	0x3cb120fb	0.021622172
186	0xbd47092f	-0.048592743
187	0x3dd97440	0.10617876
188	0x3d1756c1	0.03694797
189	0x3d813274	0.06308451
190	0x3c6c79e1	0.014433355
191	0xbae82bcc	-0.0017713248

1.running_var f4 [192]
0	0x3e112e85	0.14177902
1	0x3e14ecc6	0.14543447
2	0x3e20a8cb	0.1568939
3	0x3e179617	0.14803348
4	0x3e0952cd	0.13410492
5	0x3e0de15f	0.13855503
6	0x3df4cb4c	0.11952838
7	0x3e1bde3e	0.15221497
8	0x3e2a9872	0.16659716
9	0x3e17d5c3	0.14827637
10	0x3dfacfc5	0.1224666
11	0x3e224907	0.1584817
12	0x3e08692a	0.13321367
13	0x3e2be223	0.16785483
14	0x3e1ce700	0.15322495
15	0x3e095bb5	0.1341389
16	0x3e1412eb	0.14460342
17	0x3e082682	0.1329594
18	0x3e0d4c99	0.13798751
19	0x3e02ac2b	0.1276099
20	0x3e0b9371	0.13630463
21	0x3e069278	0.13141811
22	0x3e1b896a	0.15189138
23	0x3e11daf4	0.1424368
24	0x3e175c54	0.14781314
25	0x3dfb6e72	0.12276925
26	0x3e08e9d3	0.13370447
27	0x3e04520e	0.12921926
28	0x3e07d717	0.13265644
29	0x3e1d884f	0.15384029
30	0x3e16122b	0.14655368
31	0x3dfd9e1f	0.12383675
32	0x3e1b24f7	0.1515082
33	0x3e08c6c1	0.13357069
34	0x3e250eb4	0.1611889
35	0x3e09e60b	0.1346666
36	0x3e18cc0d	0.14921589
37	0x3e1d46b5	0.15359004
38	0x3e08152a	0.13289323
39	0x3e06f7a9	0.13180412
40	0x3e27802a	0.16357484
41	0x3e2998e1	0.16562225
42	0x3e0736ff	0.13204573
43	0x3e019db0	0.1265781
44	0x3e33d104	0.17560202
45	0x3e08b26d	0.13349314
46	0x3e06243e	0.13099763
47	0x3e0a28e4	0.13492161
48	0x3e107148	0.14105713
49	0x3e2c81ef	0.1684644
50	0x3e23c3c2	0.15992644
51	0x3e0a331f	0.13496064
52	0x3e1c4e3e	0.15264222
53	0x3e21c1b6	0.15796551
54	0x3e09261a	0.13393441
55	0x3e221e0c	0.15831774
56	0x3e1e882e	0.15481636
57	0x3e0b4c3f	0.13603304
58	0x3e0463cf	0.12928699
59	0x3e19c1e6	0.15015373
60	0x3e031715	0.12801774
61	0x3e052aa9	0.13004555
62	0x3e092170	0.13391662
63	0x3e12f08b	0.14349572
64	0x3e0fddc1	0.14049436
65	0x3e161ee6	0.14660224
66	0x3e13c4f4	0.144306
67	0x3e1d22c6	0.15345296
68	0x3e204072	0.15649584
69	0x3e06d2d1	0.13166358
70	0x3e0d107c	0.1377582
71	0x3e057174	0.1303156
72	0x3e1f4bd2	0.15556267
73	0x3dfc2ec3	0.123136066
74	0x3dfd877a	0.12379356
75	0x3e1af2be	0.15131661
76	0x3e163aad	0.1467082
77	0x3e151ce6	0.14561805
78	0x3e1025dc	0.14076942
79	0x3e06b35b	0.13154356
80	0x3e199266	0.14997253
81	0x3dffb6da	0.12486048
82	0x3e0c60a6	0.13708743
83	0x3e19cc28	0.15019286
84	0x3e01bce6	0.12669715
85	0x3e28546b	0.16438453
86	0x3e125ff0	0.1429441
87	0x3e1d29d1	0.15347983
88	0x3e123525	0.14278086
89	0x3df753ff	0.12076568
90	0x3e2520f9	0.1612586
91	0x3e0d32da	0.1378893
92	0x3e078513	0.13234358
93	0x3e05aff6	0.13055405
94	0x3e1a309b	0.15057604
95	0x3e291618	0.16512334
96	0x3e05addd	0.13054605
97	0x3df76433	0.12079658
98	0x3e1b7ce8	0.15184367
99	0x3e0fa9d7	0.14029633
100	0x3e0f410f	0.13989662
101	0x3e155c09	0.1458589
102	0x3e30ab40	0.17252827
103	0x3e08c682	0.13356975
104	0x3dee03f8	0.11621851
105	0x3e0ce9c3	0.13761048
106	0x3e078eba	0.1323804
107	0x3e021fa9	0.1270739
108	0x3e117576	0.14204964
109	0x3e148810	0.14505029
110	0x3e1d3f25	0.15356119
111	0x3e0e4a49	0.13895525
112	0x3e0d174c	0.13778418
113	0x3e0bf20e	0.13666555
114	0x3e083050	0.1329968
115	0x3e12d6fa	0.1433982
116	0x3e16ceb8	0.14727294
117	0x3e05caad	0.13065596
118	0x3e0301dd	0.1279368
119	0x3e274893	0.16336279
120	0x3de0925a	0.10965414
121	0x3e0858f0	0.13315177
122	0x3e20dc9c	0.15709156
123	0x3e1e62d6	0.1546739
124	0x3e042117	0.12903248
125	0x3e08a028	0.13342345
126	0x3e01d5c6	0.12679204
127	0x3e2a8b4b	0.16654699
128	0x3e09a8fe	0.13443372
129	0x3e11b086	0.14227495
130	0x3e0eb4df	0.13936184
131	0x3e132999	0.14371337
132	0x3e369084	0.17828566
133	0x3e1b6ea6	0.15178928
134	0x3e233095	0.15936501
135	0x3e00d2ca	0.1258041
136	0x3e22d711	0.15902354
137	0x3e23b614	0.15987426
138	0x3df27c59	0.11840124
139	0x3e0bbf4d	0.13647194
140	0x3e01f9d6	0.12692961
141	0x3e0437cc	0.1291191
142	0x3e0caa90	0.1373694
143	0x3e067eda	0.13134328
144	0x3e0269fc	0.12735742
145	0x3e253335	0.16132815
146	0x3e1a8123	0.15088324
147	0x3e0f7b3c	0.14011854
148	0x3dedfda6	0.11620645
149	0x3e21433c	0.15748304
150	0x3e05e84a	0.13076892
151	0x3e01b99c	0.1266846
152	0x3dfadf91	0.12249673
153	0x3e309bcb	0.1724693
154	0x3e27f19e	0.16400763
155	0x3e117507	0.14204799
156	0x3e105137	0.14093481
157	0x3e05683f	0.13028048
158	0x3e20fe1b	0.15721934
159	0x3e1897f1	0.14901711
160	0x3e0e1a2c	0.13877171
161	0x3e15d22d	0.14630957
162	0x3e12a241	0.14319707
163	0x3e0dbd97	0.13841854
164	0x3e1b08c7	0.15140067
165	0x3e170d3f	0.14751147
166	0x3dffb1eb	0.12485107
167	0x3e16fa5a	0.14743939
168	0x3e103563	0.14082865
169	0x3e1f3b85	0.15550049
170	0x3e097e72	0.13427141
171	0x3e07c711	0.13259532
172	0x3e1dd82b	0.15414493
173	0x3e0e8cd1	0.13920905
174	0x3e06fa07	0.13181315
175	0x3e0cde76	0.13756737
176	0x3e173e98	0.14769971
177	0x3e10d6c9	0.14144434
178	0x3dfd5083	0.12368872
179	0x3e102a6e	0.14078686
180	0x3e0a5fd2	0.13513115
181	0x3dffc19a	0.124880984
182	0x3df9910d	0.12185869
183	0x3e109d81	0.14122583
184	0x3e0c295a	0.1368765
185	0x3e0f4415	0.13990815
186	0x3e2557a7	0.16146718
187	0x3e00399e	0.12521979
188	0x3df6bf96	0.12048261
189	0x3e0c2204	0.13684851
190	0x3e14a205	0.1451493
191	0x3e1f44f5	0.15553649

4.weight f4 [384, 192]
0	0xbab5f357	-0.0013881725
1	0x3d112e2f	0.035444435
2	0xbc89c8df	-0.016819416
3	0xbc0cfddd	-0.008605448
4	0x3dac2d26	0.08407049
5	0x3da49475	0.080361284
6	0x3d5dcd47	0.054150846
7	0x3cc2d6d2	0.023784075
8	0xbd1c3682	-0.03813792
9	0x3d83417b	0.06408974
10	0x3d5fd497	0.0546461
11	0x3c1fae82	0.009746196
12	0x3d06bfa3	0.032897603
13	0xbc77980a	-0.0151119325
14	0x3bc5135d	0.006014271
15	0xbca0bb28	-0.019620493
16	0x3e0a95c4	0.13533694
17	0xb8777e9f	-5.9007314e-05
18	0x3b4318b2	0.0029769358
19	0x3dde1587	0.1084395
20	0x3da94201	0.08264542
21	0x3e22a3c1	0.1588278
22	0x3d5979c7	0.05309465
23	0xbcd5600e	-0.026046779
24	0xbbceba91	-0.0063088615
25	0x3d271f5c	0.04080139
26	0xbd61325e	-0.054979675
27	0x3e1967ff	0.14981078
28	0xbcb593bd	-0.022165174
29	0x3b532ca1	0.0032222646
30	0xbc2dda47	-0.010611123
31	0x3d0f8de8	0.03504744
32	0xb8a729ae	-7.970944e-05
33	0x3e0b4ab0	0.1360271
34	0x3d52b732	0.05144424
35	0x3dfb1325	0.12259511
36	0x3d8f5db9	0.07000298
37	0x3d06838f	0.032840308
38	0xbd016153	-0.031586956
39	0x3d74f824	0.059806958
40	0xb9cd04b5	-0.00039104154
41	0xbd21d35a	-0.0395082
42	0x3d28c12a	0.04119984
43	0x3e129e58	0.14318216
44	0xbd0a9d8d	-0.03384166
45	0x3dbd3e2a	0.092403725
46	0x3e0b187d	0.1358356
47	0x3d3f7e88	0.04675153
48	0xbbb3b51e	-0.0054842373
49	0x3d04d2f1	0.032427732
50	0x3e033aeb	0.12815444
51	0x3e013723	0.12618689
52	0xbd0c44e6	-0.034245394
53	0xbd905686	-0.07047753
54	0x3dc11c66	0.09429245
55	0x3bbe6cf6	0.005811329
56	0x3da08432	0.07837714
57	0x3cf109c6	0.029423606
58	0x3b850d5b	0.00406043
59	0x3da8646f	0.08222281
60	0x3d3fe81e	0.046852224
61	0x3cebe66c	0.028796397
62	0xbb80eae6	-0.003934252
63	0x3dd943bc	0.106086224
64	0x3cd9b27a	0.026574362
65	0x3e01a34f	0.12659954
66	0x3cae6847	0.021289958
67	0x3d7e44e5	0.06207742
68	0x3e10e60b	0.14150254
69	0x3e2981bc	0.16553396
70	0x3cab143b	0.02088367
71	0x3dbac619	0.091198154
72	0x3a467429	0.000757041
73	0x3d5d31a2	0.05400241
74	0x3ca0369f	0.019557295
75	0xbc2111f5	-0.009830941
76	0x3c7d8d67	0.0154756075
77	0x3cfa2bb8	0.030538425
78	0x3c90b66b	0.017665109
79	0x3d981c8e	0.074273214
80	0x3da12526	0.078684136
81	0x3d00050c	0.031254813
82	0xbc81d009	-0.01584627
83	0xbc6eb7e6	-0.014570212
84	0x3e1fe13b	0.15613262
85	0x3dca03a4	0.09863976
86	0x3dc34011	0.09533704
87	0x3bc7759d	0.0060870186
88	0xbc722721	-0.014779837
89	0x3b5d46ac	0.0033764048
90	0x3cd86d9d	0.026419455
91	0x3e20065d	0.15627427
92	0x3d92f81f	0.071762316
93	0x3dc12a97	0.094319515
94	0x3c886d83	0.016653782
95	0xbcfe93bd	-0.031076306
96	0xbc22f343	-0.009945693
97	0x3d8e86e2	0.069593206
98	0xbd2f3df0	-0.042783678
99	0x3abcddb0	0.001440933
100	0x3cbc220c	0.022965454
101	0x3d7942b3	0.060854625
102	0x3cb92e17	0.022604985
103	0x3c02680c	0.007959377
104	0x3d85d938	0.06535572
105	0x3d9285ea	0.07154448
106	0xbc81c193	-0.015839374
107	0x3cf33380	0.029687643
108	0xbcbe7a99	-0.023251818
109	0x3bd6fda4	0.006560998
110	0xbc8517a9	-0.016246634
111	0x3df3e76e	0.11909376
112	0xbc7030a9	-0.014660039
113	0xbbdf037d	-0.0068058358
114	0x3d846779	0.06465048
115	0x3ddb655d	0.10712693
116	0x3d85d38c	0.0653449
117	0x3c42915b	0.011875476
118	0xbc66fc64	-0.014098261
119	0xbc9cb171	-0.01912758
120	0x3da506bc	0.08057925
121	0x3c3adf21	0.011405737
122	0xbc35c11e	-0.011093406
123	0xbd2f52bf	-0.042803522
124	0x3d3bdcfc	0.045865044
125	0x3c0cb5ef	0.008588298
126	0x3e05b9bb	0.13059132
127	0xbb9e468b	-0.0048301867
128	0x3e0794e0	0.13240385
129	0x3c34635a	0.011010015
130	0x39eb9649	0.00044934664
131	0x3e0772ac	0.13227338
132	0x3ca2a24f	0.019852785
133	0x3c4d4b92	0.012530224
134	0xbd89c188	-0.06726366
135	0x3dac01ea	0.083988026
136	0xbc034397	-0.00801172
137	0x3cb88b5d	0.022527391
138	0x3de7e60a	0.11323173
139	0x3d911af1	0.07085217
140	0x3e0a55f1	0.13509347
141	0x3ca7ca34	0.02048216
142	0xbca12fe9	-0.019676166
143	0x3d85a43e	0.06525467
144	0xbd3b6aa4	-0.045755997
145	0xbc559c91	-0.013037817
146	0x3de5c8a6	0.11219911
147	0xbc92ee33	-0.017935848
148	0x3d0a8133	0.03381462
149	0x3b8dfde3	0.004333244
150	0xbc07a0f8	-0.008278124
151	0x3e27bacf	0.16379856
152	0x3df1cc09	0.11806495
153	0xbbc5e5e3	-0.0060393675
154	0x3cfee208	0.03111364
155	0x3cc22c2d	0.023702705
156	0x3dae4437	0.08509105
157	0x3e068b0f	0.13138984
158	0x3e10234c	0.14075965
159	0x3d0f4424	0.034977093
160	0x3db2e59b	0.087352
161	0xbd93aab7	-0.07210296
162	0xbb73d372	-0.0037204889
163	0xba92254d	-0.0011150033
164	0x3d2102e8	0.039309412
165	0xbd7a2d15	-0.06107815
166	0xbd11bc95	-0.035580236
167	0xbafed3e1	-0.0019441807
168	0xbd21bd75	-0.03948732
169	0x3b6a4f2c	0.0035752757
170	0x3d2d28a7	0.042275097
171	0x3dcdb0f1	0.100435145
172	0xbd924090	-0.071412206
173	0xbbcbfbe8	-0.006225098
174	0xbc3446cc	-0.011003207
175	0xbd19b3e8	-0.037525088
176	0x3cb4b7f9	0.022060381
177	0x3e14454f	0.14479564
178	0xbbcd3483	-0.0062623634
179	0x3c108e08	0.008822925
180	0x3df26abe	0.11836766
181	0x3e32760a	0.17427841
182	0x3e35b124	0.17743355
183	0x3df16bb2	0.117881194
184	0x3dd61766	0.10453682
185	0x3d0e406f	0.034729417
186	0x3d8d35e5	0.06895045
187	0x3dd9137e	0.10599421
188	0x3cc25f5e	0.023727115
189	0xbc6ce0d0	-0.014457896
190	0xbd377039	-0.04478476
191	0xbc015f94	-0.007896323
192	0x3cabe0f2	0.020981286
193	0x3df49360	0.11942172
194	0xbcbee4d8	-0.02330248
195	0xbc45d05b	-0.012073602
196	0x3d5bef05	0.053694744
197	0xbd457799	-0.04820976
198	0x3cc2613c	0.023728006
199	0x3ad7c1a4	0.0016460908
200	0xbc86e658	-0.016467258
201	0xbcb6f658	-0.022334263
202	0x3cced97f	0.025250195
203	0xbc28bb44	-0.010298554
204	0xbd1c4061	-0.038147334
205	0xbd412626	-0.04715552
206	0xbb7013e5	-0.0036632952
207	0xbc75215a	-0.014961565
208	0x3a3f625b	0.0007300728
209	0x3d24cd69	0.040234957
210	0x3d3daf60	0.04630983
211	0x3ca4da3f	0.0201236
212	0xbd86ebd2	-0.06587948
213	0x3cb54700	0.022128582
214	0xbc8e552d	-0.0173746
215	0x3c9cc951	0.019138964
216	0xbd023a40	-0.031793833
217	0x3c946804	0.018116005
218	0xbce623f8	-0.028093323
219	0xbbb0f277	-0.005399998
220	0x3d60119e	0.0547043
221	0xbcc1fca3	-0.023680037
222	0x3d020f45	0.031752843
223	0x3c8b6963	0.017018026
224	0xbc9693dc	-0.018381052
225	0xbc18d0ca	-0.009327123
226	0xbcf2653e	-0.029589292
227	0x3ccd7103	0.025078302
228	0xbc2374fa	-0.00997662
229	0xbbf822b2	-0.0075724954
230	0xbc99a217	-0.018754048
231	0xbc583f5f	-0.013198703
232	0x3b83f169	0.004026581
233	0x3c214b9d	0.009844688
234	0xbcf42bff	-0.029806135
235	0x3ce04e1f	0.027381001
236	0x3c430067	0.011901951
237	0x3ddd8200	0.10815811
238	0x3d035042	0.03205896
239	0xbc558689	-0.013032564
240	0xbceec9d8	-0.029148981
241	0xbc50aaf5	-0.012736072
242	0xbddc2afa	-0.10750385
243	0x3d3271d4	0.043565586
244	0xbb4760e2	-0.0030422737
245	0x3c125c21	0.008933098
246	0x3daaa7ac	0.08332762
247	0xbcc5fd7c	-0.024168722
248	0xbdc78710	-0.09742558
249	0xba884ab1	-0.0010398236
250	0x3d41de9a	0.04733143
251	0xbd9271d6	-0.07150619
252	0x3dee4937	0.116350584
253	0xbd5bfe50	-0.05370933
254	0x3b830c4e	0.0039992696
255	0xbd1771f6	-0.036973916

4.bias f4 [384]
0	0x3cbad426	0.022806238
1	0x3ce25d61	0.027632417
2	0x3d591703	0.05300046
3	0x3d25ee01	0.04051018
4	0x3cab25de	0.02089208
5	0xbcb8c74a	-0.022555966
6	0xbcd3c538	-0.025850877
7	0x3d1d719e	0.038438432
8	0x3d158c12	0.036510535
9	0x3b78ff91	0.0037994126
10	0x3cd3bbda	0.02584641
11	0x3be3b6c6	0.0069492785
12	0x3d304173	0.043031167
13	0x3c9d6c31	0.019216629
14	0x3d86dc52	0.065849915
15	0x3bfc0773	0.0076913177
16	0xbd84b650	-0.06480086
17	0x3c8b5b4f	0.017011313
18	0x3d5e5338	0.054278582
19	0xbd0aef8f	-0.033919867
20	0xbd8de940	-0.069292545
21	0xbd053ad3	-0.032526802
22	0x3cc9bb62	0.024625484
23	0xbd2565ef	-0.040380415
24	0xbd9b8032	-0.07592811
25	0xbc917f28	-0.017760828
26	0x3d5d8b4a	0.054087915
27	0xbcbb3058	-0.0228502
28	0xbd81744d	-0.06321011
29	0x3d084383	0.03326751
30	0xbc9700f0	-0.018433064
31	0xbd2b8663	-0.041876208
32	0xbd8e9d63	-0.06963613
33	0x3bf17b41	0.0073694293
34	0x3d83595d	0.06413529
35	0x3d40da37	0.047083106
36	0xbd3508f6	-0.044198
37	0x3c9557e5	0.018230388
38	0x3d85af0e	0.0652753
39	0x3b41c37d	0.0029565983
40	0xbab29f5e	-0.0013627817
41	0x3d0e3042	0.03471399
42	0x3cb3358c	0.02187612
43	0x3d84a5a2	0.064769045
44	0x3d8c9a22	0.06865336
45	0x3b985615	0.0046489337
46	0xbbe52186	-0.0069925217
47	0x3d23a632	0.039953418
48	0xbd62ad00	-0.055340767
49	0xbd88d630	-0.06681478
50	0x3d53ddf4	0.051725343
51	0x3cb28591	0.021792205
52	0xbc8287c2	-0.015933875
53	0x3d40da84	0.047083393
54	0xbd91b7a6	-0.07115106
55	0xbd5ba4c9	-0.05362395
56	0x3c3a07d3	0.0113544045
57	0x3d3644f5	0.044499356
58	0x3d84c90d	0.0648366
59	0xbd0223e9	-0.031772528
60	0xbc7cf27f	-0.015438675
61	0xbd58838b	-0.052859824
62	0xbb4272d7	-0.00296705
63	0xbd0ef4f1	-0.034901563
64	0x3d15c198	0.03656158
65	0xbd8e7397	-0.06955641
66	0xbd81f232	-0.06345023
67	0x3d3e8a35	0.046518523
68	0x3d798e2a	0.060926594
69	0x3c2421c5	0.010017817
70	0x3d58c4b2	0.05292196
71	0x3c146c93	0.009059089
72	0xbc5ee57a	-0.013604516
73	0x3d2fa22b	0.042879265
74	0xbce616f4	-0.028087117
75	0x3d1cc41f	0.038272973
76	0xba802d67	-0.0009779156
77	0x3d1253fb	0.03572462
78	0xbd10ab10	-0.035319388
79	0xbd42a697	-0.047522154
80	0x3d369d6c	0.044583723
81	0x3d06f84a	0.03295163
82	0xbd4bd678	-0.04976508
83	0xbce2f0e7	-0.027702762
84	0xbd227e7d	-0.03967141
85	0x3d257147	0.040391233
86	0xbd0ab8c6	-0.03386762
87	0x3a17ad75	0.000578604
88	0xbd9a1372	-0.0752324
89	0xbb984800	-0.004647255
90	0x3d1ae4dc	0.037815914
91	0x3d1631a2	0.036668427
92	0xbd3506ef	-0.044196066
93	0x3d25f72b	0.04051892
94	0x3cb3a8ac	0.021931015
95	0xbd34cab9	-0.044138644
96	0xbd1b0976	-0.03785082
97	0x3d8e14d3	0.06937566
98	0xbd21b214	-0.03947647
99	0x3cd0e8d4	0.025501646
100	0x3ca58b25	0.02020795
101	0x3d695f4c	0.056975648
102	0x3d862227	0.06549483
103	0x3d744afb	0.05964182
104	0x3a154bf2	0.00056952157
105	0x3c8bb114	0.01705221
106	0xbd174425	-0.036930222
107	0xbd7ef212	-0.062242575
108	0xbd766baf	-0.06016129
109	0x3b0699ea	0.0020538517
110	0x3ca4519b	0.020058444
111	0xbc335dfb	-0.0109477
112	0x3d89153d	0.06693504
113	0xbb1989cb	-0.0023428078
114	0xbd82530c	-0.06363496
115	0xbceca2f3	-0.028886294
116	0xbcd137be	-0.025539275
117	0x3cfdbd1e	0.030973967
118	0x3c745f16	0.014915248
119	0xbd1ad4fa	-0.037800767
120	0xbd56fd00	-0.052487373
121	0x3d69b6de	0.05705916
122	0xbb8706eb	-0.0041206977
123	0x3bee8d9d	0.007280065
124	0xbc0c0f80	-0.008548617
125	0xbd4cac9d	-0.049969304
126	0xb841b914	-4.6187153e-05
127	0x3cbebef4	0.023284413
128	0xbd8a03d6	-0.06739013
129	0xbd94d52d	-0.072672226
130	0xbb46f613	-0.0030359074
131	0xbc1e78cf	-0.009672358
132	0x3d7031a4	0.05864109
133	0xbc175f24	-0.009238992
134	0xbd22eadd	-0.039774764
135	0xbd000757	-0.031257
136	0xbcf1a1ba	-0.029496063
137	0x3c825233	0.015908336
138	0x3c90b9a0	0.017666638
139	0x3bdd2e70	0.0067499205
140	0xbd94ea98	-0.07271308
141	0xbacdec69	-0.0015710715
142	0xbd6dd4be	-0.058064215
143	0xbd923a52	-0.0714003
144	0x3d0f68c3	0.035012018
145	0xbbe8b030	-0.0071010813
146	0x3d8effc9	0.06982381
147	0xbd31b2c5	-0.04338338
148	0xbd42f3bf	-0.047595736
149	0x3d7e4d9c	0.062085733
150	0xbc876117	-0.016525788
151	0xbc93fc56	-0.01806466
152	0x3d3ce2df	0.0461148
153	0xbd3e78be	-0.046501867
154	0x3d008535	0.031377036
155	0x3d2d5c2f	0.04232424
156	0xbd00de5b	-0.031462055
157	0x3d021074	0.031753972
158	0xbcc2eb3f	-0.023793815
159	0xbd881f21	-0.06646562
160	0x3d629689	0.055319343
161	0x3c7a1015	0.015262623
162	0xbce0ef51	-0.027457865
163	0xbd3968aa	-0.04526583
164	0x3d24b073	0.040207338
165	0xbd39961d	-0.045309175
166	0x3c6ed371	0.014576779
167	0xbd5d50cf	-0.054032143
168	0xbd81e785	-0.06342987
169	0x3c9e0d88	0.019293562
170	0x3d129138	0.035783023
171	0xbd43d310	-0.047808707
172	0x3b10bfcf	0.0022086983
173	0x3cecf5e8	0.028925851
174	0xbc9963b2	-0.018724296
175	0xbd8efd7a	-0.069819406
176	0x3d8b9ed9	0.06817407
177	0x3d5f15dd	0.05446421
178	0x3c2e6c6b	0.010645966
179	0x3d8c8f1b	0.06863233
180	0xbcf5a620	-0.029986441
181	0x3c8586c5	0.016299615
182	0x3d35a266	0.04434433
183	0xbd057f4a	-0.032592095
184	0x3cabcf3f	0.020972846
185	0x3d484527	0.048894074
186	0xbd3a40a6	-0.04547181
187	0x3c9fb30c	0.019494556
188	0x3c1be71f	0.009515553
189	0x3ce07d3f	0.027403472
190	0x3b09526e	0.0020953673
191	0x3b8539cd	0.0040657283
192	0xbd1c4eed	-0.038161207
193	0xbce466af	-0.027880995
194	0x3d6dee87	0.058088806
195	0xbd3339ba	-0.043756224
196	0x3ca42154	0.020035423
197	0xbd8f3bc3	-0.069938205
198	0x3d1c9e52	0.038236924
199	0xbcd6988e	-0.02619579
200	0xbc9723ff	-0.018449781
201	0x3cf79a22	0.030224863
202	0xbc93213e	-0.017960187
203	0xbca5717b	-0.020195713
204	0x3d3ce19d	0.0461136
205	0x3d0c4751	0.0342477
206	0xbd0fa56d	-0.03506987
207	0xbd1b9e3b	-0.037992697
208	0x3d92acab	0.0716184
209	0x3cc6d38f	0.0242708
210	0xbd8f0f6e	-0.06985365
211	0xbd1096dc	-0.03530012
212	0xbaf44018	-0.0018634824
213	0x3d5a4055	0.053284008
214	0xbd89d984	-0.06730941
215	0xbc68962a	-0.014195958
216	0xbd89ffa8	-0.06738216
217	0x3a95cca6	0.0011428788
218	0xbd959a70	-0.07304847
219	0xbd7eadba	-0.062177397
220	0xbd74f29f	-0.059801694
221	0x3ccac90b	0.024754068
222	0x3d1082e3	0.035281073
223	0xbc037368	-0.00802312
224	0x3b71f525	0.00369198
225	0xbc68d459	-0.014210784
226	0xbcf174af	-0.029474584
227	0xbd18a4e6	-0.037266634
228	0x3d88b080	0.0667429
229	0xbd77dc79	-0.060512993
230	0xbc4b0b9f	-0.012392907
231	0x3d683d98	0.056699365
232	0xbbf03241	-0.0073302095
233	0x3d5b9a6a	0.053614058
234	0x3c51d8e8	0.012808062
235	0xbd8ac53f	-0.06775903
236	0x3c4a5e47	0.012351579
237	0xbd7ac3a7	-0.061221745
238	0xbd45bccf	-0.048275765
239	0x3d0f4349	0.034976278
240	0xbd62626f	-0.055269655
241	0x3d26b75f	0.04070222
242	0xbda0b802	-0.07847597
243	0xbabd35e5	-0.0014435617
244	0x3c5691af	0.013096257
245	0x3ace9002	0.001575947
246	0x3d961163	0.07327535
247	0xbd899063	-0.06716993
248	0xbd2e3322	-0.042529233
249	0xbc67cc7c	-0.014147874
250	0xbcc0f0d9	-0.023552345
251	0x3d89bb64	0.06725195
252	0x3d29242c	0.04129426
253	0xbc92551f	-0.017862855
254	0x3d283754	0.04106839
255	0x3ca9b475	0.020715931
