code/seed3/GAN_discriminator.pth (torch, 322284 bytes, 5 tensors)

0.weight f4 [384, 14]
00000000: f96a 07bd 807c 01bc 6f27 acbd 43dd 0c3c
00000010: bbda 0c3e 8f84 40be 2264 843c 5a27 cc3d
00000020: 0097 cfbc 4790 bfbd 4646 1d3e fb11 dc3c
00000030: 9d97 8c3d 3603 d53c 7a2e b53d 1bf6 5fbd
00000040: 6bcd 81bd 0be2 93bc edde 63bb 5c93 bc3d
00000050: 7d5b 553c 7352 883d 942f d33d 5522 53bd
00000060: e48f 9b3e 2ccd 9dbd a930 6cbd 2892 b93d
00000070: d0e5 3a3e 564f 9c3d d021 093e 4377 a43d
00000080: cddc a83d c2f7 cfbc fdd4 8bbd 87af 5b3d
00000090: 0ddb d93d 0119 9fbd b97c 9b3d 7cab 4d3e
000000a0: 7921 263d 6a20 58be f752 05be fca4 70be
000000b0: 6830 933d 60fd eebd fcbf 06be 476d 833d
000000c0: 51eb 38bd bb26 ce3a 32b2 053d 97f2 083e
000000d0: a543 babc 5cdc 673c 80ca 1fbc f352 9f3d
000000e0: b1f0 a6bb defc 25be fb87 efbd 5148 8d3e
000000f0: d934 26bd 5704 4ebe 035e 563c e7d5 41bd
00000100: 73e0 8ebd 4f75 fc3b db80 923d add2 b13e
00000110: ecda 00be b261 ebbd dfd2 183d 8029 13be
00000120: 52de 623e 2467 4b3d 168b 923d 0009 943e
00000130: 2911 cebc b22d 2dbd 7fe7 be3c c08e ad3d
00000140: 21fe 0c3e 7dad 283d fdc9 a93d d582 293d
00000150: 9e69 b8bc 68a1 983d 0a5b a33c 4233 0fbc
00000160: b330 b2bd 2139 633c 5214 243e 324c e4bd
00000170: db3c 65bd e8e6 95bd 7361 5cbc e289 80be
00000180: 3582 ff3c 6029 64be 779f d7bc 873e 1dbc
00000190: e5b9 d3bd ff5b fc3d cd79 05bd 3a34 473d
000001a0: 62a4 dd3b d5eb 04bd 5d13 67be 04e6 8dbd
000001b0: aa83 e03d 9886 7bbe c251 ef3c abea 4cbe
000001c0: 2569 e53c fb5c ad3c d73f 7dbd baef 963d
000001d0: a4fd 42be 65bc a83c 0662 36bd 62f7 d9bd
000001e0: 0b8b e53d 4af4 d63d f20b 143e b13c 573e
000001f0: 658e 70bd d1cc 243d c9bc f1bc c0c3 ab3c
00000200: 0a53 ddbc 23de 4cba 64dd 153d c8e0 82bc
00000210: e847 b9bd 813e 63bb 5a78 11be ed00 6e3c
00000220: 6363 dbbd 760f a13d 44cb ecbc 65d5 6ebd
00000230: 3233 883d 6a7c 22be 048f 3bbc 626a 30be
00000240: ca8b 493c da1b 853d 0f31 153d 457c 003d
00000250: 0826 0f3e 85ef 57bd 9cec 0d3f 3a83 1c3e
00000260: 09ad efbc c6e5 d13c 043c 43bd 239e 1fbd
00000270: 8309 56bd d346 c23d d109 ddbd affc 04bd
00000280: 07a2 38bb 7ad2 67bd cc40 d3bc 4eb2 91bd
00000290: c0b4 6b3d d3c4 813b 11f4 bfbd 7395 2fbe
000002a0: 9f2c 933c 347f a1bb 8c39 69be b9ed fbbb
000002b0: 116f 2bbd 44b4 533e ab5d bbbd 5236 2dbe
000002c0: 4d9c e13d f9f1 6a3d 044e 173c e6c4 98be
000002d0: ade1 b1bd 55e7 633d 0b5f e3bd 96c1 ae3c
000002e0: 8a61 77bd 85b1 aa3d 173b 90bd 7b13 3ebd
000002f0: ca67 9b3c ba88 04bb acb2 633d f093 803c
00000300: 853b dcbc 5522 e6bd 5522 e33d 0644 8e3d
00000310: 5dc6 57be 0eb5 40be 9976 c73c 17d9 7cbe
00000320: 0835 0d3a 62c8 93bd ad3a eebc 92b1 c0bd
00000330: d885 8a3d d946 263d 1e0e 59bd 3d10 ca3d
00000340: e5c7 fdbd ec93 5d3d ba3a 89bd 666b 53bd
00000350: ed1a cb3d 98e9 a33d 84a9 79bc 4843 7dbd
00000360: a02b 8639 acdd 7f3d 6b27 92bd 2df3 3ebb
00000370: b63b 393e 80e6 223d f7c6 8e3d 0879 29bd
00000380: 2b64 f93c a2f0 96bd e61d 39be ec81 69be
00000390: 6be2 1ebe feb4 363c 038b 1abd 3c4b 863d
000003a0: 6b67 fa3d 13ef f23d 3b0a 1abf 0750 c33e
000003b0: 5ebe 88bd 4984 26bc ee0d ccbd b7cf dbbc
000003c0: 2bf1 213d b9d2 6f3d cb4f 933b f724 00bd
000003d0: 34ad eb3d cd5a 84bd 6582 393c 4fcf 4ebb
000003e0: 8777 94bc 5063 da3b 9ec8 b93c 1081 3cbe
000003f0: c76b 6fbc f79b f3bc e472 c939 7ef6 22bc
-0.033061 -0.007903218 -0.08405959 0.008597675 0.13755314 -0.18800567 0.016161028 0.09968443
-0.025340557 -0.093536906 0.15358838 0.026864043 0.068648554 0.026002508 0.08846755 -0.054678064
-0.063380085 -0.018052122 -0.0034770325 0.09207794 0.013022301 0.06656351 0.10311809 -0.051546413
0.30383217 -0.07705149 -0.057663593 0.0906108 0.18251729 0.0763232 0.13391805 0.0803056
0.082452394 -0.025386695 -0.06827734 0.053634193 0.10637484 -0.07768441 0.07592148 0.20084947
0.040559266 -0.21106115 -0.1301993 -0.23500437 0.07186967 -0.11669421 -0.13159174 0.064173274
-0.04514629 0.0015728095 0.032640643 0.1337379 -0.022737334 0.014151659 -0.00975287 0.07779493
-0.0050946106 -0.16209742 -0.11695858 0.27594236 -0.040577743 -0.20118843 0.013083938 -0.047323134
-0.06976404 0.007704414 0.071534835 0.34731045 -0.12583512 -0.11493243 0.037310477 -0.143713
0.22155121 0.04965891 0.07155435 0.28913116 -0.025154667 -0.042279907 0.023303745 0.08474493
0.13768817 0.041181076 0.08290479 0.041384537 -0.0225113 0.07452661 0.019940872 -0.008740248
-0.08700695 0.013868601 0.16023377 -0.111473456 -0.05596624 -0.073194325 -0.013450968 -0.25105196
0.031190017 -0.22281408 -0.026321156 -0.009597427 -0.10338191 0.12322234 -0.03258686 0.04863379
0.0067639807 -0.03245147 -0.2256598 -0.069286376 0.10962613 -0.24563062 0.02921379 -0.20011394
0.028004238 0.0211625 -0.06182846 0.07369943 -0.19042069 0.020597646 -0.044527076 -0.10642888
0.11208161 0.10495813 0.14457682 0.21019246 -0.058729548 0.04023439 -0.029508965 0.020967364
-0.027017135 -0.00078150834 0.036588088 -0.015976325 -0.09046918 -0.0034674706 -0.14206067 0.014526588
-0.10712316 0.07864277 -0.028905518 -0.058308978 0.0665039 -0.15867773 -0.011447672 -0.17228082
0.012301395 0.06499453 0.03642374 0.031368513 0.13979352 -0.052718658 0.5543916 0.15284434
-0.029257314 0.02562226 -0.047664657 -0.03896917 -0.052255165 0.09486165 -0.10792888 -0.03246754
-0.0028172748 -0.05659721 -0.025787733 -0.07114087 0.057545424 0.003960231 -0.09372724 -0.17146854
0.017965613 -0.004928494 -0.22775859 -0.007688251 -0.041853968 0.20674235 -0.09148725 -0.16915253
0.1101614 0.05735967 0.009234909 -0.29837722 -0.08685622 0.055640537 -0.111021124 0.021332543
-0.060395755 0.083346404 -0.070425205 -0.046405297 0.018970389 -0.0020223097 0.055590317 0.015695542
-0.02688385 -0.11237017 0.11090533 0.06946568 -0.21071763 -0.18819067 0.024348544 -0.24692188
0.00053866254 -0.07215954 -0.029080713 -0.09408869 0.0676381 0.04059491 -0.05299198 0.098663785
-0.123916425 0.054096147 -0.06700654 -0.051616095 0.09917245 0.08003539 -0.01523817 -0.061831743
0.00025590975 0.062467262 -0.07136425 -0.0029136643 0.18089184 0.039770603 0.06971543 -0.04137519
0.030443272 -0.07370116 -0.18077812 -0.22803468 -0.15516059 0.01115155 -0.03773023 0.065573186
0.12226757 0.11862006 -0.6017186 0.38146994 -0.06676935 -0.010163375 -0.099635944 -0.026832445
0.039536636 0.05855057 0.004495596 -0.031285252 0.11507645 -0.064626314 0.011322592 -0.003155667
-0.018123401 0.006664671 0.02267867 -0.18408608 -0.014613098 -0.029737456 0.00038423308 -0.009946464

0.bias f4 [384]
00000000: 07e9 013e 8c7d 313d c63a 723c 5e58 41be
00000010: d9a0 8a3d b242 05be c551 d13d 32df 2d3e
00000020: 37e4 1f3e f97a 623b b5a0 75bd f5c6 bbbc
00000030: d924 893d 95ba a33d d1e4 17be 7263 dc3d
00000040: 9276 27be 5e20 9e3b a08d 4dbd 1aa0 063d
00000050: 3fa5 c4bd 6574 4cbe 446d 743d 4441 f53d
00000060: 901e 28be 180e 76be 54c9 693d bc06 0fbe
00000070: 213b 23be 0778 c73d ae2f 14bd 5583 fb3d
00000080: 121b 003e c3bf 8b3d a324 2bbe a970 17be
00000090: 0985 1a3d 357a fc3d 9f4e 09bd a560 d13d
000000a0: ee64 b73d 069d 77bd 9bc4 08bd 65c3 253e
000000b0: cfca 33bc 6be8 833d 6104 f1bd 145e d23c
000000c0: 8175 0bbe a8b6 e9bb 7659 85bc 4caf ae3d
000000d0: 1bfb 2fbd 883a 19be 5689 15bd 993a 3cbd
000000e0: 5f77 833d 0e9e ad3a a08a 513e ab00 833d
000000f0: 9be6 2cbe b65c 8b3d 9b67 093e 800a bdbc
00000100: f859 4bbe b2bb 59bd e921 c13b 9ebb f23b
00000110: 393f f7bd 16d3 77be b0ed 023e 91a8 103e
00000120: 7af3 463d 2117 0e3d 5a28 ae3b 2d18 8ebd
00000130: e229 113d ac08 73bd 6546 e23d 29a5 c43d
00000140: 05d1 a8bc 6e08 323e fb98 cb3c b1db 323e
00000150: 8429 5cbe 7792 333b 7e01 98bc 28ef af3d
00000160: b555 7dbc 1183 67be 9bd8 1f3e 3689 c73c
00000170: 9b00 7dbc 41c6 53be 3528 c13d d6f8 58be
00000180: bc2a 2dbd c8ed 293e 0916 4a3e be32 eb3d
00000190: 18f9 70be a05f 113e 19f2 cbbc dd36 513d
000001a0: ca38 193e 91e4 a5bd aee6 413d 9e60 2a3d
000001b0: f04c aebc 385b 053e b82f 31be ed8e 1abc
000001c0: 2fa6 c23d 6c0a 7a3d b594 2e3e 017d 6e3d
000001d0: caef 33bd fbd4 a5bd f814 273e 474b 0fbd
000001e0: 6fe0 123e b655 843e 157d 823d 6d8e 4dbd
000001f0: 92f8 f3bb 7aee 3bbd ef94 463e 3cb6 213b
00000200: 1835 d73d 29ea 60bd 8c1c aebd ef22 3fbe
00000210: c0b3 c13d 1b9f f03d d701 283e d4cd 123d
00000220: 8d8b 33be 99e8 06bd 2d8d 8bbd a685 5bbd
00000230: 1058 8f3d d864 3cbe d81a 53be eb4e 7b3e
00000240: 8211 c73c 0a3e 453e 7109 fb3c 58bc 4ebe
00000250: 9e6e 503d 6cc7 1abd 2134 adbd e3e6 59bd
00000260: 2a0a 003e d249 69be 22b3 8d3d d837 f93d
00000270: 3a3f 4d3d 1bda 843e c89d 493d 1c03 e83d
00000280: f69c 6b3e 39de 5dbe eade 6a3d f40f b53d
00000290: 2b65 253e 55b5 4abe f496 2abd 29ab 2cbe
000002a0: cb4c 46bc da90 f73d 555f d63c 135c 01bd
000002b0: bd94 f83c b555 013d e4b9 ff3c 1133 45bd
000002c0: 5e04 13be 235b acbd c304 353e 9221 25be
000002d0: 226a 953c 1a14 293e c279 023e 3dbc 07bd
000002e0: 9a1d 073e 14df 79bd d750 2d3e 801c 79bc
000002f0: ff99 08bb a0bc 2abe b44e 12bd 8d76 243e
00000300: ec39 f43d b7e2 503d 84d3 ab3c 2ea1 e83d
00000310: 5725 e23c 6bc6 4fbe ed25 eb3d 1d81 973c
00000320: 131e b9bd 1b48 bbbd 6764 dc3d f1f6 cf3c
00000330: 49a7 b83d 5be4 41be d4fd 97bd 7e9d 9b3d
00000340: b787 683e 6fea dbbc bec4 1b3e a7d4 e1bc
00000350: d986 a53c c9c1 53bc 25b1 d5bc b599 d73c
00000360: 314f 12be f3a6 4d3c f671 b03d 8294 ebbc
00000370: e6a0 0fbd 3252 41bd bdb4 63be 6c8d b3be
00000380: 7d33 a2bd 34ce 023e 5614 10be 0865 263e
00000390: a064 1dbd d581 e63d 335c 86bc bf27 23be
000003a0: a042 9e3d fb52 64bc e511 ca3d f342 8fbc
000003b0: 3772 1f3e 8ed3 7b3d 2eae c6bc f05c d9bd
000003c0: 0961 563d 16e3 8b3b 3a3c e43d 5b37 113e
000003d0: a867 11be 93ad 5dbe 7c6b cabd 432e f6ba
000003e0: dde1 cabd 6def 503d 8911 26bd ed20 1e3e
000003f0: db68 573d ee60 7c3d c66f f6bd 2e3b 9fbd
0.12686549 0.04333262 0.0147845205 -0.18881366 0.067689605 -0.13013723 0.102206744 0.16979674
0.15614401 0.003455816 -0.059967715 -0.022922019 0.06696481 0.07994572 -0.1483338 0.10761155
-0.16353825 0.004825636 -0.050183892 0.03286753 -0.09601831 -0.19966276 0.059674516 0.11975339
-0.16417909 -0.24028814 0.057076767 -0.13967413 -0.15940525 0.0973969 -0.036178283 0.12280909
0.12510327 0.06823685 -0.16713195 -0.1478907 0.03772453 0.12327997 -0.033522245 0.102235116
0.08954798 -0.060452484 -0.033390623 0.16187818 -0.010973646 0.064408146 -0.11768413 0.025679626
-0.13619043 -0.00713237 -0.01627801 0.08529529 -0.042964082 -0.14963734 -0.036507927 -0.04595432
0.064192526 0.0013245957 0.20463037 0.06396612 -0.16884844 0.068047926 0.13418429 -0.023076296
-0.19858539 -0.053157516 0.005893935 0.0074076196 -0.12072606 -0.24201617 0.12785983 0.14126803
0.04857204 0.034690026 0.005314869 -0.06938205 0.035440333 -0.059334442 0.11048583 0.09601814
-0.02060748 0.17386028 0.02485322 0.17466618 -0.21500212 0.0027400532 -0.018555399 0.08590537
-0.015462329 -0.22608592 0.15609972 0.02435742 -0.015442039 -0.20681097 0.09431497 -0.21188673
-0.042277083 0.16594613 0.19734968 0.11484288 -0.23532522 0.14196634 -0.024895715 0.051077712
0.1496307 -0.08100236 0.047339134 0.041596048 -0.021276921 0.13023078 -0.1730336 -0.00943349
0.09504353 0.061045095 0.17048915 0.05822468 -0.043929853 -0.080972634 0.16316593 -0.0349839
0.14343427 0.25846642 0.06371514 -0.050184656 -0.0074454034 -0.045881726 0.19392751 0.002467527
0.10508174 -0.054910813 -0.08501539 -0.1866567 0.09458113 0.11749097 0.16406952 0.035840824
-0.17533703 -0.032936666 -0.068140365 -0.053594254 0.069992185 -0.18397844 -0.20615709 0.24541824
0.02430034 0.19261947 0.03064415 -0.20189035 0.050886743 -0.03778784 -0.084572084 -0.053198706
0.12503877 -0.22782066 0.069189325 0.121688545 0.050109126 0.2594765 0.049222738 0.11328718
0.23009095 -0.21666802 0.057341494 0.088409334 0.16151874 -0.19795735 -0.041647866 -0.16862167
-0.01210327 0.12088175 0.026168505 -0.03158195 0.030344361 0.031575877 0.03121657 -0.048144404
-0.14357135 -0.084158204 0.17677598 -0.16126087 0.018239085 0.16511574 0.1274176 -0.033138502
0.13194886 -0.06100376 0.16925369 -0.015204549 -0.0020843742 -0.16673517 -0.03571959 0.16060849
0.1192511 0.050997462 0.020974882 0.113588676 0.027605696 -0.20290534 0.11481843 0.018494183
-0.09038939 -0.091446124 0.10761338 0.025386306 0.09016282 -0.18934767 -0.07421461 0.075983986
0.22708021 -0.026845185 0.1521177 -0.02756722 0.020205902 -0.01292462 -0.026085446 0.02631841
-0.14288022 0.012552011 0.08615486 -0.028757337 -0.035065554 -0.04719753 -0.22236915 -0.35068834
-0.07919977 0.12773973 -0.14070258 0.16249478 -0.03842604 0.11255232 -0.016401386 -0.1593313
0.077275515 -0.0139358 0.09866694 -0.017487979 0.15570913 0.06148105 -0.024252977 -0.106134295
0.052338634 0.004269014 0.111443 0.14181273 -0.14199698 -0.21648245 -0.09883782 -0.0018782098
-0.09906361 0.051009584 -0.040544067 0.15442248 0.052590232 0.061615877 -0.12033038 -0.077749595

3.weight f4 [192, 384]
00000000: 4cd0 913d 5dce 6cbb 49d1 0abc e22a 9dbc
00000010: f806 87bd 2f9b 40bd 4e93 a93b 5699 94bd
00000020: c539 553d 5b53 ea3d 5b88 3f3d fd8e 1b3a
00000030: 0bcd a2bd 1bbf 7bbc 7201 7c3d 8aa6 4cbd
00000040: 5030 453e 66c9 08bb b905 993d ec2c 913d
00000050: bc11 00bd d7f1 223e c20e 0bba 7a3a 2bbd
00000060: f843 cc3d 6b89 823d f0e9 613d e563 153e
00000070: 4cb5 143d ceac 1dbe b8fb 91bd 3bb6 3fbd
00000080: 1a6f f03d a8a3 033d 0286 bf3c 6c60 8d3d
00000090: 8044 f6bd 6e34 c3bd 8d7c 8f3e f57d 42bd
000000a0: 91f7 4d3d e8de 5d3c eb35 c1bb 15ba 46bc
000000b0: ae99 913d 6fd0 86be abaf 993d b67c fbbd
000000c0: eccf 263e c17d 1dbe 2c27 f139 5f23 29bd
000000d0: 722e c8bd e95e af3d e95b 8ebd 3203 db3b
000000e0: c38e aebd 310e 72be 237b fb3d 1d63 d23c
000000f0: d2a6 b7bd 7b7e 343d 44bd 783c 3282 3a3d
00000100: 62e9 d3bd ec88 f43a 2442 b03d c348 9abc
00000110: a6bf 14bd 856f ca3d 33c9 153e 84d0 ecbd
00000120: 8845 b43c bfe1 503d ee10 7a3c 35e2 503e
00000130: abfb 14be 8f15 3fbe 4681 223d c1a6 ad3d
00000140: c206 893d bef5 40be f559 a23d 5d78 14be
00000150: 158e de3c 987c 00bd 19a4 643d f5d6 4bbc
00000160: e48a b8bd d346 1cbd 5b4f 9c3d 4fa9 f8bc
00000170: bd78 383d cea9 043c ab20 433d d23f 033e
00000180: 7d60 83bd 2e78 f2bc a11a e5bd 5f50 b23c
00000190: d378 273e 45c6 a0bc 267d d83d 5eec f63d
000001a0: 23f1 d0bd 64ea ec3e 7961 0a3d d2d8 0cbb
000001b0: bce9 d1bc e857 78bc e629 e7bc 5d40 d13d
000001c0: 14e9 26bd 0caa 5e3e b4b6 903d b249 df3d
000001d0: 5cef 45ba b08c 29bd 340f d13c 986e ddbd
000001e0: 6202 a83d 734e 04be b2a7 4bbc dd88 cc3d
000001f0: 02e2 c03d 0d5e 973d bde3 ccbd 229f 05bc
00000200: a32e 413b 0526 52bd 5442 fc3d ab2b 803d
00000210: 5621 e03d 4ebc e3bc a0a2 9c3c 7d6b 1a3d
00000220: f254 5cbc daf5 773d 29d6 bb3d 981d 5fbd
00000230: cbd6 213c 68bc f83d c4cb 643e 8969 2e3d
00000240: 3855 4f3d bee1 4cbd 7305 533d 332a db3d
00000250: 7bce 5cbe d508 b8be 3cbb 2e3c 5df3 90bc
00000260: 3c0a 93bc 35b4 723d aac0 953d fd5d efbd
00000270: d16f 45bc 6628 6cbd cce6 013e 0a5f a63d
00000280: 0a0f 00be cdb7 a5bd 7d9c af3d 7eff 83bc
00000290: 6357 28bb adf0 9c3e 2bd2 933d 39e3 65bb
000002a0: d6f3 6d3d 8feb aabd 473d adbc 12b1 06bd
000002b0: bbff 22bc a062 b6bd ecfb b13d 20be e43d
000002c0: a53d bcba 1ccf da3a cd36 cdbc 6cbf 9fbd
000002d0: 5154 5a3d 4f89 cbbc 4395 9abc 17d1 cb3d
000002e0: bb96 29bb 8b12 28bc 7031 1c3d eb2a f03a
000002f0: a663 12bd cebe ac3d 15c1 c8be 64ef 53bd
00000300: c198 28be 31c0 9e3c 7da1 ee3b 8e52 ee3d
00000310: e1f9 9ebb 3f96 1cbd a457 19bc f3c2 6d3d
00000320: 9a16 b93d 9baf 85bc 3182 eebd ce54 333e
00000330: b231 ce3d 1ab4 9abd 048b 4d3e 7e6e 963b
00000340: e2c9 8fbe b344 563d c9b0 e03b ea4b 15bd
00000350: de97 fabc 92ae 26bd 7851 02bc 42ce 253d
00000360: 7582 183e 0bae 4a3e 8dbc fe3b f82a 6cbd
00000370: 5b9d ec3d 4be7 853c f3bf 76be fab2 b8be
00000380: efb3 7fbd 917b 98bd 23d8 aa3d 8c79 963b
00000390: 8d05 b8bc a1ca d9bc 2f60 81bd 06c2 f33d
000003a0: fdc2 94bc f8b8 4cbe bd00 7d3c 612a 84be
000003b0: db94 82bd 3a20 a1be 4afe a1bd 1372 c3bd
000003c0: 4dda a53c 35fa aa3c 8f74 c23d 74a0 8c3c
000003d0: 16cf a53d 91d4 3e3e 6307 8dbd cf28 433c
000003e0: b3fc c1bd 44fd a03c b46d c43d e663 8abd
000003f0: 2dd6 113d 0b77 5d3d 33de aabd 51b0 0a3e
0.071198076 -0.0036133744 -0.008472749 -0.019185487 -0.06593126 -0.047022995 0.005175031 -0.07255809
0.052057046 0.1144168 0.046760898 0.00059340877 -0.07949265 -0.015365387 0.061524816 -0.04996351
0.19256711 -0.0020871996 0.07471795 0.07088646 -0.031266913 0.15912567 -0.0005304628 -0.041803814
0.099739015 0.06373867 0.05515474 0.14588888 0.03630571 -0.15397951 -0.0712809 -0.046804648
0.11739941 0.032138497 0.02337933 0.06903157 -0.12024784 -0.095314845 0.28024712 -0.047483403
0.050284926 0.0135419145 -0.00589632 -0.012129326 0.0710939 -0.26330897 0.07504209 -0.12279646
0.16290253 -0.15380003 0.00045996287 -0.041293498 -0.09774484 0.085630246 -0.06951124 0.0066837305
-0.085233234 -0.23638226 0.12279346 0.025682027 -0.08967365 0.044065934 0.015181843 0.04553432
-0.103472486 0.0018656529 0.08606365 -0.018833524 -0.036315583 0.09884552 0.14627533 -0.11563209
0.022005811 0.05099654 0.015262825 0.20398791 -0.14549129 -0.18660568 0.039674066 0.084790714
0.06690742 -0.18843743 0.07927314 -0.1449904 0.02716736 -0.03136882 0.05582056 -0.0124413865
-0.09010866 -0.03815348 0.07632323 -0.03035417 0.04503702 0.008097125 0.047638576 0.12817314
-0.06414888 -0.029598322 -0.1118672 0.02176684 0.16354685 -0.019625792 0.10570745 0.12056802
-0.10202243 0.46272576 0.033784363 -0.002149154 -0.025624149 -0.015157677 -0.02821822 0.102173544
-0.040749624 0.21744555 0.07066098 0.10902728 -0.0007550621 -0.041393936 0.025519945 -0.1081211
0.082035795 -0.12920551 -0.012430118 0.09987042 0.094181076 0.07390986 -0.10004375 -0.008155616
0.002947726 -0.05130579 0.123173386 0.06258329 0.10943858 -0.027799752 0.019120514 0.037700165
-0.013447987 0.060537197 0.09171707 -0.054471582 0.009877871 0.12145311 0.22343355 0.042581115
0.05061838 -0.050019972 0.05151887 0.10701408 -0.21563141 -0.35944238 0.010664757 -0.01769417
-0.017949216 0.05925389 0.073121384 -0.11687849 -0.012050585 -0.057655714 0.12685698 0.08123596
-0.12505737 -0.08091698 0.0857477 -0.01611304 -0.0025686852 0.3065237 0.07217821 -0.0035078062
0.05809387 -0.083457105 -0.021147383 -0.03288371 -0.009948666 -0.0890553 0.086906284 0.11169076
-0.0014361633 0.0016693803 -0.025050545 -0.07800183 0.053303067 -0.024845747 -0.018870002 0.0995199
-0.0025877196 -0.010258327 0.038133085 0.0018323337 -0.035739563 0.084348306 -0.3920981 -0.051741973
-0.16464521 0.019378753 0.0072824345 0.1163684 -0.004851565 -0.038229223 -0.009359274 0.058047246
0.09037514 -0.016319087 -0.11645926 0.17512819 0.100680724 -0.07553883 0.20072562 0.0045908084
-0.28083712 0.05231161 0.006857012 -0.03644935 -0.030589994 -0.040693827 -0.007953994 0.040479906
0.14893515 0.19792955 0.007773942 -0.057658166 0.11553451 0.01634564 -0.2409666 -0.36074048
-0.062427457 -0.074454434 0.08342006 0.0045921262 -0.022463584 -0.026585879 -0.06317174 0.119022414
-0.018159384 -0.19992435 0.015442071 -0.25813583 -0.06376048 -0.314699 -0.0790983 -0.09543242
0.020245695 0.020871261 0.09494888 0.017166354 0.08096139 0.18635775 -0.068861745 0.011911585
-0.09472027 0.019652016 0.09591237 -0.06757335 0.035604645 0.054068606 -0.083431624 0.13543822

3.bias f4 [192]
00000000: 07d1 63bd 02a6 87bd 5513 a4bd 22dd dcbb
00000010: c9da a9bc a1ac 73bc f4c4 3ebd 89eb 9d3c
00000020: 4aff babd 7d6f e8bd d327 973d 361b c7bb
00000030: 6c9c 2abd 8f7a 033c 123f d23b 096d 0c3a
00000040: 1da0 d7bb 3474 d0bb 0109 95ba 127e 783b
00000050: 73e1 11be 8b97 29bc 9d4c 88bd 170f ca3c
00000060: 4d1c 0fbd 83ad 88bb e918 4cbb f4f6 e43d
00000070: 06b0 9cbc a2de 933d adef 00bd 7750 42bd
00000080: 68a8 32bb da43 c73c c74a 9ebd 32f3 4dbc
00000090: 26a3 9dbd 2968 27bd c782 d0bc 1610 b1bc
000000a0: 5383 d3bd c6d5 363a 96c5 8ebc f59b acbc
000000b0: d27d eb3c 7c7b 0abc 8014 9a38 764e fe3c
000000c0: 2005 123d 6bae 6a3c 00f9 7bbd 2ca5 eebc
000000d0: aaeb 46bd 0335 723d 7c67 4dbb b821 773d
000000e0: 7c7f 4cbd 0491 963c da62 6abc 20e6 a83c
000000f0: 8fcc 4dbc 6036 6abd fbe3 5cbd 6987 243d
00000100: 3fd5 b33b 43ee aa3d bb6c a6bb 097d cebb
00000110: 5a2e 69bd 7dde 8d3b 4876 1fbc b2e8 aa3d
00000120: cd56 3cbd e6b9 0d3c 2f47 bfbb 8818 0439
00000130: d88b 303c a81f 453d d1c4 83bc b56b ccbc
00000140: d41c ce3d 4f63 4b3d a5a8 f03d bf3c 0fbd
00000150: 4fdd 78bc b6d4 febd d0ba 0cbe baf8 fbbd
00000160: ecdf 323c 4171 a6bd f55c 173d 7c25 a1bd
00000170: c390 bdbd b57d 9b3c e923 efbc 383e 87bb
00000180: ce98 c4bd 7bfa 2d3d 496f 93bc 46b6 7dbd
00000190: e9a8 b8bc 913f 303c d58f e2bb f2eb 89bd
000001a0: 0de2 06be 75ed 9cbc 3f92 b5bd 7a4f 0e3c
000001b0: fea5 a9bb d935 b03c f88e 4ebc 4344 6bbd
000001c0: 4efa 55bc aa6e b63b a623 dc3a 92d5 053d
000001d0: 4bb3 42bd 3afb 1b3c 186b 20bd da0b 92bd
000001e0: 7468 e43c 62ee 6e3c 13ae 84bd 683f 0d3d
000001f0: ea70 6c3c 49b0 203d 32fd 413d f291 b6bc
00000200: 17e7 1bbd 73f9 53bd 6786 8ebd aa24 17bd
00000210: 5484 8d3b 04db c1bc 9749 763d da4e 26bd
00000220: 6c8e be3d 3704 363b cb2b 0ebd f876 56bc
00000230: dc97 02bd e0d3 8f3d b114 7a3d e2f5 c03d
00000240: 9b37 10bb ebc4 06bc f540 693d 3e34 0f3e
00000250: 8d4c 863c 902f b0bc f125 88bd 7225 ab3d
00000260: 8eb8 253d 5311 32bd 2cd1 b23c e927 89bd
00000270: b51c ef3c 564a 1abd 121f b63b d94d 8b3c
00000280: 72e9 17ba 47fc 4d3d b64a 20bd 8864 103d
00000290: 9213 9ebb c6d2 cbbd 0a55 36bd 5062 353d
000002a0: 8f4c abbb 3d21 c3bc e9a7 3bbd aa75 65bc
000002b0: 3542 493c 5d79 e23c 3d7c cbbb 88c4 40bd
000002c0: 3d6f 8abc 1d4b 543d df0b bfbd 38d3 03bd
000002d0: 9c8c 503c 376e e43b 3b44 93ba 9be5 9a3c
000002e0: 9b44 32bd 1d2d 3cbc ff32 07bc fcc1 7abd
000002f0: 1b62 8839 311a 58bb b04f e73b d2e7 0bbd
-0.055619266 -0.0662346 -0.080115 -0.0067402283 -0.020734208 -0.014872701 -0.046574548 0.019277351
-0.09130724 -0.1134939 0.07380643 -0.006076242 -0.04165308 0.008024826 0.00641621 0.00053568237
-0.0065803663 -0.0063615087 -0.0011370481 0.003791694 -0.14246158 -0.010351072 -0.06655238 0.024665399
-0.0349391 -0.004171075 -0.0031142777 0.11179915 -0.019126903 0.07220198 -0.031478573 -0.04744002
-0.0027261022 0.024324346 -0.077291064 -0.012570189 -0.07697134 -0.04087082 -0.025452984 -0.021614116
-0.103277825 0.0006974604 -0.0174282 -0.02107046 0.02874652 -0.0084522925 7.347111e-05 0.031043272
0.03564942 0.014323811 -0.06151676 -0.029131494 -0.04856459 0.059132587 -0.00313422 0.06033489
-0.049926266 0.018379696 -0.014305795 0.020617545 -0.012560978 -0.057180762 -0.053928357 0.0401682
0.0054880674 0.08346226 -0.0050788797 -0.0063015264 -0.05692897 0.004329501 -0.00973279 0.08345164
-0.045981217 0.008650279 -0.005837343 0.0001259764 0.010775529 0.048125893 -0.01608506 -0.024953702
0.10064092 0.049655255 0.117509164 -0.03497004 -0.015189483 -0.12442915 -0.13743138 -0.123033
0.010917645 -0.0812707 0.036953885 -0.07868478 -0.09256127 0.01898084 -0.029191928 -0.00412729
-0.09599458 0.042475205 -0.0179974 -0.061941408 -0.02254148 0.010757343 -0.006914119 -0.06734456
-0.13172169 -0.019156197 -0.08865785 0.008685941 -0.0051772585 0.021510052 -0.012607329 -0.057438146
-0.013060166 0.0055673914 0.0016795292 0.03267438 -0.04753427 0.009520346 -0.039164633 -0.07131167
0.027881838 0.014583202 -0.064785145 0.034484297 0.014431218 0.03923062 0.047360606 -0.022286389
-0.03806218 -0.051751565 -0.06959229 -0.0369002 0.0043187533 -0.023664005 0.060128774 -0.040602542
0.093045086 0.0027773508 -0.034709733 -0.013089888 -0.031883106 0.07022834 0.06105489 0.094218984
-0.00220058 -0.00822566 0.056946713 0.13984773 0.016393924 -0.021507055 -0.06647862 0.083567515
0.04045921 -0.043473553 0.021828257 -0.066970654 0.029188493 -0.03766855 0.005557903 0.017004894
-0.0005794979 0.05028942 -0.03913375 0.035252124 -0.0048241103 -0.09952311 -0.044514693 0.04428321
-0.0052276324 -0.02381956 -0.04581443 -0.014005104 0.012283851 0.027645761 -0.0062098787 -0.047062427
-0.016898746 0.051829446 -0.09328436 -0.032183856 0.012728836 0.0069711464 -0.0011235544 0.018908313
-0.04352246 -0.011485365 -0.0082519045 -0.061220154 0.00026013036 -0.0032974596 0.00705906 -0.034156628

6.weight f4 [1, 192]
00000000: 4f7e 023e e7c3 863b 63f7 ea3d db04 d53c
00000010: 50ff 463e 5cdd 293d 93a1 9c3d e6cb a03e
00000020: 5f04 d03d 94c0 b03d 210c b4bd 646f 8f3b
00000030: 98df 873e 4be1 093e 84e8 383e b475 4c3e
00000040: c983 1b3e 5509 cfbd 9cb8 133e 7d28 063e
00000050: f987 66be c35a 993e 58e5 98ba 413d 6e3c
00000060: 2fd4 053e f81f a13a 524f 6e3e d85c 223e
00000070: d09a 833d 7dbd 3f3e 2b5d 0b3e 612e 073e
00000080: fc5d 293e 2272 313e 7ee7 78be 8b98 f43d
00000090: 38fe 26bb 590d 963d 1d08 013e 2f6c 683c
000000a0: 9793 853d d591 573c 7373 823e c88f 963c
000000b0: de0d 5e3e 757c 103c f7d9 fe3d 14cc 5f3e
000000c0: 62bc c53d 1bdb fdbb 8d31 c93d bc4f 5c3e
000000d0: a7e4 4f3d 57ab f33c 2163 223e 8a8f 533c
000000e0: cada 8e3e 702a 293d e219 d93d f2b3 063e
000000f0: 2ab6 c53d b71a 973d d02c e63d 7f2c f63d
00000100: 3de7 e23d 2256 803d cfe3 2f3e 398c 233e
00000110: 3c01 e03d c54f 773e f021 cebb f44d ce3d
00000120: 3f16 743d 0bb6 a63b 4f9c a13d 81ab 3a3d
00000130: e59b bc3d 9de3 103e 92f5 133e 6fc9 f73d
00000140: 2724 b13d 427f 293e c3c8 4d3e ce2b b83d
00000150: 7efa 843e 9579 b63d 4dfa 9a3e 93e3 b0bd
00000160: 8f9b cc3d 948d 3c3e feaf d83d e07d 013e
00000170: 1386 e33d dff6 893e d483 293e c081 873d
00000180: b7d8 95bd 1a66 9c3e 354c 053d 2fc5 803d
00000190: 0a96 df3d bbb5 69bb e96c 953d 2abb 5a3e
000001a0: 24a2 7bbe 868f bebd b8a4 c53d 23c9 233e
000001b0: e433 963d 7cb4 3f3d 3583 4e3e 665c 933e
000001c0: 0fba ce3d e737 1e3e 3466 7c3e 1137 8f3e
000001d0: 2075 1e3e ff44 8a3e f4b7 ba3e 3613 523e
000001e0: 0a60 413e 1624 c53d cf2d 883e affa 593e
000001f0: 768e c13d 0f68 653e 1848 a13d 7014 353e
00000200: 7802 643d 5dc8 243e 768a da3c 1cf8 91bb
00000210: 454c 0e3d 9833 8e3d 5290 803d 98d1 723e
00000220: b12b 2f3e 7a53 3f3d 2a17 a43d 226a 4e3e
00000230: 99ed eebb 17ca 8f3e 1ec8 f7bb bdaf 133e
00000240: f3c1 273c 3045 443d 9668 6e3d 608e 7c3e
00000250: 442a 643e b561 233e 8157 d23e 692f 983e
00000260: 7269 443d 41e4 ee3b acc2 883d 6329 353e
00000270: 2423 a23d 609e 1f3e 54e8 253c c29b 6c3e
00000280: 72a6 e03d 0693 193e 6c10 0d3e 61c7 633e
00000290: e0cd 423e 240b b53d 72a8 70bd 00ec 183e
000002a0: 2416 883d d4c9 b63d ae37 a33d b14e 2abc
000002b0: 9166 073e 84e4 e43d bc7c 8c3d 914d fb3d
000002c0: a3d9 263e e1a6 6e3e c347 893e f8d0 1f3e
000002d0: 3401 8a3c 3480 2c3d 8ccd a83d ebfa ce3d
000002e0: 5172 393e ce9e 383e 28dc cebd 790f f7bd
000002f0: 5f1a 383d b113 af3e 9e01 a93d 7d29 c1bd
0.12743495 0.004112709 0.114729665 0.026003292 0.19433331 0.04147087 0.07648005 0.31405562
0.10157084 0.08630481 -0.08791376 0.0043772925 0.26537776 0.13464849 0.18057448 0.19966775
0.15186991 -0.10109202 0.14425892 0.13101383 -0.22512807 0.29952058 -0.001166503 0.014540971
0.13069223 0.0012292853 0.23272446 0.1585573 0.064260125 0.18724628 0.1360976 0.13201286
0.16539758 0.17328694 -0.24307057 0.11943158 -0.0025481116 0.073267646 0.12600751 0.014185949
0.06522291 0.013157328 0.25478706 0.018379107 0.21684977 0.008818735 0.12443917 0.21855193
0.09655072 -0.0077470667 0.09823904 0.21514791 0.05075517 0.029744787 0.15858127 0.01291264
0.27901298 0.041300237 0.1060064 0.13154581 0.09653886 0.07378142 0.11239016 0.12020206
0.110792615 0.062664285 0.17176746 0.1597146 0.109377354 0.24151523 -0.0062906668 0.10073462
0.059591528 0.005087619 0.078911416 0.045573715 0.09209422 0.14149328 0.14449146 0.12098967
0.08649474 0.16552451 0.20096116 0.0899273 0.2597236 0.08909909 0.3026909 -0.08637156
0.09990608 0.18413383 0.10580443 0.12645674 0.11109557 0.2694616 0.16554195 0.06616545
-0.07316726 0.30546647 0.03254338 0.0628761 0.109172896 -0.0035661298 0.072961636 0.2136046
-0.2457357 -0.09304719 0.09650558 0.15994696 0.07334116 0.046802983 0.20167239 0.28781432
0.100940816 0.15451013 0.24648362 0.279717 0.15474367 0.27005765 0.3646847 0.20515141
0.18884292 0.096260235 0.2659745 0.21287034 0.094510004 0.22402976 0.07875079 0.17683578
0.055666417 0.16092058 0.026677351 -0.004454626 0.034740705 0.069434345 0.06277527 0.23712766
0.1710651 0.04671047 0.08012231 0.20157674 -0.0072915074 0.2808387 -0.0075616976 0.14422508
0.010239112 0.047917545 0.05820521 0.24663687 0.22281748 0.15955241 0.41082385 0.2972367
0.047952123 0.0072903936 0.06677756 0.17691569 0.07916859 0.15587759 0.010126192 0.23106292
0.10969247 0.14997491 0.13775796 0.22244026 0.19023848 0.088400155 -0.058754392 0.14933777
0.06644848 0.089252144 0.079696044 -0.010394738 0.1322272 0.111763984 0.06859729 0.12270654
0.1629396 0.23305847 0.26812562 0.15607059 0.016846277 0.04211445 0.0824233 0.101064526
0.18110014 0.18029329 -0.10100585 -0.12063498 0.044947024 0.3419471 0.082522616 -0.094317414
